Reduced_model/Saved_models/models_trained/training_torch_simple_mask_copy_model_0c0d128f64n_d-separator30.pth (torch, 96245 bytes, 14 tensors)

feature_extraction_layer.1.weight f4 [128, 4, 25]
000000 bb fb 02 00 70 a8 4f 8f 2a f9 05 80 ce a4 8a 0f
       2.73975e-40 -1.0238328e-29 -5.48561e-40 1.3671331e-29
000010 fb 09 03 80 1c 58 15 99 5d f3 44 05 fe 77 02 00
       -2.79087e-40 -7.720913e-24 9.2605745e-36 2.26716e-40
000020 37 d8 03 80 ec f0 00 00 32 cd 01 00 5b 45 05 80
       -3.5307e-40 8.6426e-41 1.65446e-40 -4.84058e-40
000030 6a 9f 00 80 46 de 00 00 e9 fc 56 14 7b 14 68 83
       -5.7187e-41 7.9737e-41 1.0854117e-26 -6.8202183e-37
000040 af 56 00 80 e5 f2 14 00 6d 02 07 00 3f 0a 07 80
       -3.1096e-41 1.923844e-39 6.43719e-40 -6.46524e-40
000050 6d 8c 04 80 6f 0d 3d 18 58 41 05 80 3b 0b 04 00
       -4.17717e-40 2.443446e-24 -4.82618e-40 3.71371e-40
000060 3b 99 04 00 3b 29 74 08 16 42 00 00 20 85 db 95
       4.22311e-40 7.3474545e-34 2.3707e-41 -8.866343e-26
000070 fc b8 10 13 89 0d 03 80 40 0d 7c 93 b8 7b 37 12
       1.826656e-27 -2.80362e-40 -3.1813404e-27 5.7897113e-28
000080 b9 45 1b 05 33 67 06 80 14 db f9 88 7f 67 06 80
       7.300871e-36 -5.88034e-40 -1.5037647e-33 -5.8814e-40
000090 96 04 01 80 73 dd 01 00 81 ff 05 00 2f 5a 07 80
       -9.348e-41 1.71277e-40 5.50835e-40 -6.752e-40
0000a0 e3 19 00 80 91 54 c3 0a 0f 36 01 00 00 14 e3 06
       -9.286e-42 1.8809627e-32 1.11228e-40 8.5417297e-35
0000b0 51 57 1f 83 0a 7a 05 00 ad 60 01 14 dc 49 28 80
       -4.6826135e-37 5.02957e-40 6.5319016e-27 -3.699916e-39
0000c0 eb 9c 78 03 65 9a 01 00 78 34 53 09 4f 76 01 80
       7.3060783e-37 1.47222e-40 2.5422872e-33 -1.34277e-40
0000d0 bd d4 01 00 7c 76 4e 83 ea 4f 33 02 63 bc 02 80
       1.68152e-40 -6.0673972e-37 1.3173777e-37 -2.51251e-40
0000e0 81 6b 03 00 c2 6e 90 09 78 2c 35 89 ba ec 05 00
       3.14072e-40 3.4770895e-33 -2.1807992e-33 5.44099e-40
0000f0 b8 c3 0e 00 51 7b 59 87 11 13 03 00 33 6e 80 81
       1.355908e-39 -1.6361505e-34 2.82346e-40 -4.71779e-38
000100 7a e7 0b 0c 6d 26 f8 04 6d fb 01 11 09 60 80 87
       1.0777828e-31 5.833981e-36 1.0253782e-28 -1.9315744e-34
000110 fd 2b 1f 94 88 34 86 90 35 a1 06 80 1a 6c 03 00
       -8.036124e-27 -5.293462e-29 -6.08843e-40 3.14286e-40
000120 b3 56 05 80 dc 40 02 1c 0b b0 ec 0b d6 3c 05 80
       -4.9028e-40 4.309722e-22 9.1168773e-32 -4.81001e-40
000130 f7 c2 00 00 fe 92 17 80 95 ba 03 00 b3 c0 01 00
       6.994e-41 -2.164947e-39 3.4244e-40 1.60963e-40
000140 42 2f 02 00 5a ac 01 00 a5 77 07 80 89 16 00 00
       2.00624e-40 1.53664e-40 -6.85769e-40 8.084e-42
000150 c2 01 01 03 44 75 03 80 f6 69 4b 83 82 f6 04 80
       3.791171e-37 -3.17573e-40 -5.9777975e-37 -4.55772e-40
000160 1c 4d 02 00 88 d5 ae 8d 16 48 01 00 da 04 03 00
       2.11333e-40 -1.0774984e-30 1.17695e-40 2.77247e-40
000170 24 dd 58 96 df ff 05 00 65 6b 03 80 36 d5 00 00
       -1.7518121e-25 5.50967e-40 -3.14032e-40 7.6486e-41
000180 3e 01 04 00 5f cf 03 00 da c5 aa a0 82 2c 05 00
       3.67788e-40 3.49897e-40 -2.8930047e-19 4.75144e-40
000190 2a 93 07 00 6d f5 b8 89 cf 36 eb 96 89 3c a3 81
       6.95641e-40 -4.4527186e-33 -3.8000887e-25 -5.9963607e-38
0001a0 20 9f 91 a4 94 a9 2c 09 e9 8d 01 80 c9 32 2b 00
       -6.3153294e-17 2.0783482e-33 -1.42743e-40 3.967145e-39
0001b0 dd 47 c4 98 5a ea 05 00 87 9b fc 84 35 e5 ac 85
       -5.0737376e-24 5.43247e-40 -5.9387745e-36 -1.6259e-35
0001c0 27 b0 cc 14 ab 9d 01 80 f0 46 10 8f 2b 5c 03 80
       2.0668216e-26 -1.48396e-40 -7.11341e-30 -3.0857e-40
0001d0 1c 74 d0 16 a9 cb 29 99 a3 47 08 00 b5 7d 6f a3
       3.3677488e-25 -8.778224e-24 7.60382e-40 -1.29828355e-17
0001e0 6c b7 d9 9a 7c 8c 05 00 86 e4 7a 07 b3 d7 52 98
       -9.004543e-23 5.09574e-40 1.8875067e-34 -2.7250764e-24
0001f0 72 6d 04 00 b3 34 05 80 69 9e 02 80 10 dd a9 14
       4.06604e-40 -4.78082e-40 -2.40498e-40 1.7151833e-26
000200 fb dd 15 83 bc 5c 07 80 51 a1 06 00 d7 b1 ce 07
       -4.4041986e-37 -6.76115e-40 6.08882e-40 3.109996e-34
000210 c3 29 06 00 2c e4 ef 8f fd 7b f2 13 67 39 00 80
       5.65994e-40 -2.3655108e-29 6.121165e-27 -2.0592e-41
000220 d7 c7 8a 16 9d a4 2a 0a 10 79 b6 24 f0 fc 04 80
       2.242122e-25 8.2161626e-33 7.9135006e-17 -4.58079e-40
000230 06 b7 9e 8d 99 b9 04 00 53 25 10 80 2b 32 07 80
       -9.781563e-31 4.33922e-40 -1.482757e-39 -6.60845e-40
000240 ec 41 8b 02 28 31 c6 95 7d 08 a3 9a 24 f4 72 14
       2.0462052e-37 -8.004912e-26 -6.7428933e-23 1.2266026e-26
000250 de b9 64 0a cb e5 c1 08 2a 4c 23 a9 2b db 01 00
       1.10127584e-32 1.1669789e-33 -3.6259332e-14 1.70458e-40
000260 4e 45 5c 88 e6 76 72 00 97 0e 1b 29 70 69 aa 06
       -6.628531e-34 1.0511899e-38 3.442957e-14 6.410182e-35
000270 ad 93 6d 96 b9 eb f3 a5 6a f1 a8 18 02 90 ba 00
       -1.9191306e-25 -4.2313512e-16 4.367075e-24 1.7133063e-38
000280 06 26 07 80 7f 3e 49 86 e6 5b b1 96 5e 55 34 04
       -6.56489e-40 -3.7849813e-35 -2.8653888e-25 2.1198097e-36
000290 1a 13 e9 18 76 33 51 91 3a 7a a5 8c f5 d7 3f 8b
       6.0248376e-24 -1.650305e-28 -2.5495838e-31 -3.694773e-32
0002a0 a6 bf 33 9c c1 41 05 80 f1 ee aa 29 78 38 47 89
       -5.947383e-22 -4.82766e-40 7.590966e-14 -2.3980305e-33
0002b0 4f 13 cd 9a ad 5b 05 1f af 40 69 81 2d 75 c6 27
       -8.481721e-23 2.8239678e-20 -4.284175e-38 5.508308e-15
0002c0 59 2a 02 00 47 54 d5 9e 9d 28 c2 0c 75 ea 03 00
       1.98862e-40 -2.2587109e-20 2.9914876e-31 3.59614e-40
0002d0 06 26 8e 00 b9 8f 1b 20 11 7d bd 1b 56 dc 05 80
       1.305428e-38 1.3176565e-19 3.134825e-22 -5.38219e-40
0002e0 3a 69 07 0a 5e 20 02 00 86 cc 08 00 ca ca 05 00
       6.5198045e-33 1.95282e-40 8.08053e-40 5.31924e-40
0002f0 f3 1e 8c 16 b4 fb 1a 02 5d 18 02 80 d4 9e ae 8a
       2.2637752e-25 1.1386368e-37 -1.92411e-40 -1.6815335e-32
000300 12 7c 00 00 e2 f2 87 10 f7 cb ed 85 90 62 d9 8c
       4.4508e-41 5.362233e-29 -2.2362298e-35 -3.3493464e-31
000310 c6 5f 05 80 4f cf b8 11 9d 27 99 0b 63 10 01 00
       -4.93535e-40 2.9157845e-28 5.899306e-32 9.7714e-41
000320 33 60 1b 3a be 94 0f be 8e 75 10 3d c4 ef 3c 3d
       0.00059271156 -0.14021584 0.03526836 0.046127096
000330 8b 4f 0d bc bb 67 6d 3c 9a 08 f2 3b 3b e3 a0 3b
       -0.008624922 0.014490063 0.0073862793 0.0049099005
000340 71 61 1e 3a a5 3f e7 3b a3 57 79 bb 06 e9 f8 3c
       0.00060417416 0.0070571476 -0.003804662 0.030384552
000350 be ab 07 3c 96 2a 0d 3e ef a7 bf 3b 6c ef cc 3c
       0.008280693 0.13785776 0.0058488767 0.025016509
000360 49 80 9e 3b 15 45 81 ba e6 b6 e0 3d cf d0 ee 3b
       0.00483707 -0.0009862507 0.10972385 0.0072880755
000370 e2 72 f8 39 e1 d9 8f bc d3 24 71 39 ef 1a 1e 3b
       0.0004738784 -0.017559947 0.00022997269 0.002412494
000380 46 c6 78 3a c4 d2 84 3b 10 de 01 3e 2e 96 c5 3c
       0.0009489994 0.0040534455 0.12682366 0.024119463
000390 90 82 0a be 59 71 be 3c 50 45 a8 3e 90 be 5d bc
       -0.13526368 0.023247408 0.3286538 -0.013534203
0003a0 d1 ef 1b 3c ae 0b 02 3d 1b 36 a1 39 3f 09 ac 3c
       0.009517626 0.03174942 0.00030748625 0.021000503
0003b0 c9 3f 70 bc 87 09 d1 bb e3 1f 8a bc 83 d2 3b 3c
       -0.014663645 -0.0063793096 -0.016860908 0.011463764
0003c0 fe 53 fb bb 01 4b 34 3b be 32 7b 3c e1 3b 82 bc
       -0.0076699248 0.0027510526 0.015331922 -0.015897693
0003d0 aa 9e b3 3c 81 7d 4e 3c 00 04 a1 3c 9c 42 55 3d
       0.021926243 0.012603165 0.019655228 0.052065477
0003e0 69 3e b4 bc 2d 32 2f 3c c6 ad 2b 3c 9d 68 b3 3c
       -0.022002416 0.010693115 0.010478443 0.02190047
0003f0 03 17 ce 3b 46 f2 b5 3d bf 9f 6a 3c 6a 3b 24 bf
       0.0062893643 0.088841006 0.014320313 -0.6415316

feature_extraction_layer.1.bias f4 [128]
000000 f1 88 0b 00 63 58 08 00 21 bd 2f 80 da 42 18 00
       1.059316e-39 7.66391e-40 -4.384115e-39 2.228034e-39
000010 ae 6e 09 00 b2 b1 0e 00 62 ec 2b 00 09 0c 28 80
       8.66224e-40 1.349442e-39 4.033725e-39 -3.677737e-39
000020 18 5a 28 00 39 38 0b 00 c6 f4 3f 80 f9 8a 26 00
       3.70574e-39 1.03036e-39 -5.873444e-39 3.539603e-39
000030 f6 b1 3d 80 97 fe 30 80 e9 57 34 00 07 b1 14 80
       -5.665806e-39 -4.499433e-39 4.806982e-39 -1.900215e-39
000040 cc 6c 07 80 49 f8 11 80 9f e1 32 00 0a a4 36 00
       -6.81877e-40 -1.650271e-39 4.672712e-39 5.017963e-39
000050 02 89 27 00 97 7d 30 00 33 6f 2e 00 e7 5d 07 00
       3.630733e-39 4.453157e-39 4.264324e-39 6.76534e-40
000060 b2 89 08 80 46 d6 08 00 84 46 20 39 78 65 32 80
       -7.8408e-40 8.11551e-40 0.00015285058 -4.628175e-39
000070 08 5c 84 39 de a6 35 80 3a 73 38 80 61 35 b3 b8
       0.0002524557 -4.927142e-39 -5.184123e-39 -8.545328e-05
000080 29 a0 80 3a 0d 40 10 00 9c fd 16 80 0c 81 37 00
       0.0009813356 1.492345e-39 -2.111359e-39 5.097246e-39
000090 ca 4d 38 00 a5 68 18 00 2f 96 21 80 41 4f 7a 3a
       5.170693e-39 2.241591e-39 -3.084447e-39 0.0009548553
0000a0 1e a6 0d 00 6e 15 2e 00 99 7e 07 00 28 7c 2d 80
       1.253453e-39 4.23212e-39 6.88263e-40 -4.177136e-39
0000b0 8e a4 38 00 d3 c6 23 00 76 63 1d 00 78 4e 15 00
       5.201819e-39 3.285567e-39 2.698909e-39 1.956695e-39
0000c0 ff f2 9f 37 b9 f8 19 00 41 50 0a 00 15 ab 36 00
       1.9067431e-05 2.385112e-39 9.47145e-40 5.02049e-39
0000d0 d5 a3 00 00 b1 df 1f 00 34 ae 2c 00 18 fc 0b 80
       5.8772e-41 2.927146e-39 4.103254e-39 -1.100625e-39
0000e0 62 cf 27 80 b3 e5 3b 00 5d a2 19 00 3a c7 1a 80
       -3.655979e-39 5.500695e-39 2.354132e-39 -2.459192e-39
0000f0 6a 9d 22 80 b4 fa 2e 80 98 e0 21 80 fa 61 8c b8
       -3.178876e-39 -4.314368e-39 -3.11114e-39 -6.69397e-05
000100 e5 a5 2c 80 cf ce 32 00 fd 36 35 00 6b 55 0b 00
       -4.100274e-39 4.665964e-39 4.887007e-39 1.040833e-39
000110 ff 27 b1 0d da a3 23 00 4e 4e 1c 00 b4 86 2c 00
       1.0918096e-30 3.273021e-39 2.599484e-39 4.089084e-39
000120 52 ec 40 80 7e 6d 13 00 fd bc 27 00 75 a9 19 00
       -5.962248e-39 1.784153e-39 3.64938e-39 2.356677e-39
000130 68 29 0d 00 c2 8c 34 00 62 89 29 00 e0 62 36 00
       1.208715e-39 4.82594e-39 3.814539e-39 4.994586e-39
000140 80 c7 2f 00 a4 a6 1a 80 cf 2d 26 0b aa 23 10 80
       4.387835e-39 -2.447502e-39 3.20049e-32 -1.482162e-39
000150 c1 3d 10 00 6f f4 27 00 1b a3 26 80 ae b8 11 00
       1.491521e-39 3.66927e-39 -3.54826e-39 1.627454e-39
000160 f0 31 11 00 d2 f4 32 80 a9 80 33 80 c2 d0 37 80
       1.579118e-39 -4.6796e-39 -4.729765e-39 -5.12584e-39
000170 d0 2c 38 00 2e 44 3a 80 13 38 2a 80 3b a2 21 80
       5.158863e-39 -5.350917e-39 -3.877206e-39 -3.088769e-39
000180 6b da 2b 80 f5 52 52 13 a4 a7 1a 00 47 49 13 00
       -4.02728e-39 2.6546627e-27 2.447861e-39 1.771161e-39
000190 79 14 3c 80 86 00 16 80 1a 6a 26 80 3b 5e 24 80
       -5.517474e-39 -2.020569e-39 -3.527811e-39 -3.339881e-39
0001a0 cd 23 15 00 21 f9 0b 80 96 fd 07 00 ba 24 29 80
       1.941388e-39 -1.099561e-39 7.33818e-40 -3.77843e-39
0001b0 fe f2 16 80 d7 70 26 00 71 8b 22 80 de 20 0b 80
       -2.10755e-39 3.530228e-39 -3.172429e-39 -1.021981e-39
0001c0 f0 39 2e 80 16 1e 17 00 b3 c3 38 80 63 09 34 80
       -4.245217e-39 2.123009e-39 -5.212991e-39 -4.778813e-39
0001d0 e6 59 3a 00 7a 7e 28 80 f9 c6 27 80 cd 2a 33 80
       5.358708e-39 -3.718791e-39 -3.652962e-39 -4.698964e-39
0001e0 0e ef 35 80 27 28 0e 00 fb b2 2f 80 ff 9d 32 80
       -4.953038e-39 1.300101e-39 -4.380474e-39 -4.648453e-39
0001f0 84 3a 3a 80 a8 2f 1b 80 54 91 35 00 27 c1 2f 80
       -5.34745e-39 -2.496654e-39 4.919415e-39 -4.385558e-39

feature_extraction_layer.2.weight f4 [128]
000000 fd f5 b7 bb 49 f5 64 bc 30 10 9a 3e 82 0c 00 bc
       -0.005614041 -0.013974496 0.30090475 -0.007815482
000010 49 32 47 bc f2 aa 92 38 98 57 86 39 85 02 96 bc
       -0.012157985 6.9936636e-05 0.00025623734 -0.018311748
000020 e3 35 cb 3b 26 88 d7 3b 70 ee 1c 3c cd ae 8e 39
       0.006201492 0.0065775095 0.009578332 0.00027214587
000030 88 3c c3 3b 5a 5e a3 3a b3 e7 6b 3b d9 80 87 3a
       0.0059581436 0.0012464032 0.0035996258 0.0010338082
000040 6d a7 87 3c 1e 4c 0b bc b7 ce 6c 3b 79 ec 11 bc
       0.016559327 -0.0085020345 0.0036133954 -0.008906477
000050 61 61 4d 3c 94 cf 18 ba aa 82 34 bb c6 48 02 bc
       0.012535424 -0.00058292714 -0.0027543702 -0.007951921
000060 b6 c2 db 3b a9 2e 3e 3b cc 11 89 3f 1d 22 08 bc
       0.006706561 0.002901951 1.0708556 -0.0083089145
000070 e9 cc b4 3f bf 9f cd 39 8d e7 41 bb 24 7d 8f 3f
       1.4125034 0.00039219667 -0.0029587478 1.1210065
000080 98 c4 c2 3f 14 99 5e b9 7b 70 07 39 a9 ee eb 3a
       1.5216246 -0.00021228596 0.00012916506 0.0018000203
000090 bf 22 45 b9 d7 22 1a 3a b9 92 2c 3b 93 69 af 3f
       -0.00018800328 0.00058798253 0.002633257 1.3704094
0000a0 cb 6d b5 bb 8d 57 02 3a d3 f8 31 39 9a 80 0e 3c
       -0.00553677 0.00049721525 0.0001697273 0.008697653
0000b0 9d a8 54 bc ba b6 09 bb eb 66 0d 3c 2a e5 44 3c
       -0.012979654 -0.0021013455 0.008630495 0.012017528
0000c0 c6 40 c1 3f a9 6e 1d 38 2b 4e 35 bb d4 83 7e bc
       1.5097892 3.7534777e-05 -0.0027665 -0.01553436
0000d0 ba 81 47 3d 23 f2 82 b6 ac 51 4b bc 40 e3 85 3a
       0.0487077 -3.9024903e-06 -0.012409609 0.001021482
0000e0 d8 8a 05 3c ec af 32 b8 63 eb b3 3c 46 85 25 3d
       0.008150779 -4.2602347e-05 0.021962827 0.040410303
0000f0 d1 b9 b3 3a 89 67 26 3c b7 5c 40 3d 45 d0 60 3f
       0.0013711994 0.010156521 0.04696342 0.87817794
000100 11 20 57 ba ae 1f 18 3c 4a 06 9d bb 95 af 4e 3b
       -0.00082063774 0.009284897 -0.0047920095 0.003153776
000110 77 de 7e bc 88 be 97 3b cb 98 96 3a 4d f2 8b 3c
       -0.015555969 0.0046308674 0.0011489628 0.017083311
000120 1f 42 21 bb 82 76 b8 ba 78 ac 3d 3e f2 c1 1e bc
       -0.0024606062 -0.0014073404 0.18522823 -0.009689795
000130 de 12 b2 bc ad 6f aa ba 7f 30 b2 3c a4 03 f5 b8
       -0.021737512 -0.0013003253 0.02175164 -0.000116831885
000140 23 33 0a 3d 03 94 05 3b bc 9d 00 bc dd f9 c2 ba
       0.033740174 0.0020382411 -0.007850107 -0.001487549
000150 cd 6d 6a b9 6d d0 34 bb 4d 1a e5 b8 53 c3 eb 39
       -0.00022356883 -0.0027590052 -0.0001092447 0.0004496822
000160 0b 3e 06 3c a5 b6 3d 3b ea 3b c2 39 72 19 33 bc
       0.008193503 0.0028947976 0.00037047203 -0.01093136
000170 f3 57 b0 3c 4b fa 90 3c 88 5e 60 bd 19 87 c6 3c
       0.021526312 0.017697474 -0.054777652 0.024234341
000180 41 50 ae 3c 12 16 cf bc a8 bd c1 3b 34 96 1e 3c
       0.021278502 -0.025279079 0.0059125014 0.009679366
000190 d6 29 0d bc 83 14 45 bc 1e 1f 0f b8 b3 1f cb b9
       -0.0086159315 -0.012028816 -3.4122837e-05 -0.00038742795
0001a0 a8 ee 9a 39 cc 58 f0 bc 62 6f fd 3b ab 8a 6d bc
       0.00029550982 -0.029339217 0.007734225 -0.014498393
0001b0 e7 16 ef 3c f8 ee 05 bc 52 e0 2c bb af 96 76 3a
       0.029185725 -0.00817465 -0.0026378823 0.0009406609
0001c0 12 d7 5e 3a 87 3b 3c 3a b1 45 16 3d 5d 71 9e b9
       0.0008500676 0.0007180501 0.036687557 -0.0003022057
0001d0 57 28 36 3b fd 87 50 bb 57 9d aa 3a 89 8e 2d bd
       0.002779504 -0.0031819337 0.0013016862 -0.04237226
0001e0 2d c2 fa 3e 80 00 9a 39 62 99 48 3b 85 87 75 39
       0.4897627 0.00029373541 0.0030609001 0.00023415506
0001f0 ea 0f 49 3d a6 87 10 b8 c7 12 a0 3c 45 fd 05 bc
       0.049087442 -3.4458608e-05 0.019540204 -0.00817806

feature_extraction_layer.2.bias f4 [128]
000000 b4 3b a3 b4 dc 07 1f b8 89 01 ef bf d2 35 4d bc
       -3.0404556e-07 -3.7915874e-05 -1.8672343 -0.012525039
000010 f3 cb 8e ba 3a 13 ef b3 48 41 1e b1 8e 12 32 bc
       -0.0010894522 -1.1132802e-07 -2.3029134e-09 -0.010868682
000020 35 db ad b9 2a 4f 26 b8 d6 0d 05 b9 48 60 a3 b5
       -0.00033160453 -3.965121e-05 -0.00012689023 -1.2172468e-06
000030 14 6c 4a b3 23 bb 12 bc 38 9d cd b6 cd d2 cb b3
       -4.7130087e-08 -0.00895575 -6.1277788e-06 -9.4912686e-08
000040 f6 a4 08 b9 d9 86 81 b8 8a d2 a0 bc 9c db 05 b6
       -0.00013031423 -6.176317e-05 -0.019631643 -1.9946374e-06
000050 a6 06 aa ba 2f f8 c4 ae 25 b2 28 b7 7b 14 a3 b8
       -0.0012971952 -8.957134e-11 -1.0055058e-05 -7.7762605e-05
000060 c4 a6 1e b4 94 f6 17 b8 b9 35 1d c0 b7 1b d0 b9
       -1.4775566e-07 -3.623085e-05 -2.456404 -0.000396935
000070 f8 ec 3d c0 8a 88 c4 af d0 6c 9b b1 ff aa 4f c0
       -2.9675884 -3.574921e-10 -4.5234643e-09 -3.2448118
000080 1d 02 61 c0 74 20 07 b3 b9 1d d1 ad 54 c5 62 b6
       -3.515754 -3.1461653e-08 -2.3773749e-11 -3.3791484e-06
000090 da 45 84 ac 8c 51 0d aa 8e 5f 3e b6 85 88 81 c0
       -3.7594207e-12 -1.2551608e-13 -2.8367826e-06 -4.047915
0000a0 fc b2 a0 b7 3c 1a 7f b9 01 92 86 b1 4b c4 04 b6
       -1.9156832e-05 -0.00024328468 -3.916512e-09 -1.978379e-06
0000b0 ed f0 7f b9 d0 2d 04 b8 02 5e 9a b4 57 51 0c bc
       -0.00024408447 -3.151392e-05 -2.8753135e-07 -0.008564315
0000c0 c0 d8 97 c0 a2 59 9b b4 1a 22 2a b5 59 6a ef b9
       -4.7452087 -2.8936216e-07 -6.337956e-07 -0.00045664868
0000d0 f4 99 ea bd 3f 42 51 a3 be 81 47 b8 46 c2 d5 b4
       -0.114551455 -1.1343941e-17 -4.756613e-05 -3.9815694e-07
0000e0 38 01 9f b4 18 cd 3e a7 93 47 15 ba 30 6e 22 ba
       -2.9616945e-07 -2.6478978e-15 -0.00056945643 -0.0006196229
0000f0 4b ce 36 b4 f5 f3 4f b7 ad ee 39 bc f9 43 38 c0
       -1.702512e-07 -1.2394962e-05 -0.011348409 -2.8791487
000100 dc 8d 9b b3 b8 a7 1a b7 9c d6 b7 b7 5f af 51 b8
       -7.243554e-08 -9.218165e-06 -2.1915235e-05 -4.999281e-05
000110 be 2f 3e be eb 48 40 ba 83 37 26 b5 a7 2a 36 ba
       -0.185729 -0.00073350844 -6.19206e-07 -0.0006949105
000120 00 9c b3 b4 d1 19 88 b1 39 d3 db bd 59 b2 95 bc
       -3.3454853e-07 -3.961056e-09 -0.10733647 -0.01827352
000130 b7 0e c2 bc 54 29 eb b4 79 3f 05 b7 66 94 8a af
       -0.023688657 -4.380223e-07 -7.942196e-06 -2.5207497e-10
000140 ab 23 c3 bc b0 07 2b af 63 56 77 bd 05 89 d0 b3
       -0.023820719 -1.555509e-10 -0.06038512 -9.7106785e-08
000150 78 12 b7 b2 93 ba b9 b1 a7 23 b4 ad 66 a4 2e b1
       -2.1312403e-08 -5.4054197e-09 -2.0479464e-11 -2.5413782e-09
000160 07 c2 93 b6 a7 5c d2 b1 dc 0d 2d ad be fc 23 bb
       -4.403529e-06 -6.1223377e-09 -9.836989e-12 -0.0025022472
000170 49 fd 9f b8 bb 09 31 b7 ce d7 ed be 0b af 31 b9
       -7.628889e-05 -1.0552288e-05 -0.46453708 -0.00016945244
000180 26 ce 0a b9 d0 a3 30 be 7e 4f b3 b5 bf 27 49 b7
       -0.00013237502 -0.1724999 -1.3359675e-06 -1.1989788e-05
000190 34 7a 7e ba b9 67 a2 b9 e1 9c 9b a7 2f 2c ec af
       -0.0009707541 -0.00030976327 -4.319123e-15 -4.2959544e-10
0001a0 c9 63 2f a9 cb 2f 82 bb 3d 13 ba b7 73 27 b9 bb
       -3.8944356e-14 -0.0039729825 -2.2181886e-05 -0.0056504547
0001b0 e2 bd c3 bd 4a 83 b9 b5 0c 0c d6 b1 b9 9e 19 b6
       -0.09557702 -1.3821784e-06 -6.2295893e-09 -2.2891165e-06
0001c0 5e 0c 03 b3 4a 31 91 b2 2a aa 7f bb 17 fa 5b ae
       -3.0512062e-08 -1.6902636e-08 -0.0039011338 -5.001696e-11
0001d0 94 82 bf b8 fb ec 3f ba 64 ae 73 b2 d0 37 81 bc
       -9.131912e-05 -0.00073213846 -1.4184113e-08 -0.015773684
0001e0 f0 e5 f1 bf d0 0c bb ab 2b 40 04 b5 9b e8 c6 ac
       -1.8898296 -1.3290705e-12 -4.926721e-07 -5.653323e-12
0001f0 d6 ae 88 bd af ef 16 a7 00 4e 26 b9 a8 0e 6b ba
       -0.06673972 -2.0946614e-15 -0.00015860051 -0.00089667225

feature_extraction_layer.2.running_mean f4 [128]
000000 c1 7f 99 9f 7f 51 07 29 37 d3 b9 3d 56 bd 06 2d
       -6.500937e-20 3.0046708e-14 0.09073489 7.659059e-12
000010 12 c7 bc 27 bc 3a aa 95 87 8b 4f 19 25 d4 05 b4
       5.2396315e-15 -6.875512e-26 1.07298265e-23 -1.2463768e-07
000020 c9 db 6e a4 ea d2 35 9f 8d 70 9c a9 c4 f3 5a ab
       -5.179419e-17 -3.8502705e-20 -6.947316e-14 -7.778745e-13
000030 09 7b 52 a4 0a 02 a7 ab 63 06 9d 9d 3e d6 65 9a
       -4.5640706e-17 -1.186663e-12 -4.1564158e-21 -4.7529154e-23
000040 6d 82 8c 23 67 c5 88 28 f5 59 ac 34 bf dc 0f 26
       1.5234068e-17 1.5184643e-14 3.210295e-07 4.991226e-16
000050 77 ed 05 b9 18 31 81 8a f2 7e 8c ae 49 4e 62 2b
       -0.00012772331 -1.2440715e-32 -6.389013e-11 8.039997e-13
000060 85 b2 83 9f 5d 7d 0e a1 e2 3a 10 3e 3c 6d 4f 2e
       -5.5775994e-20 -4.827739e-19 0.14084962 4.716337e-11
000070 b7 5b 8c 3f d2 2a b5 1c e0 c3 90 9f ff bf 6a 3e
       1.0965489 1.1988644e-21 -6.131042e-20 0.22924803
000080 77 43 2c 40 b7 8d 22 1e a4 e9 ff 16 32 10 d4 ac
       2.6916177 8.6055145e-21 4.134492e-25 -6.0272004e-12
000090 d6 9e a9 92 cc ca 79 90 5a df 41 ac af 58 13 be
       -1.0704556e-27 -4.926282e-29 -2.7550935e-12 -0.14389299
0000a0 eb ad 38 28 53 13 ff a6 b4 4e b5 1e 78 92 f7 23
       1.0251764e-14 -1.7699417e-15 1.9196671e-20 2.6841826e-17
0000b0 d5 40 ae 2a bb 0f 28 2a bb 25 94 a7 23 ed b3 b9
       3.0953595e-13 1.4926855e-13 -4.111916e-15 -0.0003431822
0000c0 89 64 9f 3f c6 02 a9 23 eb b9 bb 96 dc c0 61 2a
       1.2452556 1.8324191e-17 -3.032881e-25 2.0050926e-13
0000d0 97 8f a1 b8 02 30 ae 06 7b da c7 28 64 41 d3 29
       -7.703824e-05 6.5522067e-35 2.2188189e-14 9.381626e-14
0000e0 43 ce 29 ad 30 fc f2 0c e8 f2 9a b1 ec 7c 44 ad
       -9.652337e-12 3.7437784e-31 -4.509605e-09 -1.1169048e-11
0000f0 85 82 a1 94 cd 0e 59 25 d9 d5 d6 b4 c5 ed 65 be
       -1.6308326e-26 1.8826764e-16 -4.00162e-07 -0.22453983
000100 59 93 84 24 b9 35 6c 2a 99 86 6d 2a 6c 30 c3 22
       5.749549e-17 2.097965e-13 2.1096526e-13 5.2906125e-18
000110 53 fd a2 3b 43 10 84 a8 d5 ee 9a 28 2b 71 88 a5
       0.0049740463 -1.4661996e-14 1.7201011e-14 -2.3668925e-16
000120 68 79 1e a7 ee bf bb 1a 82 05 7e ba 37 a5 ff 36
       -2.199272e-15 7.7651466e-23 -0.0009690152 7.6188257e-06
000130 47 bd 67 af 32 eb bd a1 8f c6 a8 22 8f 5c d6 23
       -2.1076572e-10 -1.2869394e-18 4.5746723e-18 2.3241127e-17
000140 37 96 9b af a4 49 bb 9a 35 f8 e9 36 b6 a8 e8 1f
       -2.830107e-10 -7.746036e-23 6.972836e-06 9.853493e-20
000150 c9 87 4c 18 56 7d b7 1c 10 11 29 a6 b8 f2 01 a6
       2.6434936e-24 1.2142323e-21 -5.865678e-16 -4.508481e-16
000160 e6 b9 90 1d 6c 71 e4 17 4b a0 96 1d c9 1b f8 30
       3.8308697e-21 1.4762786e-24 3.987041e-21 1.8052272e-09
000170 11 28 75 a7 af b1 59 a1 65 26 15 bc 8c 42 e6 1f
       -3.40223e-15 -7.375762e-19 -0.009103392 9.751888e-20
000180 4e f0 8a a4 04 25 93 b8 19 ff 52 a6 db f4 37 2d
       -6.025505e-17 -7.016401e-05 -7.320411e-16 1.04567145e-11
000190 46 d4 4c b1 92 4a 4e a3 31 34 83 87 98 46 68 a3
       -2.980657e-09 -1.1183073e-17 -1.9741365e-34 -1.2591694e-17
0001a0 58 d2 16 0d 73 6f 9e ab d8 68 c7 ab 7c 06 2e 2b
       4.647551e-31 -1.1257509e-12 -1.41689e-12 6.1826217e-13
0001b0 ee d6 27 b6 60 66 47 ac f3 7c 24 a4 61 a7 17 a6
       -2.5010045e-06 -2.833643e-12 -3.5667667e-17 -5.261549e-16
0001c0 93 ac 3c 24 43 08 36 23 fb 21 8c 2f ba 64 46 a9
       4.0912178e-17 9.867989e-18 2.5489996e-10 -4.4052198e-14
0001d0 fb 7e 89 28 76 10 28 ac a3 35 a0 a9 8a b2 2d 31
       1.5265124e-14 -2.3883374e-12 -7.114732e-14 2.52763e-09
0001e0 17 35 6a 3f 09 c7 47 9b 67 19 89 22 32 85 6f 87
       0.9148726 -1.6525206e-22 3.716082e-18 -1.8019504e-34
0001f0 7e 7a 29 39 0f e6 36 98 07 b1 c7 a7 7c f8 56 ac
       0.00016162728 -2.3639099e-24 -5.542553e-15 -3.0549166e-12

feature_extraction_layer.2.running_var f4 [128]
000000 1f f3 f9 00 74 bf 5d 13 f0 e9 4b 3e f8 78 b5 1c
       2.2954254e-38 2.7988515e-27 0.19913459 1.2008845e-21
000010 67 ac 32 10 04 00 00 00 04 00 00 00 df c2 16 29
       3.5237124e-29 6e-45 6e-45 3.3475714e-14
000020 9e 9f 62 0a 9c 2a 52 00 d0 e8 51 14 56 52 cc 17
       1.0911525e-32 7.545796e-39 1.0597718e-26 1.3203976e-24
000030 80 91 c3 09 3c 43 4d 19 5c 76 00 00 09 00 00 00
       4.708137e-33 1.06118295e-23 4.246e-41 1.3e-44
000040 ee f5 f7 09 0a d1 22 12 12 bd bf 2a 1d 6c 36 0d
       5.969436e-33 5.1375847e-28 3.405961e-13 5.6213217e-31
000050 0e b3 15 33 04 00 00 00 db 4a 26 1e 0e af d8 17
       3.4854615e-08 6e-45 8.8034466e-21 1.4002863e-24
000060 73 f5 50 00 29 9a 3a 03 40 5d b8 40 85 ef d3 1d
       7.43489e-39 5.4837454e-37 5.761383 5.6098892e-21
000070 1d 34 c4 40 23 46 00 00 c9 91 38 02 23 2c f2 40
       6.1313615 2.516e-41 1.3560023e-37 7.567888
000080 65 27 ee 40 fc a5 01 00 04 00 00 00 09 e3 47 1b
       7.442309 1.5138e-40 6e-45 1.6534253e-22
000090 04 00 00 00 04 00 00 00 0b 3d b9 19 6d 7e d2 40
       6e-45 6e-45 1.9153207e-23 6.577933
0000a0 33 d1 c8 11 09 a7 16 0f c5 7d 03 00 08 09 7f 08
       3.1683365e-28 7.427741e-30 3.20624e-40 7.6746887e-34
0000b0 cb e6 cc 15 09 b9 76 15 74 a6 3f 10 c5 2c 33 35
       8.275907e-26 4.982527e-26 3.779634e-29 6.6747845e-07
0000c0 1d 3f 14 41 01 99 7f 08 04 00 00 00 70 59 ed 15
       9.2654085 7.6916126e-34 6e-45 9.5864645e-26
0000d0 1c 22 8a 32 04 00 00 00 7f 2a 9e 12 3b 0a 87 16
       1.6080826e-08 6e-45 9.981678e-28 2.1816883e-25
0000e0 04 f2 75 1b 04 00 00 00 7d 8f 48 24 71 2e dd 1b
       2.0344124e-22 6e-45 4.3489626e-17 3.6591395e-22
0000f0 04 00 00 00 82 9e ca 0b c0 e1 67 2b c9 78 a6 40
       6e-45 7.8046066e-32 8.2380977e-13 5.2022443
000100 8d c3 19 0a 1e ce a5 15 25 6b f3 15 7b 0a 28 06
       7.403461e-33 6.6968165e-26 9.831596e-26 3.1604988e-35
000110 26 68 64 37 18 6f d6 11 50 6a bd 12 bb c3 25 0c
       1.3614108e-05 3.3831714e-28 1.1953785e-27 1.2770038e-31
000120 a3 98 56 0f 16 00 00 00 be 38 27 36 56 ee c2 2d
       1.0580411e-29 3.1e-44 2.4917967e-06 2.2161089e-11
000130 b8 85 6f 20 e7 82 7d 06 46 0f 93 06 cc 61 ca 08
       2.0288331e-19 4.7680183e-35 5.5317697e-35 1.2180425e-33
000140 cb 1b ab 20 e8 00 00 00 fe 6f b2 30 19 cd fa 00
       2.8986919e-19 3.25e-43 1.2983035e-09 2.3032449e-38
000150 04 00 00 00 7a 0a 00 00 28 18 ca 0d a7 44 b9 0d
       6e-45 3.758e-42 1.2455027e-30 1.1418033e-30
000160 42 4b 00 00 04 00 00 00 ff ee 00 00 6b 4c 01 23
       2.6997e-41 6e-45 8.5736e-41 7.009286e-18
000170 9a 74 fc 0f 17 d4 74 04 56 5d c9 3a a5 68 6c 01
       2.4894032e-29 2.8779449e-36 0.0015362899 4.3421433e-38
000180 70 bb c3 0a 19 37 e2 34 86 5a 1f 0e 81 f1 8e 1b
       1.8848323e-32 4.213587e-07 1.9641849e-30 2.3647998e-22
000190 53 b2 ad 23 63 63 62 08 04 00 00 00 80 6e 89 08
       1.8832221e-17 6.812623e-34 6e-45 8.271366e-34
0001a0 04 00 00 00 01 8d e4 18 90 33 9d 18 a6 31 d9 16
       6e-45 5.9078996e-24 4.0635614e-24 3.5089573e-25
0001b0 b0 fa b4 2f eb 75 a8 19 fb d6 fc 09 32 b4 39 0d
       3.2919933e-10 1.741842e-23 6.086896e-33 5.722443e-31
0001c0 2b f8 a9 09 28 f2 95 07 ab d7 25 20 b9 0f 33 14
       4.0918646e-33 2.2561355e-34 1.4047402e-19 9.040291e-27
0001d0 cf 8e 50 11 22 e0 78 19 3b 67 ea 14 14 13 91 23
       1.6452313e-28 1.2866563e-23 2.3668679e-26 1.5729011e-17
0001e0 cd d8 92 3f 6e 00 00 00 01 4a b0 06 04 00 00 00
       1.1472412 1.54e-43 6.631258e-35 6e-45
0001f0 c4 37 b6 34 04 00 00 00 3e 83 8c 11 1f ee 83 1a
       3.3940717e-07 6e-45 2.216899e-28 5.4565035e-23

dense_layers.0.1.weight f4 [64, 128]
000000 19 2b df 35 cc 02 60 38 1d 7b 96 3d d1 34 66 bd
       1.6627338e-06 5.3408367e-05 0.07347701 -0.056202713
000010 6b 18 46 ba de c1 ff b7 04 ba bd 38 41 b2 6b 3b
       -0.0007556739 -3.0488645e-05 9.0468704e-05 0.0035964402
000020 cb 7b 59 3a 0d 58 9d 34 7a db 55 b5 85 25 ef b6
       0.00082963397 2.9307594e-07 -7.9668064e-07 -7.127123e-06
000030 c8 79 13 b4 ba ea f6 bb 71 c8 2d b8 b8 4c 9c 37
       -1.3734746e-07 -0.007535306 -4.143309e-05 1.8632374e-05
000040 6c f1 3e 3b e7 e7 61 b8 7d 95 09 bc af c9 5a b9
       0.0029135598 -5.3860156e-05 -0.008397457 -0.00020865233
000050 e7 86 e3 b8 68 59 1b b4 02 5a 4f 35 51 99 95 3a
       -0.00010849331 -1.4468026e-07 7.724449e-07 0.001141349
000060 9f a5 95 b3 e8 7a d1 b9 18 39 f6 3e c6 01 19 bc
       -6.9684795e-08 -0.0003995516 0.48090434 -0.009338802
000070 8f 8f eb bd 13 e2 d2 35 8c 57 19 36 40 2c b2 3f
       -0.11501991 1.5712016e-06 2.2849736e-06 1.3919754
000080 f3 9b 69 3e 57 5b 3c 39 07 3e 41 b8 f8 b0 89 36
       0.22813396 0.00017963104 -4.6072553e-05 4.10352e-06
000090 68 db 37 36 f0 0e a0 34 9b be 9e b8 30 9a 0c 3e
       2.7396836e-06 2.981319e-07 -7.56953e-05 0.13730693
0000a0 6c d9 96 b4 86 32 8a ba b8 19 9e b8 c5 7e 63 b7
       -2.8097872e-07 -0.0010543622 -7.5388176e-05 -1.355977e-05
0000b0 89 5b d1 39 3c eb 88 b7 e0 3a b2 39 20 e8 c8 bb
       0.00039931785 -1.6322003e-05 0.0003399467 -0.006131187
0000c0 95 2e e7 3f fa d8 06 39 4d 75 a8 37 3e e2 77 3a
       1.8061091 0.00012860066 2.0081783e-05 0.0009456015
0000d0 33 51 35 3d a7 31 39 b3 9d aa af bb f0 47 5c 38
       0.04426689 -4.3118828e-08 -0.005360915 5.2519084e-05
0000e0 d4 91 a1 b4 75 cb 4b 36 d4 5b 08 3a f1 3a 0a 39
       -3.009469e-07 3.0367785e-06 0.0005201672 0.00013182663
0000f0 89 ff 4d b8 b2 33 08 ba 4f d6 eb 38 5b f5 a3 bf
       -4.9113794e-05 -0.00051956915 0.00011245591 -1.2809252
000100 81 04 68 36 bb 8c 5c 39 98 5e 0a b9 6c 5d 2a 39
       3.4573316e-06 0.00021033261 -0.00013195944 0.00016247266
000110 86 e9 8c bd ba c2 41 3a e6 78 d2 38 2b 16 8e b8
       -0.068804786 0.0007391382 0.000100360994 -6.775217e-05
000120 22 ed 9e b8 a3 59 5d 34 ab 04 1c ba 5a 41 c4 b8
       -7.5781965e-05 2.0614839e-07 -0.00059516233 -9.358181e-05
000130 59 54 b3 3c 2e c5 8a 39 d7 2f a7 b2 a5 0c 84 36
       0.021890806 0.0002646832 -1.9463114e-08 3.9353786e-06
000140 7a 81 93 3a 65 53 b1 b8 30 b4 d4 3a 48 cf 3a b8
       0.0011253797 -8.455551e-05 0.0016228016 -4.45389e-05
000150 1f 59 48 3a bd 98 6b b8 d3 89 2f 37 10 e8 a6 b6
       0.00076426746 -5.6170615e-05 1.04629025e-05 -4.974201e-06
000160 32 17 dd 38 ca fe b0 38 0c 0d 7a 34 7e 3e 2d bb
       0.00010542422 8.439792e-05 2.3287811e-07 -0.0026434953
000170 dc 08 de b7 97 c4 3a 39 66 8c 59 3e 3f 0a e8 b8
       -2.6468588e-05 0.00017811578 0.21244964 -0.000110645306
000180 95 69 c9 39 a4 67 7d 3c 02 4f 5e 38 32 d7 c4 37
       0.00038416372 0.015466604 5.3002506e-05 2.3465229e-05
000190 32 ab 21 3b 51 9d b5 b8 30 aa 5a b1 ad c7 ae b5
       0.002466869 -8.660055e-05 -3.1819916e-09 -1.3022124e-06
0001a0 da 99 1f b6 96 64 8a 3c 1b 4e 86 b8 ad 8d 2b ba
       -2.37824e-06 0.016893666 -6.404166e-05 -0.00065442437
0001b0 67 0d 31 3c 73 cb 09 37 21 a4 c9 37 6f a8 2c ba
       0.010806418 8.213206e-06 2.4037496e-05 -0.0006586378
0001c0 aa 5e 9b 37 36 40 51 b4 21 3d 49 38 1a 10 e2 36
       1.8521521e-05 -1.9488002e-07 4.7979065e-05 6.7371993e-06
0001d0 38 65 38 bb 9a fd 99 3b ab 63 a4 36 0f 82 1f bc
       -0.0028136503 0.004699421 4.8991838e-06 -0.009735598
0001e0 34 ac 49 3e 42 c8 ce 37 4d 16 79 37 1b 3c 88 37
       0.19694597 2.4650366e-05 1.4846749e-05 1.6240452e-05
0001f0 fc ee fa bc c9 f0 bd b4 9b 7d b0 ba b3 b0 ea 37
       -0.030631535 -3.5379188e-07 -0.0013465168 2.7977256e-05
000200 29 a8 9b 30 c7 ea 02 33 55 25 26 3c c1 7e 23 b7
       1.1325528e-09 3.0481512e-08 0.010140737 -9.745069e-06
000210 7a a1 3f 32 3a 3c 8a 35 fc 79 cb 34 63 59 5a 37
       1.1154379e-08 1.029933e-06 3.7900452e-07 1.30146245e-05
000220 e8 f3 af b4 68 e2 1f 2f 91 17 bb 2f b3 c1 71 b1
       -3.2773755e-07 1.4541401e-10 3.4031847e-10 -3.518022e-09
000230 b6 ac a9 31 5d 63 3a 33 b6 f8 5a 2e 04 96 d9 34
       4.9381823e-09 4.339687e-08 4.978836e-11 4.052855e-07
000240 52 9f 11 b7 ed 1f 18 34 75 5a 6f b7 0f 84 64 35
       -8.679768e-06 1.4167718e-07 -1.4266571e-05 8.512879e-07
000250 37 1f c4 33 3f 72 88 30 5e e0 1f 32 79 10 b1 35
       9.132639e-08 9.927773e-10 9.306033e-09 1.3192322e-06
000260 49 db 01 2d b3 fb 99 b5 75 95 e8 3c df 1e ba b8
       7.381492e-12 -1.1472642e-06 0.02839158 -8.874921e-05
000270 65 84 19 bd b6 c5 02 31 44 d9 f5 31 be ac 1f bf
       -0.037479777 1.9029875e-09 7.1551387e-09 -0.6237296
000280 86 ec e6 3f cc 8f b9 33 f2 bf 23 b5 a0 3e 92 b2
       1.8040931 8.64089e-08 -6.100155e-07 -1.7025116e-08
000290 93 37 aa b1 1f 21 d0 ae fe 2f 49 32 49 67 81 3e
       -4.9539692e-09 -9.4646284e-11 1.1710652e-08 0.25274113
0002a0 aa 7f dd 31 fd 73 52 35 c9 8b 2f 35 ac 24 de 33
       6.4464603e-09 7.839988e-07 6.5395994e-07 1.0344351e-07
0002b0 eb 5d aa 35 ee 37 fc b1 8e c9 b8 37 05 b9 51 38
       1.2693321e-06 -7.3405237e-09 2.2028365e-05 5.0001796e-05
0002c0 af ae 89 3f 12 c6 8e b5 de c8 57 b5 c5 bc 00 b7
       1.0756434 -1.063747e-06 -8.038604e-07 -7.673346e-06
0002d0 b0 d2 f8 b9 2a 5e 68 b0 17 27 01 37 92 de 5f b3
       -0.0004745922 -8.4534924e-10 7.6981005e-06 -5.212366e-08
0002e0 b1 d5 78 ac 61 25 bb 2f 75 52 18 b1 2c 5d c1 36
       -3.5361542e-12 3.404166e-10 -2.2165783e-09 5.762695e-06
0002f0 74 f6 19 b5 81 06 f4 33 c9 72 3e 2f df e0 c7 3e
       -5.735558e-07 1.13633185e-07 1.7321179e-10 0.3903875
000300 11 01 c0 b2 75 bf ed 34 42 ba d6 b1 b9 cb 3b b6
       -2.2352227e-08 4.4283993e-07 -6.249395e-09 -2.7983754e-06
000310 1d f7 89 bc 6d 54 26 33 46 80 4d 35 3e c2 0d b6
       -0.016841466 3.872667e-08 7.6555114e-07 -2.11237e-06
000320 99 64 c5 31 e9 2a e4 2d 30 a2 8c 34 73 ad b0 35
       5.7448912e-09 2.5939655e-11 2.619504e-07 1.3163502e-06
000330 c1 83 83 33 9a 63 80 b5 4b f5 d7 ad 37 a7 84 b1
       6.124129e-08 -9.565731e-07 -2.4551602e-11 -3.8607157e-09
000340 e4 c8 ad 36 b7 d9 25 35 32 d0 3e bb 83 3e b9 b2
       5.1791885e-06 6.1784107e-07 -0.0029115793 -2.1565262e-08
000350 fe f5 fc 2b 67 51 c0 32 92 02 70 b1 d0 a0 35 30
       1.7973953e-12 2.238876e-08 -3.4926058e-09 6.6075945e-10
000360 95 8d a9 b5 2b 17 dd b5 19 49 82 b3 1f 4e 99 38
       -1.2632687e-06 -1.6472526e-06 -6.066893e-08 7.31016e-05
000370 e3 45 c4 34 a4 2e c5 b6 eb e3 f2 bb 85 b1 03 34
       3.6558694e-07 -5.876487e-06 -0.007412424 1.2264907e-07
000380 67 65 86 b5 0a 94 aa ba d3 ed d4 35 36 6f 3b b4
       -1.001329e-06 -0.001301409 1.5864447e-06 -1.745619e-07
000390 34 d7 e6 b4 07 5a b2 b1 c8 c0 22 28 92 e0 2a 34
       -4.299742e-07 -5.1907167e-09 9.034609e-15 1.5914182e-07
0003a0 82 79 98 32 09 e9 51 34 36 f3 85 b2 5d 2e fe 36
       1.7750384e-08 1.954942e-07 -1.5593837e-08 7.5751873e-06
0003b0 49 6c 89 ba 40 aa ae 32 4d 48 bb 33 a2 f5 48 b8
       -0.0010484542 2.0333687e-08 8.7210175e-08 -4.791248e-05
0003c0 e2 58 ce 33 08 ab 27 b5 b6 84 ea 38 cc 9a 51 32
       9.60879e-08 -6.246123e-07 0.00011182709 1.2200598e-08
0003d0 84 59 25 37 52 4c a2 35 8b 7e 82 31 ea fe 87 b9
       9.855608e-06 1.2092153e-06 3.7978842e-09 -0.00025939132
0003e0 ec db 7b bd 58 39 1d 32 27 ed 06 b3 de f1 5e 34
       -0.06148903 9.151641e-09 -3.1414995e-08 2.0763352e-07
0003f0 22 23 6a b9 ac d3 31 2e 55 de d4 b7 3a f6 07 b6
       -0.00022329067 4.0433143e-11 -2.53759e-05 -2.025989e-06

dense_layers.0.1.bias f4 [64]
000000 da 67 0d b5 1e a3 6e b6 c6 e3 6a 37 27 0c 38 80
       -5.2677717e-07 -3.555971e-06 1.40005195e-05 -5.147147e-39
000010 25 a0 1a 80 8b aa ca 35 36 4d f6 37 6d ad ef 37
       -2.445172e-39 1.5099807e-06 2.936144e-05 2.8571778e-05
000020 c1 e7 20 b8 db 3f 31 80 06 25 3f 80 0d d2 fb b7
       -3.836281e-05 -4.522846e-39 -5.798918e-39 -3.0019344e-05
000030 3f 06 90 37 57 21 a0 a5 a4 96 55 38 98 c5 17 00
       1.7169046e-05 -2.7778168e-16 5.0923452e-05 2.1831e-39
000040 e2 59 6e 37 0e c9 40 00 15 e5 00 80 11 34 00 00
       1.4206833e-05 5.949597e-39 -8.2179e-41 1.8678e-41
000050 47 30 20 00 51 e1 7d b6 36 29 28 00 d0 32 5e b7
       2.956055e-39 -3.783109e-06 3.688204e-39 -1.3244062e-05
000060 cc 1e 9d 36 8a 0d 3f b9 ff 19 bc 08 a9 d5 2c 23
       4.68255e-06 -0.00018220223 1.132095e-33 9.369383e-18
000070 5a 61 e7 25 28 e5 a8 b1 2d 9e 7a b5 19 3f 4d 0b
       4.013808e-16 -4.9154956e-09 -9.3362434e-07 3.9529033e-32
000080 d7 2a 28 00 b4 aa 9e 38 1b e8 22 80 45 97 03 28
       3.688788e-39 7.565823e-05 -3.20567e-39 7.304762e-15
000090 91 d4 6f b9 f2 a9 70 a9 49 86 b4 b8 0c ec 96 33
       -0.00022872003 -5.343811e-14 -8.6080814e-05 7.027856e-08
0000a0 7f 53 04 b8 8f 0b a8 97 a2 06 18 b0 8e ac 82 b9
       -3.1549014e-05 -1.0859663e-24 -5.5306704e-10 -0.00024924095
0000b0 56 a4 02 b8 94 06 db 38 b6 68 cd a8 35 8c 8e b8
       -3.1147465e-05 0.00010443959 -2.2804983e-14 -6.797203e-05
0000c0 00 de 2f 80 8a 64 27 80 bf 10 3a 80 f5 f7 0f 80
       -4.395907e-39 -3.617651e-39 -5.332466e-39 -1.466483e-39
0000d0 ff 3c dd 37 65 5d 1b 00 74 0d a0 36 82 05 14 39
       2.6373657e-05 2.513062e-39 4.7699377e-06 0.00014116432
0000e0 a0 05 00 b6 bf c1 ea b5 5e 1c db 35 28 2b 5b 2a
       -1.907676e-06 -1.7490746e-06 1.6325027e-06 1.946608e-13
0000f0 75 64 eb 36 58 e1 4a b8 24 67 59 b8 54 b4 42 31
       7.0152405e-06 -4.837042e-05 -5.183289e-05 2.833322e-09

dense_layers.0.2.weight f4 [64]
000000 12 6f 30 3f fa a0 82 3f 5b 82 62 3f e2 ff 40 3b
       0.6891948 1.0205376 0.88480157 0.0029449393
000010 b8 60 d5 3a 22 b8 c7 3e 2c 7d 84 be f8 4f 2b 3f
       0.0016279435 0.3900767 -0.2587675 0.669189
000020 0a 58 7d 3f 52 a0 a4 3d 1f 89 5c 3b 9b 51 fc 3e
       0.9896246 0.08038391 0.0033651066 0.4928101
000030 0a ee f3 3e e8 de f7 3c 51 19 85 3f 68 70 93 3d
       0.47642547 0.030257657 1.0398351 0.07199174
000040 8d 04 bd 3e fe a8 1c b9 31 8b 18 3c 68 34 ca 3c
       0.36917534 -0.00014940274 0.00931053 0.024683192
000050 02 81 81 3b e7 2b 3d 3d 7a 45 b0 3a 01 ef a7 3e
       0.0039521465 0.046184447 0.001344844 0.32799533
000060 bd f4 6a 3e 9d 5d c8 3f 15 93 84 3c 9c 1e 17 3c
       0.22944923 1.5653569 0.016183415 0.009223606
000070 e5 f2 e4 3c 63 2f 71 3e 21 85 ed 3e de 9d 8c 3c
       0.027947852 0.23553233 0.46390632 0.01716512
000080 7c 2e 99 3c ca 6b 98 3f 46 ca 01 3c 55 d4 3f 3d
       0.018698923 1.1907895 0.007921761 0.046833355
000090 5f f8 b1 3f cf b5 56 3d 7d d1 fc 3f 51 9c 13 3e
       1.3903922 0.05241948 1.9751431 0.14415099
0000a0 06 a0 bb 3f 91 d0 48 bc ca 4c a9 3d a7 2f 1d 40
       1.465821 -0.012256757 0.082665995 2.4560335
0000b0 77 fb 82 3f 5d 5a 93 3f e9 de 16 3f c7 92 ba 3f
       1.0232991 1.1511952 0.58933884 1.4576043
0000c0 b0 21 a7 3c 8a 47 1c 3b 9c 3e 1c 3a 77 bb 54 3a
       0.020401806 0.0023846352 0.0005960257 0.00081150926
0000d0 d8 43 89 3f b6 a4 2b bc b0 64 cc 3e e5 84 86 3f
       1.0723829 -0.010476282 0.39920568 1.0509306
0000e0 48 3f 43 3e 98 34 f5 3e 15 aa d1 3d 06 9f d3 3d
       0.19067109 0.47891688 0.10237519 0.10333066
0000f0 f7 c6 84 3e 24 0f 41 3f de 24 40 3f bf b7 32 3d
       0.25933048 0.7541373 0.75056255 0.043632265

dense_layers.0.2.bias f4 [64]
000000 0a 68 69 bf 71 aa 07 bf 9d 47 64 bf 7d b0 11 bd
       -0.91174376 -0.5299445 -0.89171773 -0.035568703
000010 ee 3d d6 bb 74 88 b0 be 60 88 33 3e e4 e3 e5 be
       -0.0065381443 -0.34479105 0.17532492 -0.4490043
000020 2e 82 a7 be 08 3c 53 be 2e 76 70 bc 16 66 74 be
       -0.32716507 -0.20628369 -0.014676614 -0.23867068
000030 f5 28 ce be f9 57 6d bd f2 96 26 bf 36 7b f2 bd
       -0.40265623 -0.057945225 -0.65074074 -0.11839907
000040 f0 c3 0f bf c7 69 4f bb 68 5a ab bc 44 1a ae bd
       -0.5615835 -0.0031648742 -0.020917132 -0.085011035
000050 de 6f 13 bc 86 1c f1 bd f8 f6 95 ba de 53 4b 3c
       -0.008998839 -0.117730185 -0.00114414 0.012410132
000060 6f 76 b8 be 3d 64 11 bf fc be 83 be 46 39 05 bd
       -0.36027858 -0.56793576 -0.25731647 -0.032525323
000070 c6 47 8f bd 2a da fe be 54 5e 52 bf 37 07 26 bd
       -0.069961116 -0.4977582 -0.82175183 -0.040534224
000080 55 84 38 bd 6b 21 56 bf ee e9 f7 bc 5b aa 09 be
       -0.045048077 -0.8364474 -0.030262914 -0.13443892
000090 a1 07 c4 be 7e e9 2d be a6 ce 13 3f ce c6 d9 be
       -0.3828707 -0.16983601 0.57737195 -0.42534488
0000a0 8a aa e8 3d d6 67 1d bd f8 74 95 be 62 e8 13 bd
       0.11360653 -0.038429104 -0.29190803 -0.03611029
0000b0 fe f4 52 bf c1 7d 54 bf 7c d9 41 bf d5 0f 43 bf
       -0.8240508 -0.83004385 -0.7572248 -0.7619603
0000c0 95 16 3b bd 86 4d 6a bb 42 35 b6 b9 ae 2c 2a ba
       -0.045675833 -0.0035751774 -0.00034753425 -0.0006491643
0000d0 7e 79 0d 3e b5 f0 08 be e5 ea 0e bf d5 f9 cd be
       0.13815877 -0.13373072 -0.5582717 -0.4022967
0000e0 51 a7 bb be 83 f7 51 3f 7d 96 43 be 44 9b 68 be
       -0.3665109 0.820183 -0.19100375 -0.22715479
0000f0 ec 8c 71 be 0a 2e 52 3e e8 50 47 3e 86 95 99 bd
       -0.23588914 0.20525375 0.19464457 -0.074992225

dense_layers.0.2.running_mean f4 [64]
000000 ee 6e 09 40 27 9d f4 40 1e fa 97 c0 00 6d 8a bb
       2.1473956 7.6441836 -4.749282 -0.0042244196
000010 3f 35 fa 39 ef 41 84 bf f1 0b 52 3f b4 fd 47 40
       0.00047723387 -1.0332621 0.8204947 3.1248598
000020 35 3d 1a 41 cd 68 03 3d d0 c7 40 3a 9c 27 0e 40
       9.639943 0.032082368 0.0007353993 2.2211676
000030 a0 a1 69 40 3a c5 0b 40 77 8d 12 c1 1d 8d ed 3d
       3.6504898 2.1839128 -9.159537 0.11599181
000040 86 1f a2 3f 52 ec 66 3a b6 60 20 bc f5 f6 dd bc
       1.266587 0.0008809018 -0.009788683 -0.027095297
000050 9a 51 69 3b e1 df 16 3f 70 de c5 39 95 4e 2a 40
       0.0035601617 0.5893536 0.00037740497 2.6610463
000060 a0 df b1 3f 46 a2 ff 40 51 39 88 3f 87 c3 9c 3e
       1.389637 7.988559 1.0642492 0.30617926
000070 2f 54 14 3c 95 92 4b 40 de 5d 24 40 be 02 2d 3f
       0.009053274 3.1808217 2.5682292 0.6758231
000080 f7 12 38 ba 5e ff c2 c0 5e 45 a9 bb b5 84 e6 bd
       -0.0007021869 -6.0936728 -0.00516574 -0.112557806
000090 d1 c3 a9 c0 8c ae 05 3d 6a ab 58 41 13 5a 64 3f
       -5.3051534 0.032637164 13.541849 0.8919994
0000a0 05 98 a6 40 3f 18 e4 bb 89 d7 a0 bf 93 a8 10 41
       5.206057 -0.006960898 -1.2565776 9.041156
0000b0 cd 30 0f 40 5a 49 bd c0 9c c3 28 3f 81 ee 22 c1
       2.2373536 -5.915204 0.65923476 -10.1832285
0000c0 5b 9e 3f 3c 61 9d 59 ba 78 d9 49 33 c2 42 8f 36
       0.01169547 -0.00083013444 4.6996746e-08 4.2695037e-06
0000d0 be 2b b3 40 26 54 00 bf e6 59 b7 3f 55 fe 55 40
       5.5990896 -0.501284 1.432431 3.3436482
0000e0 a9 08 cf 3f e8 13 ca c0 78 65 88 3f 67 54 a3 3e
       1.6174518 -6.31493 1.0655966 0.3190033
0000f0 a6 9e 57 c0 5f d8 06 41 e3 3d 11 bf 43 33 a2 3f
       -3.3690581 8.427825 -0.56735057 1.2671894

dense_layers.0.2.running_var f4 [64]
000000 e6 1d 01 41 25 cf 58 41 58 45 f5 40 0d 15 c3 36
       8.069799 13.550572 7.664715 5.8139035e-06
000010 54 cd 55 34 1c 16 09 40 e8 61 5f 3e 1b 62 33 40
       1.9911869e-07 2.1419744 0.21814692 2.802863
000020 0c 3b 87 41 f7 2a 8e 3c 19 76 15 34 6c 28 55 40
       16.903831 0.017354472 1.391967e-07 3.3305922
000030 19 0d f7 3f 61 ac 34 3f 4d 70 a8 41 4d 19 5a 3b
       1.9300872 0.7057553 21.054834 0.003327924
000040 94 af a2 3f 6d 53 e3 34 b7 76 5a 38 6a d0 51 39
       1.2709832 4.2342745e-07 5.2085812e-05 0.00020009434
000050 80 f9 7e 36 81 56 0e 3e 9c 54 d1 33 92 bf 83 40
       3.7994178e-06 0.13900186 9.747711e-08 4.117135
000060 ed e5 72 3f 3e eb ff 41 39 a9 0f 3f ba 98 ba 3c
       0.9488209 31.989864 0.5611759 0.022777904
000070 59 b0 c1 3a db f3 c3 3f 6e 1e 71 40 bb 20 b0 3d
       0.0014777287 1.5308794 3.7674823 0.08599993
000080 38 05 85 35 9b 75 45 41 25 d6 91 38 b8 26 38 3b
       9.910791e-07 12.341212 6.954026e-05 0.002809925
000090 2a e8 9c 41 c1 43 d8 3b b7 cc 48 42 f7 e7 a8 3e
       19.613361 0.006599874 50.199917 0.32989475
0000a0 f7 54 b2 41 e4 95 82 39 03 c6 2e 3f bd 53 2d 42
       22.291487 0.0002490721 0.6827089 43.331776
0000b0 e4 95 a3 40 44 18 38 41 86 95 dc 3f bf ce ca 41
       5.112047 11.505924 1.7233131 25.35095
0000c0 d6 a8 93 37 2e c6 f2 34 57 09 51 29 9b 47 04 2d
       1.7602386e-05 4.5220207e-07 4.6415423e-14 7.519231e-12
0000d0 43 1f 77 41 71 10 72 3d 35 4c e5 3f 26 be f6 40
       15.445132 0.05909771 1.7913882 7.7107115
0000e0 a2 94 f9 3e 72 70 8b 41 14 df 6c 3e e9 44 83 3c
       0.4874621 17.429905 0.23131973 0.01602407
0000f0 14 cb 8b 40 97 32 94 41 04 60 02 41 e8 98 8e 3e
       4.36854 18.524702 8.148441 0.27851033

prediction_layer.weight f4 [13, 64]
000000 c2 1b d4 be 1d 3d 9f 3e af 95 2c 3e 5d 73 01 b9
       -0.41427428 0.31101313 0.16853975 -0.00012345375
000010 de e4 7d 3a 95 af 12 3f 63 ef 9e bd 76 3c 46 bf
       0.0009685288 0.57299167 -0.07760503 -0.77436006
000020 8b 05 6b 3e dc d1 a4 3b d8 10 62 ba f9 53 15 bf
       0.22951333 0.0050299 -0.0008623726 -0.5833126
000030 19 1e 00 3e 18 d8 20 3d a2 bf eb be 40 80 5c bc
       0.12511481 0.039268583 -0.46044642 -0.013458312
000040 64 fe 4e 3e e6 13 be 3a b8 31 be 39 c3 b5 4d 3b
       0.2021423 0.001450178 0.00036276667 0.0031388856
000050 de aa 23 bb ea 55 57 bd e8 35 d3 b9 7b c4 3f bf
       -0.002497367 -0.05257217 -0.0004028522 -0.7490918
000060 32 b3 b9 3c c2 10 06 3f 82 3b 52 be 48 9b 62 3c
       0.022668455 0.5236932 -0.20530513 0.013830967
000070 a1 7b 81 bc fa d9 44 3e cc a8 d0 bc c4 bc 37 3d
       -0.015806021 0.19223776 -0.025471114 0.044857755
000080 6c 0c 5a 3b e7 41 12 be 01 23 84 bb fb e7 3b bd
       0.0033271564 -0.14282952 -0.004032493 -0.04587553
000090 ca 7a e1 bf 40 eb e7 3a 5b 9c 25 bf 93 a0 d6 3c
       -1.7615597 0.0017694011 -0.64691705 0.026199615
0000a0 89 cb e5 bf 06 0b c7 3b 53 68 b2 bc e1 dc 1c bf
       -1.7952739 0.006074312 -0.021778261 -0.61274534
0000b0 e1 9b 9f 3e af 16 32 bd df 1c 05 3e ff c5 cd be
       0.31173614 -0.043478664 0.12999295 -0.40190122
0000c0 4b 0f 04 3b 81 28 9e 3a 76 5e 4d b9 83 7b 12 b9
       0.0020150717 0.0012066514 -0.00019585513 -0.00013969657
0000d0 76 40 d8 be 1a e5 c2 ba a8 14 a3 3e a3 e6 f3 3e
       -0.4223668 -0.0014869303 0.31851697 0.476369
0000e0 f6 8e 06 bd f1 d6 4c 3f 5c 59 77 3d cb 7e f1 bc
       -0.032851182 0.80015475 0.060387954 -0.029479405
0000f0 99 a3 62 bd d6 b2 91 be ca 7a b9 3e 71 b9 ae 3d
       -0.0553318 -0.28456753 0.36226493 0.08531464
000100 80 fa ba be 19 db ab 3e b3 c9 07 3e fc 67 5b 3b
       -0.3651924 0.33565596 0.13260536 0.0033478728
000110 bd 65 96 38 c3 e9 da 3e 2e 2a 23 3e 9d cd 10 bf
       7.1715076e-05 0.4275647 0.15934059 -0.5656374
000120 e8 0e ac be a1 66 0b 3c 8c bb d1 ba f0 fd bc be
       -0.33605123 0.008508355 -0.0016001328 -0.3691249
000130 ae 24 92 3e c0 02 51 bc c9 79 53 bf c0 99 dd b9
       0.2854361 -0.012757003 -0.82607704 -0.00042266957
000140 02 69 65 be de fb 83 38 27 3d 9c 3a 84 30 0e bb
       -0.22403339 6.293481e-05 0.001192008 -0.0021696398
000150 74 23 89 39 e0 cf 2e bd ab 2a 13 ba de 9c 15 bf
       0.0002615709 -0.042678714 -0.0005613963 -0.58442485
000160 e3 7f a3 3e 95 fb c9 3e 53 79 ab bd fe fe d1 3a
       0.31933507 0.39449754 -0.0837275 0.0016021428
000170 0f 4a 4e bc d4 0d 87 3e b5 37 bd 3d 0a 86 05 3d
       -0.012590899 0.26377738 0.09239141 0.032598533
000180 c9 69 fc bb c5 ef 44 be 2f 49 3c bb 81 79 3b bd
       -0.0077030403 -0.1923209 -0.0028730144 -0.045770172
000190 74 27 d5 bf 07 d4 62 bc 7a 1b 3b bf a3 5b 42 3d
       -1.6652665 -0.013844497 -0.730888 0.047450673
0001a0 2a 3d b8 bf 5b 9c 33 3b 63 07 7a bd 57 85 39 bf
       -1.4393666 0.0027406428 -0.0610422 -0.72469085
0001b0 a2 c6 99 3e ae 80 40 be bd 2a a9 be 03 ce b0 be
       0.30034357 -0.18799087 -0.3304042 -0.34532174
0001c0 4a 6b 0c bb 34 98 03 3b 6d 51 90 b7 64 a1 a1 b8
       -0.0021426254 0.0020079734 -1.7204055e-05 -7.7071396e-05
0001d0 e6 38 bf be f9 71 f2 3b a9 da 5a be ec 19 f6 3e
       -0.37348098 0.0073988405 -0.21372475 0.48066652
0001e0 b3 13 4b bd 4f 88 95 3f 42 72 99 3d 32 d8 4c bb
       -0.049579334 1.1682223 0.07492496 -0.0031256792
0001f0 48 64 1e be d6 24 a8 be 03 e0 8e 3e 8a 21 95 bb
       -0.15467942 -0.32840604 0.27905282 -0.0045511173
000200 d9 e7 05 bf 80 34 8b bd 07 ec 5a 3e 8d e6 5d 36
       -0.52306896 -0.06797123 0.213791 3.3065764e-06
000210 e4 72 57 b5 93 3c 98 bd 21 fc af 3d 97 0f 7b be
       -8.026093e-07 -0.074334286 0.08593012 -0.24517666
000220 c2 45 26 bd df e2 be 37 05 4d b1 b4 ef ae a3 be
       -0.04059387 2.275541e-05 -3.3024858e-07 -0.319694
000230 18 a5 d5 bc dd fc 58 be 4e dc 5d be 8c 2f 1a b8
       -0.0260797 -0.2119021 -0.21666071 -3.6760743e-05
000240 38 2d 82 3d bd 8d 93 35 d2 97 70 37 5f 2b aa b6
       0.06356281 1.0993605e-06 1.4340463e-05 -5.071444e-06
000250 43 ab 23 37 6e c9 d9 3c 51 bd 56 32 e3 dd 58 3d
       9.755432e-06 0.026585307 1.2499485e-08 0.052945983
000260 3b 08 9a bb 7b a0 9b 3e 9f 32 31 bc 1e 68 e7 bc
       -0.004700688 0.30395874 -0.010815292 -0.02824789
000270 18 1f ae b7 a0 7c 06 bd 35 23 30 3c bc 3f 95 bd
       -2.0756896e-05 -0.032833695 0.0107505815 -0.07287547
000280 d1 86 8b 37 68 9b 4e be de 17 8f b7 8c 48 92 b9
       1.663287e-05 -0.2017647 -1.7058042e-05 -0.00027901342
000290 3a f5 a9 bd c2 fb 0a ba 4a 80 12 c0 59 91 80 3c
       -0.082987264 -0.0005301797 -2.2890801 0.015694307
0002a0 fa 5e f9 3d b0 17 9b ba 17 80 80 be a6 f7 7b be
       0.121763185 -0.0011832621 -0.25097725 -0.24606189
0002b0 4e 87 37 3e db 55 26 be dd 7d 93 3d 53 a4 ce bf
       0.17922708 -0.16243689 0.07201741 -1.6143898
0002c0 f3 26 3b 35 0f cf 43 b5 3b 05 99 b2 6f 20 48 b1
       6.9719607e-07 -7.294447e-07 -1.7813923e-08 -2.9122267e-09
0002d0 e2 70 a5 bf 47 48 ba ba 50 64 83 3e 3d 15 35 3e
       -1.2925074 -0.0014212214 0.2566247 0.17683883
0002e0 b9 f0 96 bc 1e 92 01 3f ac 91 08 3d 4b 3c 81 39
       -0.018425332 0.5061358 0.03334205 0.0002464972
0002f0 e1 fd 1b bf 29 fa aa bf f2 6d 1e 3f 59 c0 0d be
       -0.60934263 -1.3357593 0.61886513 -0.13842906
000300 9a cb b7 be c6 26 51 3f a1 3c a7 3e 2d d2 43 3c
       -0.35897523 0.8169979 0.32663444 0.011951965
000310 bd 0d 53 bb 9d 6f 1b be 66 18 81 3e 4b 33 33 be
       -0.0032204234 -0.15179296 0.25213927 -0.17500035
000320 8d 39 9a be 52 13 cd bb a2 44 19 3c 73 f9 87 be
       -0.30122033 -0.0062584067 0.009354742 -0.26557502
000330 25 7b c7 3d 9f 52 09 3e 2e b0 a8 be 81 62 87 bd
       0.09740285 0.13410424 -0.32946914 -0.06610585
000340 6b cc a1 3e 97 ca da 3b ab 3d 4a bb bd 58 d1 bb
       0.3160127 0.0066769826 -0.003085951 -0.0063887523
000350 38 12 4a 3b 27 55 db bc 84 2b 3f b8 cb ee 8f bd
       0.0030833613 -0.026774002 -4.5578476e-05 -0.07027968
000360 fe 41 fc 3c 22 7e 02 3f b0 49 89 3d b6 a8 9d 3c
       0.030793186 0.50973713 0.06703508 0.019245487
000370 b6 ea 3b 3b 29 38 0c 3e b3 4a 09 be 41 5a 8d 3d
       0.0028673834 0.13693298 -0.13407402 0.0690198
000380 af 97 66 bc a8 16 1c bf 89 82 47 3c cb 6f 27 bc
       -0.01407425 -0.6097207 0.012177118 -0.010219525
000390 0e b0 86 be 16 e6 63 bc 63 42 e2 be ac 79 5b bd
       -0.26306194 -0.013909837 -0.44191274 -0.053582832
0003a0 f2 4b 9c be 40 60 bd b7 49 49 35 3e dd 7f 82 bf
       -0.30526692 -2.2575376e-05 0.17703737 -1.0195271
0003b0 3d d5 2b 3f 1e 79 45 bf 6f 86 16 bf 5a 55 19 bf
       0.6712225 -0.77137935 -0.5879888 -0.5989586
0003c0 25 00 ab 3b 9f a6 2d 3c 9c 94 bd bb 38 61 ca 39
       0.005218523 0.010598808 -0.005785538 0.00038600876
0003d0 66 3c 26 bf 83 0c b5 bc 71 9d 52 be ca 18 a3 3e
       -0.6493591 -0.022100693 -0.20567872 0.3185485
0003e0 e9 98 17 bc 18 ca 42 3e a3 47 4f bb ef d5 a0 3c
       -0.009252765 0.19022405 -0.0031628392 0.019633261
0003f0 21 e5 01 3e 9d a6 91 be a5 20 49 3f 05 b3 2d 3d
       0.12685062 -0.28447428 0.78565437 0.042407054

prediction_layer.bias f4 [13]
000000 aa 1c 40 3f 8d 30 0b 3f 5b 18 0b 3f 65 49 2f 3e
       0.7504374 0.5437096 0.5433404 0.17117842
000010 ec 7f 02 3f ab f7 91 3f ad db 6f 3f a3 0a d3 3e
       0.50976443 1.1403707 0.93694574 0.41219053
000020 b5 96 c3 3e 65 94 b6 3f 4f b5 1b be 32 cd 85 3f
       0.38200918 1.4264036 -0.15205882 1.0453246
000030 56 1b 97 3e
       0.29513043
