Reduced_model/Saved_models/models_trained/training_torch_simple_mask_copy_model_0c0d128f64n_d.pth (torch, 96245 bytes, 14 tensors)

feature_extraction_layer.1.weight f4 [128, 4, 25]
00000000: 990a a0a3 9505 5da3 04c3 d623 dfbd 3e98
00000010: 3b99 74a2 e71c 1f0d f042 d5a2 393f 839c
00000020: a6a3 1f0e fc19 9e9b ee1c c50c f020 3c23
00000030: b33c ba95 7a69 c8a5 6eef 2a07 a4f1 a12a
00000040: 369c 18a1 1f3a ef1f 4af1 7529 b6cd 5698
00000050: 3ee2 0580 38a6 82ab 4224 83a4 f1b7 1e8d
00000060: 3a59 cb8e c445 9418 09b6 a18d 1fe3 03ab
00000070: be3f 0aa1 b36d 2ba1 4bdf e0a3 df4a 3e13
00000080: dd06 1594 4f8a c39f ad97 b726 f9ee a218
00000090: 6586 42ad b47f db1f 83f3 fca0 e468 10a0
000000a0: 7b6e 4c9e 7c52 c4a4 bbad 9da2 fb67 d421
000000b0: 29c5 800d b263 569f c10f 451b 74a2 5f90
000000c0: 0bf6 88a7 c07f 801e b27b 139f a544 0080
000000d0: 87f7 de23 5f1c dc24 0ba2 7625 4e89 3223
000000e0: 48f5 8323 72ff 4c13 3bc2 96a3 55b8 71a1
000000f0: 7970 6c24 36b0 e322 5ad7 8a20 4d0f cd1f
00000100: 5ea3 0424 12e7 9d9a 5a5c 7212 ac6c 41aa
00000110: 6eef cea8 8c3e 3120 e4ae 4f22 0f02 0e15
00000120: 0260 cd04 cea7 a3a8 9326 7822 8874 0200
00000130: f4ab ba23 77cc 0200 7902 0100 f57a 1e24
00000140: 74bf 0600 469c 0300 c2f3 ab24 dc8a 0500
00000150: 8a10 afa2 6f11 b5a5 fc64 0310 bbc4 cb97
00000160: 1b5d 8a22 588d 0000 a2f1 4b9b 296e 5424
00000170: b728 ee8c f256 0780 6219 6026 0791 0300
00000180: 9c20 0180 dadd d824 be07 a82a 7804 82a3
00000190: 05fd eaa0 2518 9290 0bef c693 01f9 269c
000001a0: adab f5aa 73a6 0400 9b73 9a20 cb58 4e21
000001b0: bfc1 a886 3d81 eb9e 6a99 8010 7ae0 0680
000001c0: b71a 16a8 e2b5 5e00 1b85 0480 5f99 58a1
000001d0: 2fbd cf1c cc49 4d8d b520 949d 6732 fba6
000001e0: 513b 3614 e1f5 0d23 318f 928b 3878 bf05
000001f0: caa9 a71e 0107 6aa2 1c2c ae1d 0fae dd22
00000200: b1ee 4f10 70bc be8f ba0c 031d 7316 0280
00000210: 6c1a 0c17 444b 4f21 556f a115 73b9 a899
00000220: c7eb a523 dde5 0680 500a 83aa 0c53 aa20
00000230: 2c37 6c9b e825 4e98 842d 13a2 a34e 7796
00000240: 8fc2 969e 1905 631d 495b 5e91 5d54 9c98
00000250: b8ae 9897 9356 5f01 e6ee a42d 7301 2295
00000260: daa3 1e27 9327 839d 4a55 802a 0baf 919c
00000270: c101 ff23 5519 bba6 3530 b4a2 00f8 4518
00000280: f5f9 d91f 089e b99d 5436 17a3 d6d0 0600
00000290: d176 911d 9b86 461c 8e44 4700 77af ae20
000002a0: 6e12 b328 a6c1 3f91 258f 25a0 1c8c b824
000002b0: af69 4381 3f51 e929 dc0f 449e 3f50 282c
000002c0: d13b 131f 102f 0f93 b4d1 f31f 0243 0c9e
000002d0: 7247 0600 7159 45a8 14f5 2628 0697 0580
000002e0: 5428 dca4 6326 7394 e436 0501 afdc 9893
000002f0: 993e 96a5 1ab7 6009 1433 aa90 9546 0fa3
00000300: afe5 0380 bb4c 4ba2 9754 4c26 e442 0000
00000310: f831 360c ba9b f692 f288 ce09 ca45 989d
00000320: b45f ca3c dbb6 14bf a603 0e3e ea48 af3e
00000330: d0ed 15be 9b3b c93d f716 993d 5414 023d
00000340: 267e babd 82cc 113e 4dba 6dbb f4a3 4f3e
00000350: 4d40 123d c56c 9a3e 4fba 583d 193e 373e
00000360: d97c aebc cb9d 133c 4073 403e a6d9 813d
00000370: ae0f bc3c 0e37 4b3d 7434 ecbb 2277 983d
00000380: 7a3f af3c 55ff 173e d048 d63e ae3e 18bd
00000390: 49ce e3be f02f 5c3e 9bb8 863f 8563 6fbd
000003a0: db95 143e 2c00 2b3c 844e 38bb 4910 db3d
000003b0: 5efe 25be 7059 1d3e 511c f63c e37d 1f3b
000003c0: 964e 29be 8976 bc3c f8ca 733e c32f c33d
000003d0: e390 1d3e 111f 6dba 376f 7d3d 292f fc3d
000003e0: cb2f 51bd 9051 70bb ab8d 06bc 4352 a13d
000003f0: 57c0 ed3d e064 e03d 2931 c7bc cb48 89bf
-1.7351723e-17 -1.1981616e-17 2.3284519e-17 -2.4652785e-24 -3.3149286e-18 4.903045e-31 -5.780464e-18 -8.685195e-22
1.9677057e-30 -2.61557e-22 3.0370067e-31 1.0198475e-17 -7.522057e-26 -3.4765943e-16 1.2859741e-34 2.8767017e-13
-5.1706347e-19 1.0131659e-19 5.4610213e-14 -2.776271e-24 -5.40338e-40 -9.28319e-13 -5.687362e-17 -4.890892e-31
-5.0129286e-30 3.832755e-24 -9.966214e-31 -4.6855743e-13 -4.684058e-19 -5.808224e-19 -2.4380697e-17 2.4018286e-27
-7.523931e-27 -8.2814525e-20 1.2739288e-15 4.211732e-24 -1.1057465e-11 9.2961375e-20 -4.2851603e-19 -1.223198e-19
-1.0822517e-20 -8.5141184e-17 -4.273888e-18 1.4393202e-18 7.936074e-31 -4.539873e-20 1.6300548e-22 -4.4104145e-29
-3.8014343e-15 1.3605363e-20 -3.123078e-20 -2.4625e-41 2.417412e-17 9.5457854e-17 2.1392001e-16 9.678475e-18
1.4306929e-17 2.5874364e-27 -1.6345292e-17 -8.189794e-19 5.126961e-17 6.1715044e-18 2.3520617e-19 8.684619e-20
2.8761315e-17 -6.530699e-23 7.647557e-28 -1.7179547e-13 -2.297443e-14 1.5013178e-19 2.8146318e-18 2.8678296e-26
4.8283438e-36 -1.8169409e-14 3.3630688e-18 2.25475e-40 2.0238985e-17 2.57019e-40 9.2723e-41 3.4364937e-17
6.19693e-40 3.31567e-40 7.457237e-17 5.08991e-40 -4.7451356e-18 -3.1410308e-16 2.591299e-29 -1.3168229e-24
3.7503554e-18 5.0705e-41 -1.6869842e-22 4.606348e-17 -3.669421e-31 -6.74039e-40 7.775001e-16 3.27532e-40
-1.03534e-40 9.40509e-17 2.9848167e-13 -1.4096521e-17 -3.9808576e-19 -5.7624047e-29 -5.021794e-27 -5.5246623e-22
-4.3639867e-13 4.27053e-40 2.6165116e-19 6.991303e-19 -6.347926e-35 -2.4935045e-20 5.072347e-29 -6.3154e-40
-8.3324655e-15 8.697784e-39 -4.15091e-40 -7.338663e-19 1.3747014e-21 -6.325933e-31 -3.9209092e-21 -1.7430285e-15
9.20035e-27 7.695692e-18 -5.6452605e-32 1.8005715e-35 1.7752036e-20 -3.1716621e-18 4.6103025e-21 6.008646e-18
4.1007433e-29 -1.880803e-29 1.7344285e-21 -1.91724e-40 4.526979e-25 7.023394e-19 6.5203033e-26 -1.7445695e-23
1.7989191e-17 -6.33472e-40 -2.327743e-13 2.8854076e-19 -1.953929e-22 -2.6644014e-24 -1.994631e-18 -1.9977314e-25
-1.5962335e-20 3.0045835e-21 -1.7540842e-28 -4.041024e-24 -9.866875e-25 4.1020745e-38 1.8750734e-11 -3.2716783e-26
2.2015729e-15 -3.471633e-21 2.279655e-13 -9.640543e-22 2.7647898e-17 -1.2982598e-15 -4.884014e-18 2.5586861e-24
9.2316594e-20 -4.9132493e-21 -8.197231e-18 6.25929e-40 3.8504034e-21 6.568668e-22 6.544913e-39 2.959286e-19
1.9880985e-14 -1.5126916e-28 -1.4023406e-19 8.0034634e-17 -3.5891668e-38 1.03613725e-13 -1.0379433e-20 2.3918781e-12
3.117794e-20 -1.8072341e-27 1.0326143e-19 -7.425395e-21 5.76643e-40 -1.0955091e-14 9.267994e-15 -5.13354e-40
-9.547811e-17 -1.2275935e-26 2.4467624e-38 -3.8587805e-27 -2.606327e-16 2.7049113e-33 -6.7131875e-29 -7.766992e-18
-3.57901e-40 -2.755225e-18 7.089136e-16 2.3996e-41 1.4035807e-31 -1.5563172e-27 4.972148e-33 -4.0306225e-21
0.024703838 -0.58091515 0.1386858 0.34235317 -0.146415 0.09825822 0.07475083 0.031757668
-0.09106092 0.1423817 -0.0036274374 0.20277387 0.035705853 0.3016111 0.052912053 0.17894782
-0.021299766 0.009009789 0.18793964 0.06340341 0.022956695 0.04961305 -0.0072084013 0.07444598
0.021392573 0.14843495 0.41852427 -0.03716915 -0.4449332 0.21502662 1.0525087 -0.05844452
0.1451029 0.010437053 -0.002812297 0.106964655 -0.16210315 0.15366149 0.0300428 0.002433651
-0.16533884 0.02300574 0.23807895 0.09530594 0.15387301 -0.0009045462 0.06187364 0.123136826
-0.05107097 -0.0036669709 -0.008212487 0.07877018 0.116089515 0.109567404 -0.024315434 -1.072534

feature_extraction_layer.1.bias f4 [128]
00000000: 1afc 2600 5085 1f80 214a b92c a6b4 3200
00000010: 1afd 0500 020a 3300 d61f 1680 f0f8 2b80
00000020: f1fd 3e00 f5e8 0d80 29f7 0080 60f0 0e00
00000030: 85cf 3600 9356 1580 febd 0900 ff8c 2600
00000040: 9631 1400 53c9 4100 f0f2 0780 f676 3e80
00000050: e08c 503a 883d 2400 b540 2580 cb20 0300
00000060: 11a4 1280 6c1b 1d80 7493 1e00 ad68 2b80
00000070: 2920 0980 3dab 3b00 0eaf 2880 66d9 3180
00000080: b1fa 0780 9d99 3c00 f5d1 2b00 98a2 3f00
00000090: f7f0 1f00 132b 0500 544d 2f80 4cae a11b
000000a0: 754b 9eb8 fc07 3400 44b7 2700 f1b9 0e00
000000b0: cd9e 3480 1cca 2600 003d 3700 26ac 1180
000000c0: 6a06 0f00 5433 1380 1d7f 3380 3fe7 3680
000000d0: 41fd 3b80 6fc4 0580 03bc 3800 a69c 6f39
000000e0: baa4 0a80 ae7c 2300 cbcb 0f80 102d 3800
000000f0: 5542 1100 c2d3 2980 eafb 1d39 228d 2700
00000100: 6732 2f80 e17d 3d00 8103 3680 b574 3c80
00000110: 929b 2300 63e8 2300 1284 0b80 028a 1800
00000120: e2b6 1300 88cb 1400 86c2 ad37 e90a 1d80
00000130: daa2 b639 673e 1f80 e84a 1a00 afcb 3c00
00000140: 84a0 2a80 2621 0f80 1eb0 4180 986a 2880
00000150: 14f0 2a80 0fd2 2200 6511 0e00 01c4 3600
00000160: b97c 2000 0ed1 3c80 8b52 3800 f898 7d9c
00000170: 5e7a 0600 8497 2900 ef4f 2200 0875 3000
00000180: 08b1 3800 328f 3380 4df9 3000 7f3e 3a80
00000190: 3c86 3800 7e35 1180 1031 1380 92c1 3980
000001a0: a004 2580 6c72 1400 1200 0900 4343 1e80
000001b0: bed1 3f00 02bd 2f00 5338 0900 afc6 0e80
000001c0: 778d 3f80 6c19 3600 666c 1980 0886 2780
000001d0: ebfa 3f80 fe7c 1100 f219 3580 f9e5 23b7
000001e0: a896 2980 b626 2800 fedb 1380 653e 2700
000001f0: e7ab 2380 6818 4180 cabf 2480 2e0c 1100
3.580186e-39 -2.894724e-39 5.266246e-12 4.656579e-39 5.49973e-40 4.6872e-39 -2.031801e-39 -4.038228e-39
5.784898e-39 -1.27743e-39 -8.8664e-41 1.371927e-39 5.033561e-39 -1.959602e-39 8.94676e-40 3.540329e-39
1.854498e-39 6.041529e-39 -7.29998e-40 -5.736476e-39 0.00079555623 3.328151e-39 -3.421126e-39 2.8727e-40
-1.711895e-39 -2.673067e-39 2.807961e-39 -3.986477e-39 -8.38056e-40 5.479723e-39 -3.736218e-39 -4.577927e-39
-7.3278e-40 5.565236e-39 4.024245e-39 5.843964e-39 2.933342e-39 4.7463e-40 -4.344008e-39 2.6747852e-22
-7.548082e-05 4.77831e-39 3.647328e-39 1.3524e-39 -4.832413e-39 3.562252e-39 5.072835e-39 -1.622959e-39
1.379833e-39 -1.763287e-39 -4.72921e-39 -5.042072e-39 -5.509145e-39 -5.29645e-40 5.210234e-39 0.00022851172
-9.77448e-40 3.258969e-39 -1.45064e-39 5.158953e-39 1.584999e-39 -3.84122e-39 0.00015066532 3.632213e-39
-4.334349e-39 5.647122e-39 -4.960374e-39 -5.551996e-39 3.27005e-39 3.297607e-39 -1.057568e-39 2.25356e-39
1.81048e-39 1.909723e-39 2.071379e-05 -2.667143e-39 0.0003483508 -2.869286e-39 2.414594e-39 5.583198e-39
-3.914673e-39 -1.389424e-39 -6.032486e-39 -3.711658e-39 -3.943215e-39 3.197762e-39 1.291937e-39 5.02943e-39
2.983478e-39 -5.585124e-39 5.172399e-39 -8.3908385e-22 5.9491e-40 3.819609e-39 3.151082e-39 4.450087e-39
5.206295e-39 -4.734979e-39 4.497536e-39 -5.348878e-39 5.190942e-39 -1.580393e-39 -1.762475e-39 -5.304063e-39
-3.399572e-39 1.877757e-39 8.26545e-40 -2.779194e-39 5.860878e-39 4.384072e-39 8.46725e-40 -1.356971e-39
-5.836384e-39 4.968236e-39 -2.334773e-39 -3.629666e-39 -5.875649e-39 1.606042e-39 -4.876589e-39 -9.769102e-06
-3.8193e-39 3.687307e-39 -1.823793e-39 3.603967e-39 -3.27591e-39 -5.978063e-39 -3.374879e-39 1.565573e-39

feature_extraction_layer.2.weight f4 [128]
00000000: 9f5e a33b 71ea 04bb 7663 c33e 5d4f 8fbd
00000010: 3d9c 80bb 0f98 053c c36b 8d39 b050 22ba
00000020: 859d 173c bb5e 3fbb 24f5 3c39 c501 823c
00000030: c7e3 6bbb eaa7 143d 707d a4bc 0c5f 6ebb
00000040: 5151 323b b53f 32bb 4de3 cdbb 00f9 693a
00000050: 59a6 7a3f bc7b 73b6 cd7a a43c d07a 803b
00000060: 85fe b93e 2ec8 ab39 21bd c03a 734f 1aba
00000070: 3867 bb3a cbb5 d5bb 9015 be3b bac3 0439
00000080: 655d b33b f63f 8f3c 8df3 09bc be63 02bd
00000090: 2528 9638 f56a 46b8 9d33 7fbc f517 293d
000000a0: 5e67 6e3f 10a2 b7bb b335 803b f825 13b9
000000b0: 3a0c 6e3a 3759 6e3b 0eff c6ba c6d1 f738
000000c0: 1a3a fc38 413b 833c c8cf de3a c3b7 733b
000000d0: f904 db38 cb26 a338 a178 e33a 8952 ea3f
000000e0: 209e 2c3c 40b5 9f38 b2c7 92ba 5908 cf3a
000000f0: 961e 10bb 7562 7a3c e66b 843f 4cdf 5eba
00000100: 39c1 d3bc ae11 7a3b 7a30 b83a 4233 153c
00000110: d8ce e03a d800 1dba 6d62 93b6 f0d4 b03b
00000120: 8a83 313c 6940 263c 4057 863f 1042 fbbc
00000130: 0629 863f 8fdd 713a b54b 03ba b5c4 603c
00000140: 31b5 393b 9531 d8bb edb8 963c ff3a 8eba
00000150: cf08 c73a 6a62 783b 46a9 02bb 95eb 42bb
00000160: 88cb 47ba daf7 3b3b ca5a a6bb 4228 893a
00000170: ec20 4c3c 40a4 093d 16a4 b3bb 6b48 a3bb
00000180: 0f3a 15ba cafb 3e3a 9cba c0bc e4aa 3e3b
00000190: a46e 6c3c fd5d 26bb 6773 4ab9 ab4b 4abb
000001a0: d702 973c 5c98 f73a e20a d63b 36f7 38bb
000001b0: 47df 383c a489 14bb 5536 543b deab 713d
000001c0: c2b1 083b 3dc5 b03a aa72 13bb e0d5 983a
000001d0: 915e 633a e3e4 f43b 38cd 6ab9 ec5c c93f
000001e0: cf02 cdb9 02b3 5e39 4bf8 e2bb 3cff 3f3b
000001f0: b42d f33b c8d8 ed37 d334 b53a 87f2 743b
0.004985645 -0.002028134 0.3816182 -0.06997559 -0.003924875 0.008153929 0.00026973904 -0.0006191833
0.009253864 -0.002920075 0.00018020399 0.015869984 -0.003599392 0.036292948 -0.020079345 -0.003637257
0.0027209113 -0.0027198617 -0.0062832 0.00089253485 0.97910076 -3.6281845e-06 0.020078087 0.0039208904
0.36326995 0.00032764807 0.0014704802 -0.00058864726 0.0014297729 -0.0065219156 0.0058009103 0.00012661415
0.00547378 0.017486554 -0.008419883 -0.031833403 7.160035e-05 -4.730649e-05 -0.01557627 0.041282613
0.93126476 -0.005604036 0.0039126514 -0.00014033157 0.00090808014 0.0036369094 -0.0015182213 0.00011816951
0.00012027119 0.016019465 0.001699918 0.0037188388 0.0001044366 7.7796714e-05 0.0017354676 1.8306438
0.010535747 7.615471e-05 -0.001119843 0.0015795334 -0.0021990887 0.015282263 1.0345428 -0.0008501902
-0.025848972 0.003815751 0.0014052533 0.009106459 0.0017151488 -0.00059892004 -4.3923997e-06 0.005396478
0.010834584 0.0101471925 1.0495377 -0.03067115 1.0481269 0.0009226435 -0.00050085346 0.013718774
0.0028336758 -0.0065977075 0.018398726 -0.0010851322 0.001518512 0.0037900456 -0.001993732 -0.0029742469
-0.0007621576 0.0028681667 -0.005076741 0.0010464268 0.012459021 0.033603907 -0.005482207 -0.004982998
-0.00056925503 0.00072854443 -0.023526482 0.0029093558 0.014430676 -0.0025385611 -0.00019307212 -0.0030867856
0.018433971 0.0018890011 0.006532059 -0.002822352 0.011283702 -0.0022665048 0.0032381017 0.059001796
0.0020857905 0.0013486516 -0.0022498765 0.0011660419 0.0008673454 0.0074735745 -0.00022392429 1.5731483
-0.0003910274 0.00021238255 -0.0069265715 0.0029296419 0.0074212197 2.8353548e-05 0.0013824947 0.0037376003

feature_extraction_layer.2.bias f4 [128]
00000000: 1b97 dab9 ce84 ecb9 feb8 14c0 500a 01bd
00000010: 5408 07b8 f512 63b8 60f6 89af 7d2a 7cb5
00000020: 26b2 d4b6 868b 63b2 d7fc 08aa 8063 bdbb
00000030: 6f5f 85b2 fc62 9abc fcbd 5fb7 9892 73b5
00000040: 346e 7db5 4ea1 92b7 bd5c b5b9 c1e8 28af
00000050: 07d4 c8bf d651 fda3 f848 7fb6 497b 8eba
00000060: 1626 f6be 075d 13b4 b2b4 aab3 5a3b b3b8
00000070: 5816 8ab5 a7c8 09b9 7531 53b4 4972 33bd
00000080: 2c70 19b7 4bd7 4bbc ab08 96b5 cbfc 56bc
00000090: e802 27a7 961a 1ca7 07f7 d8bd 9eef 2ebf
000000a0: 6e2c 09c0 824c 07ba a017 a6bc 3786 b0b3
000000b0: 1a7a 1cb3 58be f8b5 a544 31b2 0d89 30ad
000000c0: d5dc 07ab 9a26 52b8 1ab4 deb7 ef13 a6b4
000000d0: d358 8fb1 9f5d 92a3 374a cbb5 0f2a 42c0
000000e0: 2ea5 0cba f799 8cac b870 73b2 a7a1 5db4
000000f0: df5a 50b6 7d57 23b6 64cc 56c0 3cbf bdb1
00000100: c3d3 74b9 eea2 c8b6 e0aa 93b5 b4eb 09b7
00000110: 48fb 43b4 84da acb0 221d b3b2 6e68 57b7
00000120: 73fb 97b7 bc03 abb6 9f68 d8bf 7947 acbb
00000130: b087 5dc0 7b15 e0b5 2f0d 97b2 b511 1abc
00000140: 79b7 53b6 bd0c 87b8 6112 37ba 095d 97b7
00000150: 90aa d7b3 bb8a 7cb6 685b 1db5 ddc8 b4b9
00000160: ad12 85b0 e3f3 10b2 66ea 9bb5 e6c4 7abd
00000170: 0def 02b9 29b2 88bd 96d0 e7b9 2246 8cb5
00000180: efd3 7db3 39c6 1eb4 74fd 34b8 9595 0eb5
00000190: 125e 7db8 72b2 e0b2 61df 6bad 47c8 e5b3
000001a0: 920a 06bb bb45 fdb5 3605 88b8 9f0f edb0
000001b0: c856 5bb9 5693 b8ba 2759 9eb1 dc39 48ba
000001c0: 341c 59b2 63b6 44b4 47cc 86b4 3dd4 1ab7
000001d0: 0b3a 80b8 7291 2eb7 0775 26b2 def7 9fc0
000001e0: c3b0 68af 6024 72ad abb1 14b7 8aa1 e3b3
000001f0: 04c1 6bb9 adb6 30ad ab40 b7b5 c2fa bab2
-0.00041692783 -0.00045112375 -2.323791 -0.031503975 -3.2194264e-05 -5.4138673e-05 -2.5095215e-10 -9.3939144e-07
-6.3388316e-06 -1.3244863e-08 -1.2166948e-13 -0.0057796836 -1.5526636e-08 -0.018846028 -1.333607e-05 -9.0737876e-07
-9.441021e-07 -1.747967e-05 -0.00034592106 -1.5362202e-10 -1.5689706 -2.7464974e-17 -3.8040434e-06 -0.0010870482
-0.48075932 -1.3724285e-07 -7.94911e-08 -8.54644e-05 -1.0288304e-06 -0.00013140087 -1.9668899e-07 -0.043810163
-9.145628e-06 -0.012441467 -1.1178394e-06 -0.013121794 -2.3177481e-15 -2.1663761e-15 -0.10593992 -0.68334377
-2.1433368 -0.0005161242 -0.020274937 -8.220052e-08 -3.643263e-08 -1.8532837e-06 -1.0318364e-08 -1.0034873e-11
-4.82681e-13 -5.0103852e-05 -2.6548329e-05 -3.0934413e-07 -4.171946e-09 -1.5869002e-17 -1.5146278e-06 -3.033817
-0.000536519 -3.996133e-12 -1.4170091e-08 -2.0641038e-07 -3.104731e-06 -2.4339818e-06 -3.356225 -5.522365e-09
-0.0002334854 -5.979432e-06 -1.1002085e-06 -8.220715e-06 -1.8252206e-07 -1.2576753e-09 -2.085159e-08 -1.2839313e-05
-1.8117693e-05 -5.096632e-06 -1.6906928 -0.0052575436 -3.4614067 -1.6695552e-06 -1.7584709e-08 -0.009403636
-3.1548245e-06 -6.439674e-05 -0.00069836347 -1.8043926e-05 -1.0042743e-07 -3.7631678e-06 -5.862007e-07 -0.0003448193
-9.682332e-10 -8.437357e-09 -1.1616619e-06 -0.061222933 -0.0001248682 -0.06674606 -0.00044215162 -1.0451224e-06
-5.9098905e-08 -1.478701e-07 -4.315139e-05 -5.311679e-07 -6.040751e-05 -2.615818e-08 -1.34078035e-11 -1.0700074e-07
-0.0020453078 -1.8870263e-06 -6.485956e-05 -1.7248459e-09 -0.00020917796 -0.0014081995 -4.6085407e-09 -0.0007638016
-1.2637475e-08 -1.8320274e-07 -2.5108076e-07 -9.228531e-06 -6.114327e-05 -1.0405072e-05 -9.689081e-09 -4.999007
-2.1163075e-10 -1.3764184e-11 -8.862854e-06 -1.0599895e-07 -0.0002248325 -1.0045004e-11 -1.3653383e-06 -2.1767281e-08

feature_extraction_layer.2.running_mean f4 [128]
00000000: 8d51 9eac c017 032d c051 8a3f 96a4 a82f
00000010: d4e0 2821 dfde 3e22 af78 2821 0d46 7496
00000020: 0ecb 501e 47d5 8814 99e2 9502 99ea 4ab1
00000030: 4458 660c 7663 3eae dbf8 6e2a 1742 e6a2
00000040: 4c54 8923 68cd 0fa6 7419 20aa 2a03 031c
00000050: 3a78 3a3f c813 b801 3274 70a9 6426 27ae
00000060: 12b5 34bc f01c d122 b36d e99a d41b 8d1e
00000070: f8e5 b028 cf6c 35ab f0ae 33a4 ffc0 dbb1
00000080: 6107 19a8 7708 27b6 c147 219b 87b1 9caf
00000090: bce3 660a 62fa 640d 9510 86b6 b32a b3bd
000000a0: 7361 473f 82ea eda8 4fa8 6eae de4b 00a4
000000b0: f8db f4a1 2fb2 bea3 8aca 83a6 f28d 6e22
000000c0: ed26 f19b 33cf 5a9f c501 8da7 f34a 4baa
000000d0: bb3b 87a8 76ad 6689 3154 f2a6 8bd4 d23f
000000e0: 638c 8337 11a1 4c15 3f20 d29d 064e 3a29
000000f0: 8335 ab9e e1d1 54a6 8e34 903f 1811 f118
00000100: 8f8b bca4 2c6a 312a ae36 efa1 1b50 f2a8
00000110: e596 93a3 d2fa 1423 552d e3a5 937a 3918
00000120: 8d12 0cac 7f48 5f16 fdff 853f 4f15 4ab2
00000130: 753a 0d3e 0cec 191a fa80 6e94 e779 1cb2
00000140: 8c37 14a9 9097 891e 82cd 152e c56a 8ab2
00000150: b846 d29b bf34 119f e3e9 80a5 9d8f 9a25
00000160: fb84 bb14 5413 1f98 2b5f a523 3b29 edbb
00000170: 3397 e3ab 12fc 3a35 5b16 6ea8 2b6f e022
00000180: b369 c129 eb1f b8ab dd8e 34a6 6a43 51ad
00000190: 89a5 9023 3571 171a 6fae 6e18 c171 5d21
000001a0: 5ca4 dca5 5d23 2ca4 fe76 b3ad 7ddc ad1e
000001b0: a6b4 9aac 91b4 fcaa 3e24 06a6 7963 6ab4
000001c0: d699 2626 fc6b db99 3049 8c1e 4561 5ea7
000001d0: 8def 8e2e 5c42 96a5 6360 869f 173d ee3f
000001e0: 829a ad16 fe2c 661d 35df 36aa becf ac18
000001f0: 4fd8 8eaa 73d3 3920 4a89 7227 c572 889b
-4.499684e-12 7.451761e-12 1.0806198 3.0675967e-10 5.721817e-19 2.5867789e-18 5.708034e-19 -1.9732267e-25
1.1053419e-20 1.3816614e-26 2.2023643e-37 -2.9528222e-09 1.7745117e-31 -4.3289337e-11 2.1224985e-13 -6.24116e-18
1.4889271e-17 -4.989147e-16 -1.4219686e-13 4.3348354e-22 0.728397 6.761931e-38 -5.339149e-14 -3.80055e-11
-0.011029499 5.6680202e-18 -9.654377e-23 1.4940465e-20 1.9639658e-14 -6.445512e-13 -3.8962616e-17 -6.39568e-09
-8.494806e-15 -2.4889866e-06 -1.3340793e-22 -2.8502375e-10 1.1116929e-32 7.055931e-31 -3.9954416e-06 -0.087483786
0.7788307 -2.6413987e-14 -5.4264423e-11 -2.7819838e-17 -1.6592308e-18 -2.0675305e-17 -9.144849e-16 3.233016e-18
-3.989526e-22 -4.6334687e-20 -3.913728e-15 -1.8056025e-13 -1.5013915e-14 -2.7766804e-33 -1.6814943e-15 1.6471113
1.568179e-05 4.132453e-26 -5.561988e-21 4.136797e-14 -1.8127461e-20 -7.3836714e-16 1.1266038 6.23143e-24
-8.1768425e-17 1.5757594e-13 -1.6209744e-18 -2.6902137e-14 -1.6001678e-17 8.076209e-18 -3.940894e-16 2.3972574e-24
-1.9905494e-12 1.8036672e-25 1.0468746 -1.17627925e-08 0.13791831 3.1830336e-23 -1.20413655e-26 -9.1081125e-09
-3.291078e-14 1.4568124e-20 3.4061205e-11 -1.6113868e-08 -3.4787287e-22 -3.0748575e-20 -2.2362948e-16 2.6812058e-16
1.8934626e-26 -2.0560027e-24 1.7929641e-17 -0.007237581 -1.6171286e-12 6.965721e-07 -1.32165016e-14 6.0833025e-18
8.5892576e-14 -1.3082845e-12 -6.264366e-16 -1.18952435e-11 1.5682618e-17 3.1317516e-23 3.0848845e-24 7.5028265e-19
-3.827529e-16 -3.732651e-17 -2.0402787e-11 1.840828e-20 -4.3969993e-12 -4.4889485e-13 -4.6539706e-16 -2.1829136e-07
5.7801306e-16 -2.2687684e-23 1.4853346e-20 -3.0861419e-15 6.499965e-11 -2.606582e-16 -5.6910666e-20 1.8612393
2.8047166e-25 3.0463507e-21 -1.6242288e-13 4.4670724e-24 -2.5374361e-13 1.5740072e-19 3.365867e-15 -2.257348e-22

feature_extraction_layer.2.running_var f4 [128]
00000000: c1c0 381a e71f f01a 1b7a 993f 6fd8 9421
00000010: 392c 9807 fba5 a505 4fe2 2205 0400 0000
00000020: 8184 0300 0400 0000 0400 0000 5ad2 c823
00000030: 0400 0000 3dda 9a1d 09fb f215 8ff2 1508
00000040: f9ed bc08 f68f 0b0d 65a9 5d15 2703 0000
00000050: 051a 4840 0400 0000 e0a6 f613 4dae f81c
00000060: a316 553b 2abe bb06 2100 0000 ad14 0300
00000070: 8268 1813 97a6 8817 6f04 8e09 5dc2 4324
00000080: b1ba 4711 7d3f 4d2d 8000 0000 f288 4d21
00000090: 0400 0000 0400 0000 b6d2 b22d 78ac c43e
000000a0: 8468 c940 6c1d 5112 4c00 0b1e bf84 a80c
000000b0: 8a90 0105 0924 c20c 5d78 160e 8e61 8006
000000c0: 6701 0000 78b2 3500 161e f014 4e93 7415
000000d0: 3988 5f12 0400 0000 ac74 fb0e e5d3 b540
000000e0: b3fe 0e30 0400 0000 b3d4 0100 7dc6 1714
000000f0: 608e 0800 1d90 c20d 9dc5 dd40 0400 0000
00000100: 29f9 a60a e2a6 9317 8368 9306 c8df f912
00000110: e611 dc08 5d93 3007 496a 320d 0400 0000
00000120: dee9 2319 0400 0000 7f7c 8e40 4b68 4226
00000130: 0026 9b40 0400 0000 0400 0000 4987 8e25
00000140: 10c1 dc13 f7f7 1900 4b19 bd1c 941a 9e25
00000150: c600 0000 8d17 1600 e347 930c 9c42 ae0b
00000160: 0400 0000 0400 0000 b2b2 1e08 5d41 e63a
00000170: c194 6f18 e897 922b 679e 6d12 6a68 5f07
00000180: edbd f415 0800 0d19 b80b 210e 74ea b51b
00000190: 0ba4 4c08 0400 0000 0400 0000 1a82 a304
000001a0: ed6b 590e db8f 6009 7016 871c aa74 7d06
000001b0: 8458 421a aa58 3918 2830 a50d 500e e229
000001c0: 35ca 6f0d 0400 0000 1de8 2101 384e 6110
000001d0: c01f 271e 6e6a 430c c7f1 ae00 9b56 f540
000001e0: 0400 0000 a93d 0000 e2ed 8c15 0400 0000
000001f0: a1ea ec1b 329a af01 8c89 8610 cb00 0000
3.8206014e-23 9.9313215e-23 1.1990389 1.008616e-18 2.289641e-34 1.5577497e-35 7.65877e-36 6e-45
3.2304e-40 6e-45 6e-45 2.177313e-17 6e-45 4.0989114e-21 9.8139085e-26 4.5123183e-34
1.13707855e-33 4.300597e-31 4.4764223e-26 1.131e-42 3.126588 6e-45 6.226368e-27 1.6456319e-21
0.0032514713 7.0621003e-35 4.6e-44 2.82924e-40 1.9236624e-27 8.830847e-25 3.4189426e-33 4.2448517e-17
1.5755861e-28 1.1666998e-11 1.8e-43 6.9637947e-19 6e-45 6e-45 2.0329832e-11 0.38412833
6.2940083 6.5985037e-28 7.35866e-21 2.5964392e-31 6.0920985e-36 2.991212e-31 1.854688e-30 4.829159e-35
5.03e-43 4.931304e-39 2.4245674e-26 4.939161e-26 7.05343e-28 6e-45 6.198863e-30 5.682116
5.202125e-10 6e-45 1.68138e-40 7.662697e-27 7.85758e-40 1.1990867e-30 6.9303727 6e-45
1.6078942e-32 9.541779e-25 5.544882e-35 1.5769276e-27 1.3244976e-33 1.3284075e-34 5.497842e-31 6e-45
8.4741316e-24 6e-45 4.4526973 6.7448614e-16 4.8483887 6e-45 6e-45 2.4724746e-16
5.5726182e-27 2.38484e-39 1.2513509e-21 2.742664e-16 2.77e-43 2.02883e-39 2.2692201e-31 6.7122585e-32
6e-45 6e-45 4.775645e-34 0.0017567087 3.0965128e-24 1.0416086e-12 7.497926e-28 1.680734e-34
9.8850465e-26 7.2895355e-24 1.9850425e-30 3.009545e-22 6.158185e-34 6e-45 6e-45 3.8440595e-36
2.679928e-30 2.703066e-33 8.939351e-22 4.7669723e-35 4.0189762e-23 2.3955453e-24 1.0180503e-30 1.0038899e-13
7.389096e-31 6e-45 2.9737563e-38 4.4433683e-29 8.847472e-21 1.5054281e-31 1.606611e-38 7.666822
6e-45 2.212e-41 5.692086e-26 6e-45 3.919455e-22 6.4506107e-38 5.3065605e-29 2.84e-43

dense_layers.0.1.weight f4 [64, 128]
00000000: 9f1b e738 14f5 0ab7 7e92 98bd 3acf e038
00000010: b195 31b5 b019 ee38 dd76 e936 ba76 f335
00000020: 02ef 8a39 2aee e3b6 2083 86b4 9556 aab9
00000030: 3706 a935 ee3f 8b3a 791b c1b5 a184 ec38
00000040: eaa3 1839 c49f 9bb8 8046 9336 6e00 6db7
00000050: 452d 0b40 22a0 e536 15f0 32b7 bd71 28ba
00000060: 713f 5938 9ba0 a3b9 c892 1238 8b94 b2b9
00000070: 445c e9b7 f58d 1139 f66a fab8 768e ebb9
00000080: 582e 64b7 4580 18bb 8b72 e5b9 4774 713a
00000090: 5bfa f7b6 bf7c 93b4 92b8 f63b f3aa b23b
000000a0: c977 89bc a31f b038 fb18 38ba b961 ceb8
000000b0: af25 ccb7 665d efb7 1856 fcb8 931d 19b8
000000c0: d9dd ddb6 2a9b 7039 5e93 1fb9 7243 8eb9
000000d0: 7b03 fab6 c99a 1433 8b64 b038 1fdf 5e3d
000000e0: 4187 1eb9 b773 b3b6 d939 8e34 67cb c438
000000f0: 2493 05b8 8065 65b7 bd52 d0be ebda c036
00000100: 6e3e 08b8 1932 0cba f3aa a7b8 5735 adb9
00000110: e391 9b38 7e52 6937 6698 a437 f63e 0eb9
00000120: 9c34 85b8 8b24 8937 aff8 2bbc 6926 99ba
00000130: 0e50 d43d 6805 1a39 972d 6836 5ff3 f639
00000140: 0204 74b9 aef0 43b8 8afb 1339 655c 9d38
00000150: c6ba 4133 0a3a 28b6 4b6b 0f37 384f 7db8
00000160: ded2 2537 8145 81ba fa8d 5bb7 9ece 9aba
00000170: b5ea 6eb8 e81f 003a 3044 9bb9 8cd1 79b9
00000180: 83e4 e6b8 7e2e 6238 1d4c 2eb7 2597 a638
00000190: 03ab ac39 3ac2 e434 9e3e 16b3 71e2 3638
000001a0: ff1d f038 c646 60b6 8f75 02b9 c719 83b9
000001b0: c7f5 7c37 1643 3238 bc88 2039 c5c9 4bb8
000001c0: c92b 3f38 f5b5 ecb7 8e60 eb34 5aed 0e37
000001d0: 9589 85ba 6f1d fc38 9d71 a436 86e1 20bd
000001e0: d6da 19b4 358e 3135 e02c c638 d4f5 79b9
000001f0: 1a18 97b8 e029 6cb8 5c2c 28b9 7a11 81b8
00000200: 9b02 ac2f 58c6 84b2 343f 4eb2 5d50 d830
00000210: ac58 3629 fb10 f034 20bd 512f 86a1 0aae
00000220: bcd1 ba31 238e 34ad ea2d 37ab c334 61b2
00000230: 718c deac 521d 8930 6415 13a7 7f39 0a33
00000240: 67da 5db5 95cf 9532 0d4b 60b2 faac cab0
00000250: a4da c0b5 654f 372f d8e4 92b1 28d6 b434
00000260: cb68 8ba9 2b95 8a32 8000 652d fc7d 25b5
00000270: c313 9caa 5074 a0b0 9eae b331 8339 8533
00000280: 3b3a cd2e b4e1 14b5 fce6 e9b4 f50c 19b2
00000290: bce8 81af 294f 07ae 239b 0231 0f3a 9237
000002a0: c163 9ab2 be33 d1b3 3435 8932 90d5 82b0
000002b0: 0812 002f 6e28 4faa 4cf2 1e33 6d00 582d
000002c0: a461 e72f cdcf d3b4 980f e6b4 1592 7ab4
000002d0: 3488 67b0 b25c 13ae 0584 5431 ead6 ef35
000002e0: 4d04 022d 1e38 4e29 3fa4 f0ad d116 cbb4
000002f0: 8c5e 09b3 7fed 6630 ca95 ea2d f5d8 eeb0
00000300: 0b53 8fac bef6 0534 2e9a e0ae 2bf8 dcb3
00000310: edc2 fb30 02f5 af2d 0c4d 522f 5401 0fb4
00000320: ac08 3430 691f 342a 629a 9836 e645 0333
00000330: c213 fb32 f1b4 37b2 3af0 272a 9238 b72f
00000340: d607 222f 0b31 51ae dfcf 1333 2314 c9af
00000350: 7af0 7622 ebe2 d530 7740 8b30 0a86 b12a
00000360: dc16 15af 8151 e4b4 ba1f d72e 47c2 af36
00000370: 3c99 1c32 8e31 80b4 2bd9 edb0 b604 62b0
00000380: daaa 2bb3 b2b5 a231 c3b3 1c34 2501 23b1
00000390: 75b5 bdb0 06ac 9128 4c34 4929 0109 1b31
000003a0: ab0a 0630 5c6e a32e 6546 44b2 fb70 a3b3
000003b0: c58a 5d2e c1bd ca2b a037 0632 8433 feb5
000003c0: b966 9630 46e2 2cb2 bb51 20ac 0bd6 6d2c
000003d0: 5f17 7836 dbf4 50b0 2780 402d 60fc c134
000003e0: 4583 9ab0 fdee 652e 5ca6 4db1 ed03 e4b4
000003f0: ef47 8633 db40 b92a f6cc b4b4 4505 f732
0.00011020083 -8.282503e-06 -0.07449816 0.00010719751 -6.615547e-07 0.00011353509 6.9577786e-06 1.8139465e-06
0.00026499486 -6.792853e-06 -2.505485e-07 -0.00032489435 1.259329e-06 0.0010623911 -1.4387616e-06 0.00011278061
0.00014556912 -7.4207346e-05 4.3891487e-06 -1.4126401e-05 2.174638 6.8433737e-06 -1.0665525e-05 -0.000642564
5.1795916e-05 -0.00031209443 3.4945813e-05 -0.0003406148 -2.7818729e-05 0.0001388116 -0.00011940852 -0.00044928835
-1.3600649e-05 -0.0023269814 -0.00043763625 0.0009210747 -7.390319e-06 -2.7471648e-07 0.0075293267 0.0054525076
-0.01678075 8.398227e-05 -0.00070227653 -9.841048e-05 -2.4336243e-05 -2.8534512e-05 -0.000120323326 -3.6505586e-05
-6.6121397e-06 0.00022945987 -0.0001521832 -0.000271346 -7.450986e-06 3.459971e-08 8.4110616e-05 0.054412004
-0.0001511844 -5.3480867e-06 2.649165e-07 9.383895e-05 -3.1846706e-05 -1.3673096e-05 -0.40688124 5.7475313e-06
-3.248307e-05 -0.00053480413 -7.995022e-05 -0.00033036873 7.4181495e-05 1.3907089e-05 1.962129e-05 -0.0001356563
-6.3517335e-05 1.634869e-05 -0.0104963025 -0.0011684421 0.10366832 0.00014688598 3.459723e-06 0.00047102102
-0.00023271146 -4.6715773e-05 0.00014112718 7.503553e-05 4.5106184e-08 -2.5067734e-06 8.548445e-06 -6.039368e-05
9.883863e-06 -0.0009862633 -1.3086474e-05 -0.0011810844 -5.696221e-05 0.0004887567 -0.00029614707 -0.00023824553
-0.00011009818 5.3925898e-05 -1.038893e-05 7.94365e-05 0.0003293381 4.2609628e-07 -3.4981547e-08 4.360307e-05
0.00011449679 -3.3419797e-06 -0.0001244156 -0.00025005473 1.5077595e-05 4.2500986e-05 0.00015309727 -4.8586884e-05
4.5578727e-05 -2.8218123e-05 4.3842414e-07 8.519122e-06 -0.0010188097 0.00012021779 4.900807e-06 -0.039277576
-1.4328847e-07 6.6144577e-07 9.449734e-05 -0.00023838069 -7.20473e-05 -5.6305784e-05 -0.00016038254 -6.1544546e-05
3.128847e-10 -1.5457019e-08 -1.2005149e-08 1.5738909e-09 4.048903e-14 4.4715838e-07 1.907563e-10 -3.152103e-11
5.4371565e-09 -1.0263376e-11 -6.507838e-13 -1.310872e-08 -6.3252116e-12 9.976395e-10 -2.0411944e-15 3.218292e-08
-8.264673e-07 1.744028e-08 -1.3055581e-08 -1.4746597e-09 -1.4368748e-06 1.667196e-10 -4.2751758e-09 3.3683432e-07
-6.191019e-14 1.6133148e-08 1.3017254e-11 -6.165062e-07 -2.772488e-13 -1.167459e-09 5.2294373e-09 6.2037564e-08
9.3326645e-11 -5.546274e-07 -4.3567695e-07 -8.908718e-09 -2.363033e-10 -3.0765755e-11 1.9005675e-09 1.7431592e-05
-1.7973322e-08 -9.741733e-08 1.5973093e-08 -9.519443e-10 1.1647938e-10 -1.839932e-13 3.700761e-08 1.2278273e-11
4.2088033e-10 -3.9453008e-07 -4.2852184e-07 -2.3336209e-07 -8.4230867e-10 -3.350626e-11 3.0925105e-09 1.7869436e-06
7.390599e-12 4.5789863e-14 -2.7357781e-11 -3.7828298e-07 -3.1983788e-08 8.4011015e-10 2.666924e-11 -1.7378442e-09
-4.073524e-12 1.2476355e-07 -1.02137285e-10 -1.028969e-07 1.8318055e-09 2.0004002e-11 1.9126761e-10 -1.3318396e-07
6.549594e-10 1.5998109e-13 4.5479255e-06 3.0564387e-08 2.922923e-08 -1.0693143e-08 1.4915925e-13 3.3327702e-10
1.4736598e-10 -4.7564657e-11 3.4415162e-08 -3.6575995e-10 3.3466524e-18 1.5562284e-09 1.0131903e-09 3.1534524e-13
-1.3559592e-10 -4.252761e-07 9.782704e-11 5.2380233e-06 9.115237e-09 -2.3877914e-07 -1.7305742e-09 -8.2225016e-10
-3.996943e-08 4.735477e-09 1.4594029e-07 -2.3720272e-09 -1.3803133e-09 1.6172837e-14 4.4676326e-14 2.2560587e-09
4.8764076e-10 7.4319856e-11 -1.1424707e-08 -7.61083e-08 5.0372834e-11 1.4405631e-12 7.812474e-09 -1.8939468e-06
1.0943132e-09 -1.0063166e-08 -2.2782737e-12 3.3798543e-12 3.6968484e-06 -7.601792e-10 1.0942392e-11 3.6132678e-07
-1.1242284e-09 5.2280836e-11 -2.992599e-09 -4.2471166e-07 6.252946e-08 3.2907604e-13 -3.367674e-07 2.875698e-08

dense_layers.0.1.bias f4 [64]
00000000: bc1a 16b8 3a69 3700 ce9d 1880 0aa6 8aae
00000010: f51e eb38 9fe4 d607 5ac1 2108 ea40 8790
00000020: e08f 4225 94fa 0980 877f d382 ba63 fe37
00000030: ebc2 ef38 713b 588a 7c26 48b8 fa79 c438
00000040: 10d3 86af bbc0 3237 2241 df38 a2fe 3700
00000050: 6542 2436 70a5 121e a330 5990 cdb6 f137
00000060: a69c 4537 32fa dcb8 97e0 aeb6 e3e8 7c98
00000070: b482 5038 d424 3d00 533f faa4 35fd 1100
00000080: 1f6a 0900 c69a d28f f8d4 2680 d0a5 9536
00000090: 471b 2196 1025 4ab8 949c 5b33 0bdd 1732
000000a0: ad88 9738 24f2 22b8 aa36 3600 a9de 1337
000000b0: 6366 26b8 5ecf 80b7 6758 b9b4 559d 1980
000000c0: 6922 b7b8 b6aa 2ea9 2373 4100 631b 7c36
000000d0: 07bd 9db7 9831 a5b7 220d 0b80 9e8b 2a36
000000e0: 51e6 2f24 89f1 15b6 f843 dab8 99c3 beb7
000000f0: b931 e1b5 fbbb 5c06 c9a8 8537 f866 14af
-3.5787685e-05 5.0887e-39 -2.260662e-39 -6.305008e-11 0.000112114394 3.2333513e-34 4.867646e-34 -5.334813e-29
1.6875564e-16 -9.1641e-40 -3.107686e-37 3.0325598e-05 0.000114327144 -1.04112014e-32 -4.7719557e-05 9.368728e-05
-2.4524427e-10 1.06545e-05 0.000106456006 5.142297e-39 2.447655e-06 7.763387e-21 -4.2833172e-29 2.8814562e-05
1.1778588e-05 -0.0001053702 -5.21175e-06 -3.2687814e-24 4.971279e-05 5.615177e-39 -1.0852749e-16 1.652037e-39
8.64589e-40 -2.0767215e-29 -3.566148e-39 4.459849e-06 -1.3014084e-25 -4.819507e-05 5.1132318e-08 8.839616e-09
7.225699e-05 -3.884932e-05 4.978727e-39 8.813725e-06 -3.967284e-05 -1.5355352e-05 -3.4523256e-07 -2.352328e-39
-8.7325294e-05 -3.878383e-14 6.01061e-39 3.7566867e-06 -1.8803881e-05 -1.9692627e-05 -1.014902e-39 2.5413242e-06
3.814216e-17 -2.2343322e-06 -0.0001040771 -2.2740847e-05 -1.6778278e-06 4.1515507e-35 1.5933432e-05 -1.3497103e-10

dense_layers.0.2.weight f4 [64]
00000000: fc69 0b3f 8712 8739 7480 a03a 6fe8 4a3d
00000010: 95f4 093f 1ede bc39 0f8b 673c 8b22 343d
00000020: eaae 013d 3057 e13c c82d 7439 5313 173f
00000030: 7d5f e13f 5e7e 813e e506 143f b130 e03f
00000040: d5ec 843e 92d6 3a3f 5a09 0f40 fcf7 7e37
00000050: 26c5 913e 5ca5 543c 0cb7 e13c 2e25 693f
00000060: 5491 4a3f 97c4 7f3f 3da3 1a3f edc2 b8ba
00000070: 44a9 823f 2beb e83b 8526 603b e54a 213a
00000080: edc2 21bb 0ada 3c3b 83e0 6d3d d0df 753f
00000090: adb8 02bb 2ff5 683f 970f bb3d b5af 423e
000000a0: b742 b23f b14a d13e 7abd bebb a524 bd3f
000000b0: b2f2 e33e d885 3c3f f41f d33b 29d0 7c3b
000000c0: 9248 3e3f cbd6 143b 7059 1d3a 8f24 d83e
000000d0: f2a5 273f f094 703f 49a8 ec3c f830 ae3d
000000e0: ffb9 a73b aa44 a43e db44 b03f 9ed3 063f
000000f0: 46a2 a63f 47df 70bb cc03 e53e 03f4 4c3e
0.54458594 0.0002576301 0.0012245313 0.049538072 0.5388883 0.00036023644 0.014132275 0.043978255
0.03166095 0.027507395 0.00023286708 0.5901386 1.7607266 0.25291723 0.5782302 1.751486
0.25961939 0.7298366 2.2349458 1.5197318e-05 0.28470725 0.012978878 0.027553104 0.91072357
0.79128003 0.9990935 0.6040533 -0.0014096178 1.0207906 0.0071081123 0.0034202647 0.0006152823
-0.0024682835 0.0028816485 0.05807544 0.96044636 -0.00199465 0.9099912 0.09133833 0.1901234
1.392661 0.40877298 -0.005820927 1.4776808 0.445211 0.7364173 0.006443018 0.0038576222
0.74329484 0.0022711034 0.0006002402 0.42215392 0.6548759 0.9397726 0.028888838 0.08505434
0.005118608 0.32083637 1.3771013 0.5266665 1.3018272 -0.0036754177 0.4472946 0.20014958

dense_layers.0.2.bias f4 [64]
00000000: 4a00 643e 3c56 1bbb c0b7 8bbb e2b2 e1bd
00000010: 7115 113f 805c 6fb9 ff54 9bbd ccc4 9abd
00000020: 0bfc e9bd 3061 98bd ca93 1fbb d5ef 05be
00000030: 1e0f aebf 452f 1cbf 808a b43e d06f 62bd
00000040: 92cf 09bf 9180 0bbf f9e3 453f e5eb b1b8
00000050: 030d f0be 86af 2ebd 1947 bcbd 503f c33d
00000060: b486 c5be c206 9abf 0177 8e3d 8ce3 82bc
00000070: 34d3 17bf 15bb 2fbc 1236 e7bc 077a d1bb
00000080: 346b 7ebb 5873 d3bb 2c08 36be 1bec 93bf
00000090: 5fdd 2bbd d12a c33e 24e9 a1be d8f2 d6be
000000a0: 7520 a4bd fe4c a33d 0e88 3fbd 20e2 0a3f
000000b0: f80a aabe 3798 91be 2fa2 fdbd cf6c d3bb
000000c0: 068e 41bf 6a52 f2bc c3ef eaba 686a dcbd
000000d0: e59f 153d 132b a8bd 5fc9 93bd 13b5 243d
000000e0: 0d21 86be 00ab 16bf f674 23bf 008f 30bf
000000f0: 011c c2be 1512 c7bd 3897 73be 115d cbbe
0.22265735 -0.0023702523 -0.004263848 -0.11020447 0.5667334 -0.00022827275 -0.07584571 -0.07557067
-0.114250265 -0.07440412 -0.0024349564 -0.1307977 -1.3598363 -0.6100963 0.35261917 -0.055282414
-0.5383235 -0.5449305 0.77300984 -8.4839565e-05 -0.46884927 -0.04264786 -0.09193248 0.0953356
-0.38579333 -1.2033312 0.06956292 -0.015977643 -0.59306645 -0.010725756 -0.028224025 -0.0063927206
-0.0038821222 -0.006452959 -0.17776555 -1.1556429 -0.041959163 0.38118604 -0.31623185 -0.4198215
-0.08014003 0.079736695 -0.04676061 0.5425129 -0.33211493 -0.28436443 -0.1238445 -0.00645218
-0.75607336 -0.029580314 -0.0017924238 -0.10762483 0.03652944 -0.08211341 -0.07216143 0.04021175
-0.2619709 -0.58854675 -0.63850343 -0.689682 -0.3791199 -0.09720246 -0.23788154 -0.39719442

dense_layers.0.2.running_mean f4 [64]
00000000: b520 0041 0f25 cb37 81f6 abba 9794 05bc
00000010: 0549 2d40 5acb db3a 7f18 b339 d4c2 dc3d
00000020: 2f4a 99bd d98c 503d f5a6 ffb9 807f 1d40
00000030: ccc8 f33f 179c af3f 09ef ea40 9039 b640
00000040: 6558 3b40 c1bd 96c0 e7b6 9941 e512 36b9
00000050: 56f6 8740 0fb5 f1bc 7014 0e3e cdde c340
00000060: d1ec fa40 905f 07c1 14f9 9140 be72 853d
00000070: e914 0cc1 9018 1839 584f 283f 0bc2 bbbc
00000080: ad03 a537 e5b1 973c 66b0 ae3e b583 1341
00000090: 51ab f3bc bbe5 2641 fcf0 b03d 7901 533f
000000a0: 1a3c 9540 c3e0 0ec0 9571 873d f540 bec0
000000b0: d221 06bf 39a4 0141 43e7 56bf ae12 633a
000000c0: a799 a9c0 bd4e cc3d 439b 68b9 efa8 6e40
000000d0: 4a9b 4a40 3a23 0241 817a 7b3c 94f7 3c40
000000e0: ebd4 28bf 1690 2e3c 1b80 3cc1 cce9 7740
000000f0: f923 0541 1dfc 19be 26b3 d4c0 ac69 c23f
8.007985 2.4216743e-05 -0.0013119729 -0.008153102 2.7075818 0.0016768978 0.00034159792 0.10779348
-0.074848525 0.050915573 -0.00048761783 2.460907 1.9045653 1.371951 7.341679 5.6945267
2.9272702 -4.7106633 19.214308 -0.00017363911 4.2488203 -0.02950528 0.13874984 6.1209474
7.8414083 -8.460831 4.561655 0.06516026 -8.755105 0.00014505 0.6574607 -0.022919675
1.9671244e-05 0.018517444 0.34118956 9.219655 -0.029744776 10.431087 0.08639714 0.8242412
4.6635866 -2.2324684 0.06613461 -5.9454293 -0.52395356 8.102593 -0.8394663 0.0008662146
-5.3000064 0.09975956 -0.00022183084 3.729061 3.165728 8.1336 0.015349031 2.952611
-0.6594989 0.01065447 -11.781276 3.8736448 8.321282 -0.1503758 -6.6468687 1.5188498

dense_layers.0.2.running_var f4 [64]
00000000: 1725 8441 c503 392f a773 3d35 2f3f 693b
00000010: c01d 4c40 4ac2 5635 94c0 d03a 4320 c53a
00000020: 49c2 fa3a d6c0 553a 0e2d fc32 c603 4241
00000030: 08eb 0342 5119 b73f fe55 6341 67f8 ab41
00000040: aa48 9140 3eaa b140 7ad1 cf42 a411 cc31
00000050: fa75 8440 d67e 0b3b cc55 953d b9f8 8941
00000060: 4811 2c41 5cfe 2641 bad8 4141 22fb 083a
00000070: 4f14 9a41 ebf1 0e33 1db3 c23d 27eb aa38
00000080: a061 2733 37d8 9738 cbee 9f3d 2dc5 b341
00000090: ddba 163b 8566 e641 6bbf 163e ff4f 3f3f
000000a0: cc19 8141 2484 6040 5d35 963a 07ac 2642
000000b0: ecfd d73f 6b6a 9441 9026 153e c5bf 7834
000000c0: 77a6 b440 1969 1e3c 7443 9732 205d ff40
000000d0: 5708 1641 f065 a841 30a5 3538 beb0 0540
000000e0: 97d6 a83d a638 b23f 8579 2642 ff5a eb3f
000000f0: 5c67 1f42 835d 0e3c c534 5441 7aa9 153f
16.51811 1.6826991e-10 7.0576283e-07 0.003559064 3.1893158 8.000394e-07 0.0015926533 0.0015039522
0.0019131388 0.000815404 2.935715e-08 12.125921 32.979523 1.4304601 14.208494 21.49629
4.54012 5.5520315 103.909134 5.939187e-09 4.1394014 0.0021285317 0.07291755 17.246447
10.754219 10.437099 12.115412 0.000522541 19.259916 3.3281975e-08 0.095068194 8.150032e-05
3.8971507e-08 7.240514e-05 0.07809218 22.471277 0.0022999563 28.800058 0.14721458 0.7473144
16.137596 3.5080652 0.0011459995 41.667995 1.6874366 18.551962 0.14565492 2.3166565e-07
5.6453204 0.009668612 1.7609388e-08 7.980118 9.377036 21.049774 4.3307606e-05 2.0889125
0.08244055 1.3923538 41.61867 1.8387145 39.850937 0.008689287 13.262883 0.58461726

prediction_layer.weight f4 [13, 64]
00000000: 3c78 ac3d 28e2 823a 5e01 3d37 e641 f4ba
00000010: aa20 b4bd 3c93 f638 df36 6839 27e2 06bb
00000020: 7868 b4ba f638 8fb9 3bc3 85b9 6cad 6dbe
00000030: 31a0 33bf 3f87 dc3c 1d5d 043f 322a 38bf
00000040: bcc7 c0bd 0085 a3bd 3c62 fdbf ac9b 8ab8
00000050: 163b cabb d514 853b 4469 f5bc fbc0 59bd
00000060: 5f9e 11be 53cf d8bd ef76 2bbe 23e0 b539
00000070: a7fd b2bb 2607 0c36 e091 5f3d 8b0c d53b
00000080: eacc 6a3b 7379 00bb 3b74 8ebc 0b51 a6be
00000090: 1221 ecba 133f b33c 7431 c1bd 0d97 b3bd
000000a0: 181f b1be 5abd 5fbd db89 873c 6307 003f
000000b0: 6624 b73b 4f03 dfbe 50bb 4bbd 6f23 6d37
000000c0: a86d 80be 11ed 29bb a637 cc37 3326 493d
000000d0: ac5a 91bd fb38 983e 88cf a03b 15fb 93bb
000000e0: 58b9 c63c b4ec 0e3f 7495 b6bf fbe7 f9bd
000000f0: 6618 b83e 7178 d63a 8a80 16bf d605 93bc
00000100: 5698 4a3e 9a92 203a f2e5 acb9 fc39 a2ba
00000110: f206 3dbd fe71 05b9 92a0 033a 137f 1dbb
00000120: 6616 adbb dfa4 3cbb 686e 053a 425a eebe
00000130: dc7f b4be 3876 4abc 8990 d73e 5316 2dbf
00000140: 59ec 98be 751e 6dbe 84be cbbf 9ac3 90b8
00000150: 50be ab3d 27d2 99bb e6e0 13bd c273 09be
00000160: 5613 f4be ee90 29be 4a38 c9be 280d 4e3b
00000170: e700 043e ca8d 96ba ebc9 993d 61d4 213b
00000180: e9ed 76b6 1962 353a ec3d 313d e4c4 64be
00000190: 150d e5ba 5850 253e fb6f 81bd da53 dabd
000001a0: f38f ebbe 16d8 c03d a909 db3c 70c7 d43e
000001b0: 9168 cc3e e142 7cbf 8614 4dbb 846e 7ab8
000001c0: f2be 0fbd dc24 8cba 51a4 1239 3cf6 3b3d
000001d0: 043d 1d3d 4f1d 223e 6192 d3b7 f0f9 e33d
000001e0: 3461 71b9 ddf1 1fbf eca0 9ebf 21f1 ed3d
000001f0: 3789 783e 0c9e f9bb 1de7 e9be 249a ccbc
00000200: 7bd9 fc3c 29b9 18b3 d579 ae33 891a 97b7
00000210: 122d d2bf 354a f633 add3 5a37 3649 01b7
00000220: da2a 39b9 fdc5 9736 51ff 24b5 b468 d0be
00000230: b220 8ebc f146 24ba 8dd0 953f 039e d8be
00000240: 2a9c 163e 9908 05bf 6ece bebf 46db f031
00000250: a9dd abbe e5d6 7138 c316 56ba dc08 44bf
00000260: fe9d 06bf ab94 843e 2649 77be 5344 1ab5
00000270: 445d a93d bf83 c6b3 7e47 023d e7fe 0cb8
00000280: d95f 1538 5698 6d36 1521 1a3c 3287 29be
00000290: 60b5 13b4 7e17 233b 93e7 c93a 3ab0 0ebd
000002a0: f67a 03be e25f 33be 3d2f f9b9 64f3 2d3f
000002b0: 3c98 7bbe e552 e9bd 0f11 5b3c 72df 6cb3
000002c0: 6a33 263e 23db 03ba 4eaa 10b3 8adf 06be
000002d0: 893f b03c a94b acbd 8b75 e434 4736 ccbb
000002e0: f44b c33b 45c5 153f 6d5b 5fbf f8a6 cabe
000002f0: e043 2a3d 770e 2cb9 18dd a6be 9617 0fbd
00000300: 1e26 59bd 5b75 06bb 5756 a9bb fd97 353d
00000310: aa09 e6bc 0145 7bb9 cefd c13c 058e 823c
00000320: c286 eabc ccb5 94bc 2de6 723a 847f 86be
00000330: bf84 5cbf 9fa8 053d 47dc 2b3f d879 41bf
00000340: ac9a 60bd dbc2 d8be e611 12bf dafe ec3a
00000350: d991 17be 996d 513c 7d1b a5bd 0adc 30bf
00000360: 5168 f4be e6b2 43bf 95ba b8be 086d 1abc
00000370: 6222 68be 3730 23bb 86f4 9b3c a784 65bc
00000380: 47b8 873b 7010 71bb b4e9 153d 6d22 65bf
00000390: cef3 683b 40eb 49bd fc4f 0abd 63d1 b13d
000003a0: e10b 62bf 92e9 25bf 3623 443d c06a 573f
000003b0: 2b68 88be 5488 a53e 4a67 173d c4ea 22bc
000003c0: 3242 fcbe 6b0a d0bb 33ad 17bb 3629 d73e
000003d0: 2e81 0dbf b067 9b3e 2724 86bc 2bfa d53d
000003e0: 429f a73b a7d0 9bbe 7d9f dbbe 90c8 adbe
000003f0: 764f f83e 1ad1 f03b f9fb 35bc 31e3 e8bd
0.084213704 0.0009985613 1.1265596e-05 -0.0018635362 -0.08795293 0.000117576186 0.00022145685 -0.0020581575
-0.0013764044 -0.00027317525 -0.00025513195 -0.23210686 -0.7016631 0.02691996 0.5170458 -0.71939385
-0.09413096 -0.07984352 -1.9795604 -6.609349e-05 -0.0061715944 0.0040613213 -0.029957421 -0.053162556
-0.1422057 -0.10586419 -0.16744588 0.00034690005 -0.0054623666 2.0865787e-06 0.054582477 0.0065017394
0.0035827705 -0.001960364 -0.017389407 -0.32483706 -0.0018015227 0.021880662 -0.094332606 -0.08769045
-0.34594035 -0.05462394 0.016545227 0.5001127 0.005589056 -0.43557212 -0.049739182 1.4134551e-05
-0.2508366 -0.0025928656 2.4344608e-05 0.049108695 -0.070973724 0.29730973 0.004907552 -0.0045160153
0.0242583 0.5582993 -1.426436 -0.1220245 0.35956115 0.0016362799 -0.58789885 -0.017947119
0.19784674 0.0006125361 -0.0003297772 -0.00123769 -0.0461492 -0.00012726334 0.000502118 -0.002403204
-0.005282211 -0.0028784794 0.0005089999 -0.46553236 -0.352538 -0.012357287 0.4210246 -0.6761219
-0.2986782 -0.2315615 -1.5917516 -6.902889e-05 0.083859086 -0.0046942416 -0.03610315 -0.13423064
-0.47671002 -0.16559193 -0.39300758 0.0031440947 0.12890969 -0.0011486348 0.07509216 0.0024693238
-3.6795338e-06 0.000691922 0.043271944 -0.22340733 -0.0017475212 0.1614393 -0.06320187 -0.10660525
-0.46008262 0.09416215 0.026738005 0.4155841 0.39923528 -0.9853955 -0.003129275 -5.970757e-05
-0.03509421 -0.0010692137 0.00013984858 0.045889124 0.038388267 0.15831493 -2.5221323e-05 0.11131656
-0.00023019762 -0.6247843 -1.239286 0.11618257 0.24271093 -0.0076177176 -0.45684138 -0.024975844
0.030865422 -3.555866e-08 8.1246675e-08 -1.801296e-05 -1.6420004 1.1468766e-07 1.3043097e-05 -7.706045e-06
-0.00017658938 4.5231996e-06 -6.1466295e-07 -0.40704882 -0.017349575 -0.00062666746 1.170427 -0.42308053
0.1470801 -0.51966244 -1.4906747 7.009848e-09 -0.3356755 5.7659014e-05 -0.0008166844 -0.7657602
-0.52584827 0.25894675 -0.24148998 -5.7468895e-07 0.08269742 -9.244058e-08 0.03180646 -3.3615997e-05
3.5613633e-05 3.5404423e-06 0.009407301 -0.16555479 -1.3756426e-07 0.0024885829 0.0015404098 -0.03483603
-0.12839875 -0.17517045 -0.00047528176 0.6794951 -0.24569792 -0.11392764 0.013370766 -5.5151254e-08
0.1623055 -0.00050299073 -3.3682504e-08 -0.13171211 0.02151467 -0.084128685 4.2553833e-07 -0.0062320563
0.005959982 0.58504134 -0.8724888 -0.39580512 0.041568637 -0.00016408587 -0.32590556 -0.034934603
-0.053014867 -0.0020516727 -0.005167763 0.0443344 -0.02808078 -0.00023962931 0.023680594 0.01593686
-0.02862871 -0.018153094 0.0009265866 -0.26269162 -0.86140054 0.032631513 0.6713299 -0.75576544
-0.054835007 -0.42336163 -0.5705856 0.0018081323 -0.1480173 0.012782478 -0.080618836 -0.6908575
-0.47735837 -0.7644485 -0.3607985 -0.009425409 -0.22669366 -0.0024900564 0.019037496 -0.014008678
0.0041418406 -0.003678348 0.03659983 -0.89505655 0.003554571 -0.049296618 -0.033767685 0.086825155
-0.88299376 -0.64809525 0.047885142 0.8414726 -0.26641974 0.32330573 0.03696374 -0.009943668
-0.49269253 -0.006348898 -0.0023144006 0.4202363 -0.5527524 0.30352545 -0.01637466 0.104481064
0.0051154206 -0.30432627 -0.42895117 -0.3394208 0.48498124 0.0073491456 -0.011107438 -0.11371458

prediction_layer.bias f4 [13]
00000000: acca 493f afa2 a53e 96d0 513f 3cf0 5ebe
00000010: 107e 723e 3616 ee3e db36 8c3f a2d3 923e
00000020: f604 0cbf 5d35 f6bc ae57 eebe e939 f23e
00000030: 87c4 863f
0.7882488 0.3235068 0.819589 -0.2177133 0.23680902 0.4650132 1.095424 0.28677088
-0.5469507 -0.030054742 -0.4655127 0.47309807 1.0528725
