Reduced_model/Saved_models/models_trained/training_torch_simple_mask_copy_model_0c0d8f8n.pth (torch, 9269 bytes, 14 tensors)

feature_extraction_layer.1.weight f4 [8, 4, 25]
000000 08 56 c2 bd 77 65 99 bd 1a 79 86 3c e7 83 81 bc
       -0.094890654 -0.07490056 0.016415168 -0.015809966
000010 18 e4 bc bd 87 9b 96 3c ba ac 2c 3d 60 20 02 3d
       -0.09223193 0.018384708 0.042156912 0.031769156
000020 fb 43 8d 3d fd 74 43 3d 07 4b f7 3c c7 21 97 bd
       0.06897732 0.04771899 0.030187143 -0.073794894
000030 fa 3e af 3c 85 b3 c0 bd 23 83 c4 3d 33 e8 12 bb
       0.021392334 -0.09409241 0.09595325 -0.0022416234
000040 e0 53 ba bc bb 7a 87 3d c3 2b 2f 3d aa 70 04 3d
       -0.022745073 0.06615206 0.042766344 0.032334007
000050 15 b8 9a 3d 37 1d b1 bd e0 da 78 bd 30 1e c0 bd
       0.07554642 -0.086481504 -0.06075561 -0.09380758
000060 33 e0 41 3d da 39 a6 3c 47 19 65 3d ca 9c 9b 3d
       0.047332954 0.020291258 0.05593231 0.075982645
000070 2b 5d aa bd 83 32 06 3d 8d 36 98 3d 38 f9 ab 3d
       -0.08318552 0.032763015 0.0743228 0.08397144
000080 47 b5 cb bc 7b af ad 3d 33 22 0d bd e3 5d 36 3d
       -0.024866713 0.08480736 -0.034456443 0.04452313
000090 67 7b b8 3b 9a 4f 49 bd 27 a3 35 3d 00 c0 5f b8
       0.005629945 -0.04914818 0.044345047 -5.3346157e-05
0000a0 0d b3 91 bc 15 5c 84 3d 40 0e eb bc c0 bd e9 3c
       -0.017785573 0.06462876 -0.028693318 0.028532863
0000b0 5d 20 3c bd ed 49 b1 bc 88 a0 90 3d 20 9e ad 3d
       -0.0459293 -0.021641696 0.07061869 0.084774256
0000c0 1a cc f8 bc 32 7a b7 bd 9a c2 3d 3d 67 e9 44 3d
       -0.03037076 -0.08958854 0.046328165 0.048074152
0000d0 e7 40 07 3c 20 c7 0e bd 3f ec c1 bd 9d db 98 3d
       0.00825522 -0.03485787 -0.094688885 0.07463763
0000e0 9a 2e b0 bb ea 73 1d 3d 4d 23 9b bb 1d fa 5d bd
       -0.005376649 0.038440622 -0.004734433 -0.054193605
0000f0 f7 68 32 bd f7 c7 7e 3d f2 e1 a6 bd d5 e6 c0 3d
       -0.043557134 0.06220242 -0.081485644 0.09419028
000100 e3 2e 36 3d ad 1d 01 bd b3 ba ed bb 8d f9 c3 bd
       0.04447831 -0.03152244 -0.0072549223 -0.095690824
000110 97 53 13 3d 7a 81 9f 3c a7 5f 69 bc 3d 18 8f 3d
       0.03596839 0.019470919 -0.014243997 0.06987045
000120 0d 46 19 3d 92 7d c3 bd 9f fb ba bd ed 2c 79 bd
       0.03742032 -0.09545435 -0.09130024 -0.06083386
000130 d7 22 b1 bd 30 0b 7c 3d ba b7 fa bc 70 49 3a 3d
       -0.08649223 0.061534107 -0.030605186 0.04548019
000140 4d 19 c3 3b 32 7c b7 bd 50 04 00 bd f3 dd 24 bc
       0.005953944 -0.08959235 -0.031254113 -0.010062682
000150 f8 2f bc bd 9a 64 0e bd 00 c6 8c 3a 0a 88 4f 3d
       -0.09188837 -0.03476391 0.0010740161 0.050666846
000160 7b 33 c3 3d a0 71 bd 3d 8b 34 bf bd ca e9 7c 3d
       0.095313035 0.09250188 -0.09336194 0.061746396
000170 8d dd ed bc 67 68 a0 3c 73 ba c3 3c 80 cf d8 bc
       -0.029036308 0.019581033 0.023892617 -0.026466131
000180 ca 6c 9f 3d 67 4b fa 3c cb 19 c3 bd 67 dc 6e 3c
       0.07784422 0.030553533 -0.09526404 0.014578915
000190 4d fb 4a 3d 43 3a b4 bd 40 43 75 bd 2d 10 e5 3c
       0.049556065 -0.08800175 -0.059878588 0.027961815
0001a0 8a 60 56 3d 9d a7 5e 3d eb b1 80 bd c0 5b 3d bc
       0.05233816 0.054359067 -0.06283935 -0.011557519
0001b0 ca ed 8c bd da ea 0c bc c8 30 88 bd a7 46 b3 3c
       -0.06881292 -0.008600915 -0.06649929 0.021884276
0001c0 67 56 0a bd 75 8a c2 bd ed da 8a 3d b3 a9 70 bc
       -0.033773806 -0.09499065 0.06780038 -0.014688897
0001d0 ff 4b 9a 3d 67 52 e4 3a ba bb 79 3d b8 e3 8b 3d
       0.07534026 0.0017419577 0.060970046 0.06830543
0001e0 95 1a bc 3d e7 ed 14 3d e0 55 c1 bd 63 82 5a bd
       0.091847576 0.036359694 -0.094402075 -0.053347003
0001f0 1a 8a b5 3c 8d 4f 1f bc 1d a8 c5 bd d7 00 78 bd
       0.022160579 -0.009723556 -0.09651206 -0.060547676
000200 bd 3e 36 bd cd e9 e9 bc c0 b1 ce 3c 5d ef 94 3d
       -0.044493426 -0.028553868 0.025231242 0.072722174
000210 df 58 8f bd 1d b6 84 bd c0 f9 16 bd 22 d0 bc bd
       -0.06999373 -0.06480048 -0.036859274 -0.09219386
000220 13 ab 88 3c d2 9a 91 3d 47 c9 b9 bc 97 88 83 3d
       0.016683137 0.07109608 -0.022678984 0.06422537
000230 3a 87 69 bd 33 10 8f 3d 67 08 19 3d ad ba 63 3d
       -0.057013728 0.06985512 0.03736153 0.05559795
000240 1d d4 77 bd 67 3c f7 bb ed 94 3f bd cd 99 dd 3c
       -0.06050502 -0.0075450423 -0.046772886 0.027050877
000250 8d d6 4a 3d f3 84 e4 3c bd 1c 9d bd b3 55 13 bd
       0.049521018 0.027895426 -0.07671497 -0.0359704
000260 b0 ea 1a bd 67 01 b9 bc 37 16 c3 3d c0 fa 9e bc
       -0.03782147 -0.022583677 0.095257215 -0.019406676
000270 40 46 e2 3c 2b 27 cc bd ad a2 2f 3d 5a 5c 8e 3d
       0.027621388 -0.09968408 0.04287975 0.069512084
000280 6b 8a cb 3d 53 d8 c1 bc bf 90 93 bd e5 85 ba 3d
       0.099385105 -0.023662722 -0.072053425 0.091075696
000290 1a 13 25 bd d3 51 83 3c b2 75 b2 3d e8 0d bc 3d
       -0.04030142 0.016030228 0.08713855 0.0918234
0002a0 60 bb 42 bd 68 fc bc 3d 45 42 a8 bd 20 95 69 3d
       -0.047541976 0.0922783 -0.08215765 0.057026982
0002b0 9a 89 08 bd c0 8a 59 3d 67 79 15 3b 28 fb 87 3d
       -0.033334352 0.053110838 0.0022807957 0.06639701
0002c0 87 90 62 3d 6d a5 91 bd c0 2f 1d 3d 07 5c ff 3c
       0.055313613 -0.071116306 0.038375616 0.031171812
0002d0 05 ad b9 3d 93 8f 6a 3d 30 5a 02 3d 4b b3 a8 3d
       0.09066204 0.05726583 0.03182429 0.082373224
0002e0 0d 58 29 3c c5 2b a1 3d dd 7f 2d bd 85 8d 89 bd
       0.010335934 0.078696765 -0.042358268 -0.06716446
0002f0 4d 4e 73 bc cf c2 ca bd 00 21 bb bc 33 d3 97 3b
       -0.014850211 -0.09900438 -0.022842884 0.004633331
000300 07 14 53 3d c0 d8 24 3c eb 55 9a bd b7 63 a8 3d
       0.05153277 0.010061443 -0.07535919 0.08222144
000310 da ff 53 bc e7 51 4e 3d a0 6a db bc c2 43 be bd
       -0.012939418 0.050371077 -0.026784241 -0.092902675
000320 27 4f 83 3c 10 f5 73 bd 00 9e 3f 3c da fa 03 3c
       0.016028954 -0.05955988 0.011695385 0.008055413
000330 1d 14 1f 3d 95 63 91 3d 4d 2e a0 bd d5 64 c8 3d
       0.03883754 0.07099072 -0.07821331 0.09784857
000340 4d b3 da 3b 70 71 ae bd 4d 90 95 bc 03 08 75 bd
       0.0066742063 -0.0851773 -0.018257285 -0.059822094
000350 b3 9f c9 bc 58 cc 95 bd 9d 9b bd 3d 6d 12 f4 bc
       -0.024612283 -0.07314366 0.092581965 -0.029793942
000360 60 98 a4 3d 90 9c 84 3d 70 12 01 bd 1a 48 0c bd
       0.08036876 0.064751744 -0.031511724 -0.03424845
000370 4a 4a 72 3d 87 8c d6 bc 0d 25 bc bd 03 b2 53 bd
       0.05915288 -0.026190056 -0.091867544 -0.051683437
000380 7a e8 c7 3d 0a 12 1c bd 97 e3 af bd 20 c5 d1 3c
       0.09761138 -0.03810314 -0.08588331 0.025606692
000390 e0 89 99 3c b0 9d 9e 3d c7 a0 ba 3c 87 08 26 bd
       0.018742502 0.0774492 0.022781743 -0.040535476
0003a0 ca d2 95 3d 93 2b e4 bc ef c9 b1 3d e0 e1 8e bc
       0.073155954 -0.027852809 0.08681094 -0.01744169
0003b0 33 f6 a4 bb ed 0e 84 3c aa 3f 87 3d 33 cd 8f 3d
       -0.005034232 0.016120398 0.0660394 0.070215605
0003c0 30 b9 7e 3d 87 92 9b bd 47 0f e9 bc cb cb 83 bd
       0.062188327 -0.07596307 -0.028449668 -0.06435355
0003d0 1a b4 e4 3c 8a 18 9f bd ad 29 ac 3c 1a 2a de bc
       0.02791791 -0.07768352 0.021015966 -0.027119685
0003e0 17 7e 2b 3d 05 62 87 3d 17 36 60 bd 82 b5 bb 3d
       0.041868296 0.066104926 -0.054739084 0.09165479
0003f0 20 aa db bc 80 a2 4c 3d f0 c8 8c bd 40 20 e9 bc
       -0.02681452 0.04995966 -0.06874263 -0.02845776

feature_extraction_layer.1.bias f4 [8]
000000 07 39 86 3c 80 c9 d3 3b bb a0 80 3d 1f 19 a7 3d
       0.016384615 0.0064632297 0.06280657 0.08159088
000010 43 09 ac 3d 52 5b ab bd c2 e2 89 bd fa 27 f7 bc
       0.08400204 -0.08367027 -0.06732704 -0.03017043

feature_extraction_layer.2.weight f4 [8]
000000 00 00 80 3f 00 00 80 3f 00 00 80 3f 00 00 80 3f
       1.0 1.0 1.0 1.0
000010 00 00 80 3f 00 00 80 3f 00 00 80 3f 00 00 80 3f
       1.0 1.0 1.0 1.0

feature_extraction_layer.2.bias f4 [8]
000000 00 00 00 00 00 00 00 00 00 00 00 00 00 00 00 00
       0.0 0.0 0.0 0.0
000010 00 00 00 00 00 00 00 00 00 00 00 00 00 00 00 00
       0.0 0.0 0.0 0.0

feature_extraction_layer.2.running_mean f4 [8]
000000 42 f7 94 3d 60 a1 65 3d d5 3b a7 3d f6 96 02 3e
       0.07273723 0.056062102 0.08165709 0.127529
000010 f3 e0 1e 3e 24 23 07 3e 4e 98 42 3d 41 81 0f bc
       0.15515499 0.13196999 0.04750853 -0.008758844

feature_extraction_layer.2.running_var f4 [8]
000000 b8 85 51 3d 91 11 87 3d ad cc 7d 3d fd 39 99 3d
       0.051152915 0.065951474 0.061962772 0.074817635
000010 66 47 55 3d 5e df 57 3d fa 42 79 3d 25 4b 63 3d
       0.052070044 0.052703254 0.06085489 0.055491585

dense_layers.0.1.weight f4 [8, 8]
000000 60 64 af bd 39 de 7a be 5d 15 7d be e3 35 56 3e
       -0.08564067 -0.24498834 -0.2471518 0.20918994
000010 1b 3b 83 3e fc fa 64 3e d2 fd 61 3e 4b 48 69 bc
       0.2563103 0.22361368 0.22069481 -0.014238427
000020 60 6b a7 bd 51 b8 73 bd 56 24 64 3e 83 88 1a be
       -0.08174777 -0.05950195 0.22279486 -0.15091138
000030 85 37 74 3e b4 a3 96 be 7b bf 35 3e 85 82 1f 3e
       0.23849304 -0.2942177 0.17748825 0.15577133
000040 35 1f 10 3e 63 21 ad bd a8 5a d4 bd 10 3b 66 3e
       0.14074405 -0.08453634 -0.10368854 0.22483468
000050 b0 e1 85 3d cf 12 8d be 74 9b 39 bb 51 dc 96 be
       0.06537187 -0.27553412 -0.0028321417 -0.29464963
000060 5b f5 7a 3e 84 33 e6 bd 68 04 ea bd d8 ce a3 3e
       0.24507658 -0.112402946 -0.11426622 0.31993747
000070 f1 85 61 be 2b d2 9a be 77 59 12 be 5c ff 21 be
       -0.22023751 -0.3023847 -0.1429194 -0.15820068
000080 0a d5 76 3e d8 84 7d 3e 75 c2 5c be fe 62 9c bd
       0.24104705 0.24757707 -0.21558554 -0.07636069
000090 1b ab 9a be 12 4c 61 3e ce 92 ed bd ce 82 22 be
       -0.30208668 0.22001675 -0.116002664 -0.1587021
0000a0 ae 83 94 be 7a 2a 14 3e ea a0 56 3e 27 9a 5c 3e
       -0.29006714 0.14469329 0.20959821 0.2154318
0000b0 e2 ff a0 bd 76 02 51 be 77 8a 49 3e 17 ff 50 3e
       -0.07861306 -0.20411095 0.19681726 0.20409809
0000c0 c3 ca 1c be 7b 86 9f 3e fa 90 42 be 84 4a 73 3e
       -0.15311722 0.31157288 -0.19000617 0.23758894
0000d0 c2 ff 92 bd 48 19 7c 3e c8 94 69 be 8f 5b b0 3e
       -0.07177688 0.24619019 -0.22810662 0.34444854
0000e0 9e ab 15 3e 72 5f 9c 3e 2a 70 88 3e 07 11 ad be
       0.14616248 0.3054157 0.26648074 -0.33802053
0000f0 af bc a5 3d 39 b9 b0 bd fd cc 0e be de c3 76 3e
       0.08092629 -0.086290784 -0.13945384 0.24098155

dense_layers.0.1.bias f4 [8]
000000 0d 60 3a be ea 61 98 3e 74 79 92 3d 4b 77 58 be
       -0.18200703 0.29762203 0.071520716 -0.21139257
000010 9a 60 8e be 53 70 e2 3d f2 f3 34 be d0 61 61 3e
       -0.27808076 0.110565804 -0.17671183 0.22009969

dense_layers.0.2.weight f4 [8]
000000 00 00 80 3f 00 00 80 3f 00 00 80 3f 00 00 80 3f
       1.0 1.0 1.0 1.0
000010 00 00 80 3f 00 00 80 3f 00 00 80 3f 00 00 80 3f
       1.0 1.0 1.0 1.0

dense_layers.0.2.bias f4 [8]
000000 00 00 00 00 00 00 00 00 00 00 00 00 00 00 00 00
       0.0 0.0 0.0 0.0
000010 00 00 00 00 00 00 00 00 00 00 00 00 00 00 00 00
       0.0 0.0 0.0 0.0

dense_layers.0.2.running_mean f4 [8]
000000 0d 3d 48 3f 41 65 96 3f c7 4c 93 bf f8 f4 fe bf
       0.78218156 1.174965 -1.1507806 -1.9918509
000010 3e 00 51 bf 5d 8a cf 3f 69 fd d5 3f 06 76 17 40
       -0.81640995 1.62141 1.671796 2.3665786

dense_layers.0.2.running_var f4 [8]
000000 4c 91 a9 3f 95 8a 8c 3f 55 36 69 3f 68 89 b9 3f
       1.3247466 1.0979792 0.9109853 1.4495058
000010 06 f6 c7 3f 8f 6b 9a 3f 7b e7 d0 3f 06 52 c2 3f
       1.5621955 1.2064074 1.6320642 1.5181282

prediction_layer.weight f4 [13, 8]
000000 de b5 87 be 6b 2a dc bb 9c 8d e5 3c d0 e0 25 3d
       -0.2650594 -0.006718924 0.028021626 0.0404976
000010 77 2f ce 3d 66 1c 9a be 01 ff 54 be 6f 64 2c bd
       0.10067647 -0.3009979 -0.20800401 -0.04208797
000020 be 14 8e be 73 3b d1 3d 31 5e 6b 3e 24 f1 e8 3a
       -0.277502 0.10216417 0.2298515 0.0017772061
000030 7a b1 49 3e 8b b4 70 3e 55 b4 70 3d e5 48 9a 3e
       0.19696608 0.23506372 0.058765728 0.3013374
000040 21 4e 71 bd 11 12 56 be 5c 91 8b 3e 29 93 84 bd
       -0.0589124 -0.2090533 0.27259338 -0.06473381
000050 66 c5 9e 3e 62 9d 62 3e c5 fe 95 be 95 2b ab bd
       0.31009978 0.2213035 -0.29295936 -0.08357922
000060 29 0b 11 3e b3 9d 86 3e a0 1e 0d 3e 39 78 00 3e
       0.14164414 0.2629219 0.13781214 0.12545861
000070 84 f0 65 3e de c8 71 be 91 96 a5 be ae 4c af be
       0.2245503 -0.23611781 -0.32341436 -0.3423819
000080 22 c9 8c be fa 3c 0d 3d 47 f2 5e be 1e 3b b0 be
       -0.27497202 0.03448198 -0.21772109 -0.34420103
000090 8c c8 60 3e d8 c1 1e 3e e6 60 82 3d 20 b9 64 be
       0.21951503 0.15503633 0.06366138 -0.22336245
0000a0 9a 7e 44 bd 8a c3 ac 3e b1 c2 9e be 03 25 c2 3d
       -0.0479723 0.33742934 -0.31007913 0.09479716
0000b0 85 85 40 bc 58 37 ae bb 89 77 8b be d7 4e d7 bd
       -0.011750584 -0.005316656 -0.27239636 -0.105130844
0000c0 17 ac 95 be a1 e7 f7 3c 15 20 b0 3e 62 61 2c 3e
       -0.29232857 0.030261816 0.34399477 0.16834024
0000d0 cf 5f 25 3e 57 43 59 be 73 64 7b be cd 26 6a be
       0.1614983 -0.21217094 -0.24550037 -0.22866364
0000e0 15 6f a0 3d c0 e8 65 3e 65 de 9e 3c 73 18 37 3e
       0.07833687 0.22452068 0.019393155 0.1788042
0000f0 02 a0 41 3c 82 c1 aa 3e d0 20 d7 bd 44 b1 bd 3c
       0.011817934 0.3335076 -0.10504305 0.023155816
000100 17 a9 45 bd 9b 22 a4 be 7a 7a a2 3e 60 8c 67 be
       -0.04825696 -0.32057652 0.31734067 -0.22612143
000110 9d 77 97 bb d0 88 8c 3e 27 aa 30 3e e0 93 0f 3e
       -0.0046224133 0.2744813 0.17252408 0.14021254
000120 36 9a 97 3e 46 1d 4d 3e ef 3a 91 3e d2 f4 64 be
       0.2960984 0.20030698 0.28365275 -0.22359017
000130 f7 a8 9e 3d 2f 8f cf 3b 6a 1a 1e be 4a 6a 17 be
       0.07747071 0.0063342075 -0.15439764 -0.1478664
000140 4d 34 94 be 11 10 91 be b6 f6 46 bd 20 66 65 3e
       -0.28946152 -0.2833257 -0.048575126 0.22402239
000150 52 07 f3 3c 3d f3 1d 3d 58 36 12 be 88 7f 81 bd
       0.029666577 0.03856205 -0.14278543 -0.06323153
000160 9a 5b 22 3d a0 ae 2e be 59 9a 93 3e 3d 88 31 be
       0.03963814 -0.17058802 0.28828695 -0.17337127
000170 b8 9a 8c be cd 5a 49 be 40 32 81 3e 87 b5 93 bd
       -0.2746179 -0.19663544 0.2523365 -0.07212358
000180 bf 71 3f bd 84 97 be 3d ed 3d 72 3d d3 b3 6c 3d
       -0.046739336 0.09306243 0.05914109 0.05778868
000190 a2 de 85 be 7c a1 70 be 2e e7 b3 be fa 3e 4a bd
       -0.26146418 -0.23499101 -0.35137314 -0.049376465

prediction_layer.bias f4 [13]
000000 b7 47 b2 be 11 55 3f bd 14 72 93 be 0c ef a6 3e
       -0.3482034 -0.046711985 -0.28797972 0.32604253
000010 9d b1 91 be 92 a4 97 3e e0 b9 e4 bd 75 da 4d 3e
       -0.2845582 0.29617745 -0.11168265 0.20102866
000020 14 18 7e 3e c0 b5 39 bd bb bd 23 3e c1 24 8e 3d
       0.24813873 -0.045339346 0.15990345 0.06940604
000030 ff b0 d7 bc
       -0.026329516
