Reduced_model/Saved_models/models_trained/training_torch_simple_mask_copy_model.pth (torch, 539169 bytes, 38 tensors)

feature_extraction_layer.1.weight f4 [128, 4, 25]
000000 ae 85 2e 3e fd 41 89 3e d0 de ee be 8f da 89 3e
       0.17043182 0.26808158 -0.46654367 0.2692456
000010 4e be f2 be 9e ce 6a ba 34 13 32 be c8 49 c0 3e
       -0.47410816 -0.000895718 -0.17390138 0.3755629
000020 54 44 e7 3d 74 3a c3 3d b0 6e b8 3f 56 3a 42 3f
       0.112923294 0.095326334 1.4408779 0.75870264
000030 dd 8a 4d bf c5 82 1d c0 72 b3 a0 bd d2 37 88 bd
       -0.80290014 -2.4611065 -0.078467265 -0.06651272
000040 87 e8 fa be 19 51 c5 be 56 51 a3 3e 48 61 9a 3c
       -0.4900553 -0.38538435 0.31897992 0.018845215
000050 d6 67 b3 bd 48 26 61 3f 01 05 6c 3e db cb 17 be
       -0.087600395 0.8794904 0.23048784 -0.14823858
000060 2a 63 e4 be dc 4d b2 3e d3 34 b5 be 12 12 84 3e
       -0.44606906 0.34825027 -0.35391864 0.25795037
000070 cd fc 65 3e 55 84 ca 3e a5 80 aa 3e 55 99 33 3e
       0.22459717 0.39554086 0.33301273 0.1753896
000080 5d ae 47 3e cb 9d 9a bc 11 78 22 3f 24 b1 22 bf
       0.19500108 -0.01887407 0.63464457 -0.63551545
000090 bf 96 73 bc c1 6d 24 3f a0 ba 01 bf 43 3d ba be
       -0.014867484 0.6422997 -0.5067539 -0.36374864
0000a0 6b 97 3c 3e 35 e8 08 be 91 58 75 bd ce fd e3 be
       0.18417136 -0.1336983 -0.059898917 -0.44529575
0000b0 10 c8 eb 3e 3f 27 e7 bc 0b c5 60 be 84 3f 8b bf
       0.46051073 -0.028216956 -0.21950166 -1.0878758
0000c0 34 66 20 3f 08 31 60 be 3c 5a 93 3d a4 46 a2 3e
       0.6265595 -0.21893704 0.07194945 0.3169452
0000d0 5a 5f a0 be 15 47 02 3d 80 6d 29 3d f1 72 4a bc
       -0.31322747 0.03180607 0.041364193 -0.012356506
0000e0 dc ce 83 be 0c 0d 51 bd cb c0 c4 be 9f 18 01 bf
       -0.2574376 -0.051037833 -0.3842834 -0.50428194
0000f0 09 3f 1a bf ac be 3f bf 3f 22 ae 3e b7 a6 19 40
       -0.60252434 -0.7490032 0.34010503 2.4008005
000100 49 01 e3 3e b0 bd 83 3e 68 f7 d1 be 66 91 93 be
       0.44336918 0.25730658 -0.41009068 -0.28821868
000110 74 ab b6 3e c8 bb 71 be 6d 76 1d 3f 49 74 85 bd
       0.35677683 -0.23606789 0.6150883 -0.0651632
000120 5a 6a ff 3e 06 50 5a bf f3 d5 eb 3e 27 8b 4d bf
       0.49885827 -0.85278356 0.46061668 -0.80290455
000130 a3 e5 74 be 2a 49 ba 3e b4 ab c8 be a4 12 37 bb
       -0.23915724 0.36383945 -0.391935 -0.0027934695
000140 d8 d7 8d bd 5a 09 58 3d a2 81 e5 be b8 f2 d6 3e
       -0.069259346 0.052743293 -0.44825464 0.41982055
000150 c9 19 f9 bd 5f 82 58 3e 5f 8a a6 3e dc 55 45 bf
       -0.12163121 0.21143483 0.32527444 -0.77084136
000160 38 e7 03 3f 9a ba ed 3d d6 b2 d3 be 25 6d 8a 3f
       0.51524687 0.11607857 -0.41347378 1.0814558
000170 a2 6f f8 3e ff 6c d6 be 12 ec 67 3e 00 11 0f bf
       0.4852267 -0.41880032 0.22648647 -0.55885315
000180 37 80 ee be 8b 22 07 3f d7 25 a3 bd 5a bc 13 3e
       -0.46582195 0.52787083 -0.07966202 0.14427319
000190 38 7b 7b 3e a5 0c 1d 3e a2 42 cb be 14 9b b2 be
       0.24558723 0.15336855 -0.39699274 -0.3488394
0001a0 31 79 54 be f7 33 ee 3e a7 9d 93 3e af cc 57 bf
       -0.20749356 0.4652402 0.28831217 -0.842967
0001b0 71 dd a1 3d 13 1e 3a 3f e3 4d 0b 3f 8a f5 37 bf
       0.07903565 0.7270214 0.5441572 -0.7185904
0001c0 f4 bb c8 bf 14 da 08 bd d4 33 af be 5a 44 28 bf
       -1.5682359 -0.0334111 -0.3421923 -0.65729296
0001d0 ec ae 78 3f 20 0b 29 3f ea d5 20 be 0c 2d b5 3d
       0.9714191 0.660326 -0.15706602 0.08846483
0001e0 17 e3 e0 bd 2b 69 dd 3e 78 5c bc 3e 5e a1 f6 3e
       -0.10980814 0.432443 0.36789298 0.48169988
0001f0 8a af 5a 3e 3d 0a 02 3e 45 d1 f7 3a 33 2b f7 3b
       0.21356025 0.12699218 0.0018906972 0.0075429915
000200 2b 3a 70 3e 08 60 cf 3e 32 f4 87 3e ce 61 70 be
       0.2345969 0.40502954 0.26553494 -0.2347481
000210 43 4d 71 3f 44 c2 94 3e 1c a1 44 be bd 84 df 3e
       0.9425852 0.29054463 -0.19202083 0.4365596
000220 51 76 55 bf 08 2d 10 3f 4b a1 0c 3e c0 05 98 be
       -0.8338366 0.5631871 0.13733403 -0.29691887
000230 85 56 5d bd 89 df 46 bf 0a db b3 be 98 d3 b6 3e
       -0.05403759 -0.7768484 -0.3512805 0.35708308
000240 26 6a 10 3f 5d 7e 87 be 77 26 16 3e 07 05 e2 3d
       0.5641197 -0.26463595 0.1466311 0.11036115
000250 84 4b df be b8 c1 07 bf 88 99 38 bd d0 f2 88 be
       -0.436123 -0.53029966 -0.045068294 -0.2674775
000260 1d d4 18 3f 29 21 7a 3e 5f 76 14 3e f9 20 73 bf
       0.5969866 0.24426712 0.1449828 -0.9497219
000270 2b 80 b0 3e 3a 99 65 be 1b 39 fc be b6 1d b7 be
       0.34472784 -0.22421733 -0.49262318 -0.35764855
000280 46 12 3e be 68 04 25 3f 56 7e 03 3f 4e 89 c3 3e
       -0.18561658 0.6445985 0.5136465 0.38190693
000290 94 c9 96 be 61 34 77 3e 00 21 2f 3e bb ec 54 be
       -0.29450667 0.24141075 0.17102432 -0.2079343
0002a0 5a a4 01 3d 06 59 f9 be d1 d8 80 3e 27 4c d9 be
       0.03165088 -0.48700732 0.25165418 -0.42440912
0002b0 a8 11 43 be 09 91 2d 3f c9 51 d4 3d c3 21 26 3d
       -0.19049704 0.6779943 0.10367162 0.04055954
0002c0 db 78 f6 3e 70 06 dd 3c a4 af 0a 3e 0b 38 49 bd
       0.4813908 0.026980609 0.13543564 -0.049125712
0002d0 39 62 22 3f 7c 67 01 3d ac 04 45 be cf dc 6a 3e
       0.63431126 0.03159283 -0.19240063 0.22935794
0002e0 f1 d7 6b 3e 9a 62 46 bf fb 07 59 3f ba 5d 62 3e
       0.23031594 -0.77494204 0.847778 0.22106066
0002f0 c0 16 e8 be 07 1f 59 3f 81 d4 0b 3f 0a 0d 1f 3e
       -0.45329857 0.8481297 0.5462113 0.15532318
000300 cb 28 04 3e 3c 6a 52 be 03 00 ce 3e e0 31 2f 3f
       0.12906186 -0.20548338 0.40234384 0.6843548
000310 98 82 34 3e 2f 6d 28 3e 2b c2 b7 be 5e 43 0a 3f
       0.17627943 0.164479 -0.35890326 0.54009044
000320 bc 43 c3 be 02 2f 2e 3d 4c 39 a5 3e 4d a4 4d bf
       -0.38137615 0.0425253 0.32270277 -0.8032883
000330 dc d4 25 bf 08 18 4e 3d e8 68 71 bf 91 71 40 bf
       -0.6477792 0.050315887 -0.943007 -0.7517329
000340 68 c6 d1 be 72 7f b8 3e ae cb ac 3e 04 bb 6a 3e
       -0.40971684 0.36034733 0.33749145 0.22922903
000350 9a 11 87 3e ee 3c d1 3e f9 37 e6 bf 73 13 1c 3f
       0.26380616 0.40866798 -1.7985831 0.6096718
000360 4b 94 b2 3e 0e 8a 8f be 92 e1 9a be b7 bb 7d 3d
       0.34878764 -0.28035015 -0.30250221 0.061946597
000370 a9 a1 9c bf 96 b6 80 bf cb 44 31 3e 77 c5 8b 3f
       -1.2236835 -1.0055721 0.17311399 1.0919636
000380 8f 56 7d 3e 5a 3d 06 bf 36 59 34 3f 97 ff 83 3d
       0.2474005 -0.52437365 0.70448625 0.06445234
000390 09 a3 80 3e 8b 93 75 be a0 51 2e be 25 a4 7a be
       0.25124386 -0.23982064 -0.17023325 -0.24476679
0003a0 18 8a de be f1 2d 61 bf 7f 9d c8 bf a4 61 ec 3f
       -0.43464732 -0.87960726 -1.5673064 1.8467298
0003b0 f1 fd 36 be 11 40 0d 3f 54 3a be be 49 5f b8 3e
       -0.17870308 0.5517588 -0.37153876 0.36010197
0003c0 12 8e de 3e bc f7 b7 bf 61 f0 d9 3d ec 1d 2f be
       0.43467766 -1.4372478 0.10641552 -0.17101258
0003d0 fa 1f 05 be 86 57 e0 3e 83 7e 90 3e 80 03 92 3d
       -0.1300048 0.43816775 0.2822152 0.07129574
0003e0 84 de 43 be 44 75 18 3e 80 a7 6d 3f 2f 45 c6 be
       -0.19127852 0.14888483 0.9283371 -0.38724658
0003f0 7b 99 64 bf e7 b9 d0 3e a4 0b 8f 3f a1 68 28 be
       -0.8929669 0.40766832 1.1175427 -0.16446163

feature_extraction_layer.1.bias f4 [128]
000000 60 73 07 3e f1 ba 43 3c 6a 26 9f 3d 20 ce 13 3e
       0.13227606 0.011946426 0.07770999 0.14434099
000010 33 99 bd 3d 29 6f ca 3d 10 97 8e 3c 09 62 3a bc
       0.09257736 0.09884483 0.017406017 -0.011375912
000020 ed c1 d0 bd 3c a0 fc bd a2 71 ba 3d bc 46 83 bd
       -0.101932384 -0.1233525 0.09103705 -0.06409976
000030 6f 15 0f 3d 48 6e b5 3d 9f 49 19 bd 87 db 93 3d
       0.03493255 0.08858925 -0.037423726 0.07219606
000040 69 46 06 3e 9b c2 21 3e 9f e3 d4 3c b1 86 20 bc
       0.13112797 0.15796892 0.025987444 -0.009797738
000050 17 12 1b be 39 77 40 3d 42 28 b1 3d 15 c4 9b bd
       -0.1514362 0.0469887 0.08650257 -0.07605759
000060 ed 21 2e be 36 e2 41 3e b6 6c 01 be fa b5 c7 bc
       -0.17005129 0.18933949 -0.12639126 -0.024378765
000070 43 d4 47 3e bb 23 fa 3d 9c c3 95 bd 09 81 33 3d
       0.19514565 0.12213846 -0.073127 0.04382423
000080 53 a5 c7 bd 30 1a 87 bd 46 0c 64 3d 52 8d be bc
       -0.0974833 -0.06596792 0.055675767 -0.023260746
000090 2e b7 00 3d d8 a2 4c 3e 90 3d 11 3e 13 bd 79 be
       0.031424694 0.19983995 0.1418364 -0.24388532
0000a0 90 c9 91 bd 94 f9 c7 3a 94 53 80 bd 6c 68 dc bb
       -0.07118523 0.0015256875 -0.06265941 -0.0067263152
0000b0 be 8a 70 3d ab f4 87 3d 4d ab b6 3d 00 d6 0d bd
       0.058726065 0.066384636 0.08919392 -0.034627914
0000c0 db 55 c0 bd 54 7f 29 bd 71 81 fb 3b cd 1d 54 bd
       -0.09391376 -0.041381195 0.0076753427 -0.051786233
0000d0 d1 a8 2a be 9d 37 81 3d 88 8a fb 3c 0c aa 04 3d
       -0.16665961 0.063094355 0.030705705 0.03238873
0000e0 8f fb 25 3c c9 5c 92 3d 36 76 89 3d 0e fe 1d bc
       0.010130777 0.071466036 0.06712 -0.009643091
0000f0 6a 8d 20 bc 08 4a 42 3e cc bb 26 bc be 11 78 3c
       -0.009799341 0.18973553 -0.01017661 0.015140949
000100 00 75 55 be c1 3d 9c bd c9 9e 9f 3d 22 95 3b 3d
       -0.20845413 -0.07628966 0.07793958 0.04579652
000110 70 44 b4 bd f8 6c d1 bd 27 8d 7d bc 81 a9 48 bd
       -0.08802116 -0.10225862 -0.015475548 -0.048989777
000120 e3 f0 fd 3d e5 1e 1d be 07 41 39 3e 80 9b 37 3e
       0.12399461 -0.15343817 0.18091212 0.17930412
000130 e9 76 16 3e ae 5f 26 bd bb 55 a7 bd de 8d 76 bd
       0.14693798 -0.04061859 -0.08170649 -0.06019389
000140 eb cb ab 3c 4e ea 36 3d 11 b2 40 39 36 3d b1 3d
       0.02097126 0.044657044 0.00018376882 0.08654253
000150 d6 66 c1 bd a0 b0 cc 3d 94 8a ca 3d 43 58 02 3d
       -0.094434425 0.09994626 0.09889713 0.031822454
000160 94 48 71 bd 8f aa 4f 3d 88 95 cc bd 0a 4f 7c bd
       -0.058907107 0.050699767 -0.09989458 -0.061598815
000170 37 ff 89 3d d1 88 04 bd 0a 18 8b be 9b e4 9a bd
       0.067381315 -0.03235704 -0.27166778 -0.07563134
000180 06 e6 1b be 6e 98 fb 3c 17 16 29 3c f6 82 88 3b
       -0.15224466 0.030712333 0.010320208 0.0041660024
000190 e4 1d 1e 3c ab f8 d3 bd ed b9 ac bd 2d d4 81 bd
       0.009650681 -0.10350164 -0.084339 -0.063392974
0001a0 3a 1c b6 bd 5b fd 8f bc 11 18 08 bd e8 56 0a bd
       -0.088921025 -0.017576864 -0.033226077 -0.033774287
0001b0 2e a0 95 3d b9 6d 1f 3d 95 60 02 be f2 af 93 bb
       0.073059425 0.038923 -0.12732156 -0.0045070583
0001c0 35 fe e7 3c 18 d7 c9 bb 6d 1a 2a bd 25 35 1a bd
       0.028319458 -0.0061596744 -0.041529108 -0.03764834
0001d0 40 c1 0a be 32 ab 45 3d a3 58 76 bd 8d 9b 54 3e
       -0.13550282 0.048258968 -0.060143124 0.20762463
0001e0 69 b5 cf 3c 35 ab 10 be 81 69 b3 bc a9 ec 5a 3d
       0.025355058 -0.1412781 -0.021900894 0.053448353
0001f0 89 8a 8b 3c e6 ba 0e 3c 36 8a 91 bd f0 ee 57 b9
       0.017033832 0.008711552 -0.0710644 -0.00020593009

feature_extraction_layer.2.weight f4 [128]
000000 8a b9 2f 3f a8 41 0f 3f 9a 2b 38 3f 8d 67 88 3e
       0.68642485 0.5595956 0.7194153 0.26641503
000010 00 7b b2 3e 5d 01 4f 3f 2b 38 2d 3f 88 5e 4e 3f
       0.34859467 0.80861455 0.6766383 0.80612993
000020 e8 61 58 3f cd 4a 8e 3f db 59 b4 3e ef cc 37 3f
       0.84524393 1.1116577 0.35224804 0.7179708
000030 8b a0 b1 3e fc ce 19 3f 20 a0 c6 3e 8b 6a 8a 3e
       0.34692797 0.6008146 0.3879404 0.2703441
000040 fa 08 be 3e 75 fc 01 3f 85 b1 82 3e 68 4d 22 3f
       0.37116224 0.50775844 0.25526062 0.6339936
000050 b3 a8 95 3e 27 fc 2b 3f b3 be 64 3e e9 e6 0c 3f
       0.2923027 0.6718163 0.22338371 0.5503984
000060 53 2a 84 3f 6c a5 7d 3f f1 b7 26 3f 0c f5 a8 3e
       1.0325416 0.9908054 0.6512442 0.32999456
000070 4a 9f 04 40 74 12 50 3f 69 c7 34 3f f6 88 47 3e
       2.0722222 0.8127816 0.70616776 0.1948584
000080 97 c2 1d 3e 57 72 d9 3e e3 bf 70 3e 2c 9d dd 3e
       0.15406261 0.42470047 0.23510699 0.43283975
000090 8c 00 53 3f e1 a1 51 3f ae 0d 14 3f ed b0 05 3f
       0.8242271 0.8188763 0.57833374 0.5222309
0000a0 bd 01 67 3f 3d 29 f4 3e 0a c1 2c 3f cf 75 3c 3f
       0.9023703 0.47687712 0.67482054 0.7361726
0000b0 1d 6d 1c 3f ff d3 69 3f ae f2 26 3f 5a f3 a3 3f
       0.61103994 0.91339105 0.6521405 1.280864
0000c0 be e6 45 3e 71 af ed 3e 94 e9 c9 3e 38 54 98 3f
       0.19326302 0.46422914 0.39436018 1.1900702
0000d0 33 b0 45 3f a5 44 69 3f af f5 f3 3e f4 d4 69 3f
       0.77221984 0.9112037 0.4764838 0.91340566
0000e0 fb fd a1 3e a3 94 15 3f ba 2c ab 3e 82 09 c3 3e
       0.31639084 0.58429927 0.3343256 0.3809319
0000f0 6b 38 8d 3f 95 a4 07 3f d3 1c 44 3f e1 5b 04 3f
       1.1032842 0.5298551 0.7660648 0.51702696
000100 d7 96 63 3f 04 3e 2a 3e b2 e5 1f 3f 93 c5 81 3f
       0.8890204 0.1662522 0.6245986 1.013842
000110 18 23 06 3f 6f 9f 2a 3f 2a 81 ca 3e f1 5a 35 3f
       0.523973 0.66649526 0.3955167 0.7084189
000120 0b 9b 08 3f 71 4f a1 3e d3 7d a9 3f f1 51 43 3f
       0.53361577 0.3150592 1.3241524 0.7629691
000130 37 b3 58 3f db 0a 2f 3f 6d 56 58 3f d7 ae cb 3f
       0.8464846 0.6837594 0.84506875 1.5912732
000140 a9 18 60 3f 14 89 a8 3e 12 25 a8 3e 95 6d 22 3f
       0.8753763 0.32917082 0.32840782 0.6344846
000150 e1 55 59 3f fe cd 43 3f 84 1d 3b 3e b6 b1 2b 3f
       0.84896666 0.76486194 0.18272978 0.6706804
000160 a3 a7 9a 3f 78 23 36 3f 47 22 75 3f 02 1d 1a 3f
       1.2082409 0.7114787 0.9575543 0.6020051
000170 0a 9a 66 bc 41 73 07 3f 18 38 c2 3f 7b 2a 91 3e
       -0.014074812 0.5291024 1.5173368 0.28352723
000180 90 85 48 3f 7a aa 82 3e 9c 03 05 3f 15 66 7a 3e
       0.783288 0.25520688 0.5195863 0.24453004
000190 f7 a0 85 3e 40 c5 26 3e 07 81 46 3f 6d 3a b0 3e
       0.2609937 0.16286182 0.7754063 0.34419575
0001a0 f9 46 af 3e c9 46 f4 3e 17 86 8d 3f fe 7d c6 3e
       0.34233835 0.47710255 1.1056546 0.38768
0001b0 32 60 28 3f f8 6c 08 3f d8 82 3d 3f c4 39 28 3f
       0.6577178 0.53291273 0.74027777 0.65713143
0001c0 91 24 68 3f 0a 9f 14 3f c7 5e 06 3f ab 44 e5 3d
       0.90680796 0.58055174 0.5248837 0.11194738
0001d0 7a 86 8f 3f 40 a2 f4 3e 8e 7c cf 3e 48 90 6b 3f
       1.1212914 0.47780037 0.40524715 0.9201703
0001e0 2c ee af 3e 13 26 25 3f 53 a0 73 3f 96 a2 00 3f
       0.34361398 0.6451122 0.9516651 0.50248086
0001f0 fe d6 85 3f 57 04 2d 3f 50 f7 30 3f ce d1 af 3e
       1.0456235 0.6758475 0.6912737 0.34339756

feature_extraction_layer.2.bias f4 [128]
000000 fe 20 73 bf 3b de c9 bf 66 96 95 bf ac ca 87 bf
       -0.9497222 -1.5770944 -1.1686523 -1.0608726
000010 29 cd 43 bf 07 b9 f5 bf 14 d6 a7 bf 88 26 09 c0
       -0.76484925 -1.9197091 -1.3112206 -2.1429768
000020 1f 2d 03 c0 77 92 24 c0 ec e1 83 bf f7 ee 9f bf
       -2.049629 -2.5714395 -1.0303321 -1.2494801
000030 62 85 5c bf d5 34 fc bf 4f f7 a0 bf 19 a1 44 bf
       -0.86141026 -1.9703623 -1.2575473 -0.76808316
000040 e3 57 bc bf fa a5 fb bf 21 15 26 bf 62 57 ab bf
       -1.4714321 -1.9660027 -0.6487599 -1.3386042
000050 16 ac 7a bf 45 ae 0c c0 dd b7 78 bf bb be 84 bf
       -0.9791883 -2.1981366 -0.97155553 -1.0370706
000060 8f 42 0c c0 db db c7 bf 27 67 db bf 3a ec ae bf
       -2.1915624 -1.561397 -1.7140855 -1.3665841
000070 30 92 c8 bf 4a 89 07 c0 af 47 d9 bf b1 a1 5d bf
       -1.5669613 -2.1177545 -1.6975001 -0.86574847
000080 2f 32 bd be d7 64 97 bf 1f 01 a1 bf 73 be f9 bf
       -0.3695235 -1.1827649 -1.2578467 -1.9511245
000090 68 85 df bf 97 e4 ea bf aa 3f 34 bf 10 dd 87 bf
       -1.7462587 -1.835101 -0.70409644 -1.0614338
0000a0 f0 1e f4 bf 92 a5 7a bf 04 d4 a9 bf e1 f1 a6 bf
       -1.9071941 -0.9790889 -1.3267827 -1.3042566
0000b0 69 bf 3c bf 33 51 97 bf 2d a7 b6 bf 36 cc 0b c0
       -0.7372957 -1.1821655 -1.4269768 -2.184339
0000c0 e6 3a 64 bf f5 a6 48 bf 5a aa c1 bf be f7 24 c0
       -0.8915237 -0.78379756 -1.5130112 -2.577621
0000d0 db 7a 11 bf bc bb c9 bf 6e 5d 85 bf 2e 96 31 bf
       -0.5682809 -1.5760417 -1.0419137 -0.6936978
0000e0 fb 34 77 bf 60 0e 8a bf 84 8f 7e bf d7 b4 8f bf
       -0.96565217 -1.0785637 -0.9943774 -1.1227063
0000f0 90 b2 f2 bf 94 5f 9f bf a5 5b fe bf 07 91 83 bf
       -1.8960743 -1.2451043 -1.9871718 -1.0278634
000100 37 83 c8 bf 2d d7 17 bf cd c8 c6 bf f2 b6 da bf
       -1.5665044 -0.5931271 -1.553003 -1.708708
000110 de 09 8b bf 46 6e 0d c0 8d 7b 51 bf fe 29 91 bf
       -1.0862386 -2.2098556 -0.8182915 -1.134094
000120 da 1b ac bf b0 40 77 bf 1f 29 74 bf d4 eb ed bf
       -1.3446 -0.9658308 -0.95375246 -1.8587594
000130 c1 a9 a9 bf 6f 34 7e bf 69 39 e8 bf 00 92 49 bf
       -1.325493 -0.9929876 -1.814252 -0.78738403
000140 04 2a e9 bf d7 68 8c bf 7b 31 90 bf fd 17 c6 bf
       -1.8215947 -1.0969495 -1.12651 -1.5476071
000150 68 10 05 c0 56 a5 a6 bf fa ce 29 bf de 00 d2 bf
       -2.0791264 -1.3019207 -0.66331446 -1.6406515
000160 59 52 77 bf ab 8b e2 bf 8c 1b 0b c0 ee 6c 5d bf
       -0.9661003 -1.7698873 -2.1735563 -0.8649434
000170 82 8f 61 bd dd 9c 43 bf 33 5b a7 bf 67 e7 5f bf
       -0.0550685 -0.7641123 -1.3074707 -0.87462467
000180 04 a7 b2 bf 7d b7 56 bf 6e c7 a7 bf b4 a9 38 bf
       -1.3957219 -0.8387373 -1.3107736 -0.72133946
000190 1c 35 5e bf 9d f5 49 bf 2b eb cc bf 8a d2 82 bf
       -0.8679979 -0.788904 -1.6009268 -1.0220501
0001a0 a0 d8 70 bf 93 73 73 bf 8b b1 2f c0 b1 43 68 bf
       -0.94080544 -0.9509823 -2.7452114 -0.9072829
0001b0 11 67 c3 bf 8e 80 a5 bf 7d d4 cc bf 1a ec 9f bf
       -1.5265828 -1.2929857 -1.6002346 -1.2493927
0001c0 f0 fa 12 c0 43 71 99 bf fe 84 2e bf 76 ea e5 be
       -2.296566 -1.198769 -0.6817168 -0.44905442
0001d0 99 48 d3 bf cf 43 c0 bf b2 86 9a bf 53 e8 bf bf
       -1.650653 -1.5020694 -1.2072356 -1.4992775
0001e0 ec 47 6e bf 7e 4d a4 bf 45 2e 94 bf f6 f1 31 bf
       -0.93078494 -1.2836149 -1.157662 -0.6950983
0001f0 61 27 16 c0 02 1c 6a bf 46 b3 6a bf 8f ab 9f bf
       -2.3461535 -0.91448987 -0.916798 -1.247423

feature_extraction_layer.2.running_mean f4 [128]
000000 13 49 b0 3e 98 92 8e 3f 7d 38 30 bf 30 41 4a 3e
       0.3443075 1.1138487 -0.68836194 0.1975143
000010 f8 de 7c 3d 10 6b dd ba cc 64 61 bd 0a d3 1d 3b
       0.061736077 -0.0016892869 -0.055027768 0.0024082088
000020 0b b4 14 bf 93 a9 9b be f1 6c ec 3e 19 32 ce 3e
       -0.58087224 -0.30402812 0.46176866 0.40272596
000030 cf 3a 29 3e d5 71 32 3f 8f 68 90 3e 67 12 84 bd
       0.1652634 0.69704944 0.28204772 -0.064488225
000040 7b 3e ab 3e e4 8c 24 bc 37 2f d4 3f fc 08 37 3f
       0.33446106 -0.010043357 1.6576909 0.71498084
000050 f4 d5 36 3e d1 64 c9 bd a6 be 1c 3f ae 2e 94 3f
       0.17855054 -0.09833682 0.61228406 1.1576746
000060 8d ca 35 c0 60 0a b5 3e d7 0a de 3e f1 07 8b 3e
       -2.8404877 0.35359478 0.43367645 0.27154496
000070 a5 03 15 40 92 0a bc bf eb 4a 8b bf c8 f6 ba 3e
       2.3283474 -1.4690726 -1.0882238 0.36516404
000080 db 4b 80 be 00 ab 15 3e 88 bd 4b bf 05 2d 96 3f
       -0.25057873 0.14616013 -0.79586077 1.1732489
000090 e5 d0 a6 3e 9c 08 20 c0 48 f5 8d bf f6 cc 02 3e
       0.3258125 -2.5005255 -1.1090479 0.12773499
0000a0 cc 79 9f bf f2 3f a7 3e dd f6 ba 3c 56 9a a1 bf
       -1.2459044 0.32665974 0.022822792 -1.2625225
0000b0 61 9a 57 3f cb 38 8e 3f e8 78 24 bf ea 89 a7 be
       0.8421994 1.1111082 -0.6424699 -0.32722408
0000c0 d5 31 85 be 64 fc aa be 13 db 13 3f 5b 6c d7 bf
       -0.2601458 -0.33395684 0.57756156 -1.6829942
0000d0 98 dd ff bd c3 15 8c 3e 9f a4 ce bc ad 3b 0e 3e
       -0.124934375 0.27360353 -0.025224982 0.13889952
0000e0 d1 78 11 3d ca 30 46 be 05 09 0f 3f 1b b0 11 3f
       0.03551561 -0.19354549 0.5587314 0.5690934
0000f0 f6 6e 83 bf 0f 09 52 3d 8c 4d 01 bf a4 9a 62 3e
       -1.0268238 0.05127817 -0.5050895 0.22129303
000100 0a 64 11 40 5d 55 8d 3e 9a 4f b6 3e f5 9f 9f bf
       2.271731 0.2760419 0.35607606 -1.247069
000110 0d b6 69 3f d0 d9 b8 3e 15 fc 30 bf 47 01 c8 be
       0.9129341 0.36103678 -0.69134647 -0.39063475
000120 c1 f3 3c 3e 96 ac ea 3d b5 b8 20 3f a9 27 07 3f
       0.1845236 0.114586994 0.6278184 0.5279489
000130 2b ef d5 bf 73 09 ae be bb 69 0b bf 93 12 9a bd
       -1.6713613 -0.33991584 -0.54458207 -0.07523074
000140 d7 03 68 be 25 3e 66 bc c1 b1 87 be 76 89 2a bf
       -0.22657715 -0.014052902 -0.26502803 -0.66616
000150 c2 de 82 3f b4 bb c9 be 9a 55 a5 be 1e 83 bd bf
       1.022423 -0.3940102 -0.3229187 -1.4805639
000160 f9 ab 28 bf da 25 37 bf 91 9c 85 bf 26 fb 0e bf
       -0.6588741 -0.7154213 -1.0438405 -0.5585197
000170 37 4b 23 be 63 f8 be bd 37 16 b9 be 68 d5 29 be
       -0.15946661 -0.0932472 -0.3614976 -0.16585314
000180 0d f1 03 be c5 4a 15 bf 2e 1f d5 be 4e d5 9c be
       -0.12884922 -0.58317214 -0.4162535 -0.3063149
000190 07 63 52 bd de bc 1d 3e 82 71 8d 3e ec ac 00 be
       -0.05136397 0.15404078 0.27625662 -0.12565964
0001a0 87 56 0e bd 9f 7c 43 be 63 41 6d bc da 65 c0 bc
       -0.034750488 -0.19090508 -0.014480921 -0.023486067
0001b0 4f 1e b2 3f 58 94 c6 be 2d 69 28 bf c5 96 90 be
       1.39155 -0.38785052 -0.65785486 -0.28240028
0001c0 90 70 ea be 76 5f fb 3e e1 8d 27 bf 03 a0 e8 be
       -0.45789003 0.49096268 -0.65450865 -0.4543458
0001d0 ee d6 5a 3f a2 fc a7 bd ab b9 a2 3e 9b 90 23 be
       0.85484207 -0.08202483 0.31782278 -0.15973131
0001e0 d1 c1 2a 3f 94 5d 49 3e fa 12 a0 bd ea 2e 27 3f
       0.6670199 0.19664603 -0.078161195 0.6530596
0001f0 9c 50 19 c0 e0 c4 0a bf 83 3e c1 3d ff 00 4a 3e
       -2.395545 -0.5420666 0.09435751 0.19726942

feature_extraction_layer.2.running_var f4 [128]
000000 0c b8 f5 40 05 53 97 40 43 70 24 41 8e e7 43 40
       7.6787167 4.728884 10.277408 3.061008
000010 09 9b 67 40 0a 39 1e 41 cb 30 ef 40 4a 71 f8 40
       3.6188376 9.888926 7.474706 7.763829
000020 77 a4 1b 41 50 76 31 41 f4 61 88 40 d0 e2 8d 40
       9.727653 11.091385 4.261957 4.433937
000030 e6 78 50 40 6f ad 2b 40 cc 60 3f 3f a3 24 82 40
       3.257379 2.6824605 0.74757075 4.0669723
000040 ef 0a 88 40 d4 2f 9e 40 a1 b8 d4 40 c9 aa a3 40
       4.2513347 4.9433384 6.6475377 5.114598
000050 15 0b 00 40 5f 9e 0a 41 29 22 83 40 a0 5c ea 40
       2.0006764 8.663665 4.09792 7.323807
000060 1b cc 46 41 d3 56 04 41 66 18 01 41 c8 88 9d 40
       12.42483 8.271197 8.068457 4.922947
000070 64 52 28 41 4b ce 1b 41 10 fe 21 41 c8 34 32 40
       10.520115 9.7378645 10.124527 2.7844715
000080 1f f8 58 40 a1 cb 1e 40 de 1b ec 40 7f 00 8f 40
       3.390144 2.4811785 7.3784018 4.4688106
000090 4a fd f1 40 f3 2a 3c 41 38 a4 16 41 85 3c a3 40
       7.562169 11.760486 9.415092 5.1011376
0000a0 65 41 26 41 77 b1 a0 40 e8 83 ca 40 ea 39 3b 41
       10.390965 5.021663 6.328602 11.701639
0000b0 4a 5d df 40 85 a6 12 41 cb 1a 00 41 42 fc 41 41
       6.980138 9.165654 8.006541 12.124086
0000c0 2f 73 56 40 69 d6 57 40 b9 b4 aa 40 1d bf 2d 41
       3.3507802 3.3724616 5.334561 10.8591585
0000d0 3f 93 17 41 ba 09 44 41 1b 9a cc 40 c4 3c 16 41
       9.473449 12.252375 6.3938117 9.389835
0000e0 74 67 8d 40 64 e4 8b 40 54 0e 01 40 c2 c2 59 40
       4.4188786 4.3716297 2.0164995 3.402512
0000f0 66 a6 18 41 1f 0b cf 40 70 6b 1f 41 ad 54 c7 40
       9.540625 6.4701076 9.96373 6.2290864
000100 2e a0 fc 40 b9 a7 23 40 c7 ae 25 40 96 ee 31 41
       7.894553 2.557112 2.5887926 11.1207485
000110 20 64 83 40 9d 57 54 40 ca f3 ff 40 4e d1 c8 40
       4.1059723 3.3178475 7.9985094 6.27555
000120 3d d4 c2 3f 08 6e 4f 40 c9 cd 3c 41 25 ea 04 41
       1.522102 3.2410908 11.8002405 8.307164
000130 4b 43 30 41 19 b0 cb 40 12 6d 06 41 8c 7c 47 41
       11.016429 6.3652463 8.4016285 12.467907
000140 fc ad bb 40 4c 23 4e 40 f1 84 ee 40 0b fa c0 40
       5.8649883 3.2209044 7.453728 6.030523
000150 0f 70 15 41 fe 65 22 41 05 ba d8 40 18 d0 37 41
       9.339858 10.1499 6.7727075 11.488304
000160 e2 b9 23 41 8c 42 08 41 5e 57 2f 41 0d cc bd 40
       10.232882 8.516247 10.95883 5.9311585
000170 a2 5c 40 3f 26 6e ce 40 35 2c 7f 41 61 b1 78 3f
       0.75141346 6.450946 15.948293 0.9714566
000180 f2 0a f0 40 9d ae b2 40 7c b6 e9 40 dc 80 5c 3f
       7.501336 5.583815 7.303526 0.86134124
000190 a7 1a 9b 40 a6 c3 a0 40 75 66 e8 40 5d de 7c 40
       4.8470035 5.023883 7.262507 3.951072
0001a0 fb a6 82 40 69 d2 79 40 00 95 c7 40 85 ef 92 40
       4.0828834 3.9034674 6.2369385 4.591738
0001b0 f9 74 c0 40 f6 ae d4 40 bb 9d 10 41 4c 21 ef 40
       6.014279 6.6463575 9.038508 7.4728146
0001c0 06 1a 18 41 c9 9b a5 40 8c e6 ac 40 30 bc 90 3f
       9.506353 5.1752667 5.403143 1.130743
0001d0 bd 1c 08 41 d4 32 0f 41 b7 f0 17 40 95 62 ca 40
       8.507016 8.949909 2.374067 6.324534
0001e0 e3 cc 7d 40 dc 95 8f 40 3d 28 17 41 a4 4a 50 40
       3.9656303 4.4870434 9.447324 3.2545557
0001f0 1a da 50 41 12 4f ed 40 46 c1 cf 40 b4 65 bb 40
       13.053247 7.415902 6.492343 5.856165

conv_layers.0.1.weight f4 [128, 128, 3]
000000 f3 6d f7 3c 59 1f 43 3e af cb 95 bd 4b 32 69 bc
       0.030203795 0.19054927 -0.0731424 -0.014233182
000010 46 38 88 bd 33 b9 88 be f8 4b 36 3e b8 41 60 3e
       -0.06651358 -0.26703796 0.17802417 0.2190007
000020 96 ae a6 3d 90 c8 57 bd c8 10 58 3d 44 9b 1a bb
       0.081387684 -0.052681506 0.05275038 -0.002359108
000030 cb a9 38 bd 56 61 5c ba 97 55 21 be aa 19 f8 3d
       -0.045083802 -0.0008406838 -0.15755306 0.1211427
000040 ee 1d 5d bd c0 c9 6a bb d7 2d a2 be 86 68 b3 be
       -0.05398362 -0.0035825819 -0.31675598 -0.35040683
000050 84 38 fb bd df 85 fb 3d 51 10 06 be c4 a9 8d be
       -0.12266639 0.12281393 -0.13092162 -0.27668583
000060 59 e6 a9 3d 74 03 a6 bd e1 eb 8a be 29 c7 5f bd
       0.082958885 -0.081061274 -0.27133086 -0.054633293
000070 7d 2c 48 3e 32 54 92 be 7a ff b4 bd 4c 16 49 3d
       0.19548221 -0.2857986 -0.08837791 0.04909353
000080 2d 4c d8 3d cd 06 a5 bd a1 1a df 3d c6 e9 a8 be
       0.105614044 -0.08057938 0.10893751 -0.32990855
000090 6b 0e 6c bc 34 bd 23 be 34 81 6f bd 79 0b fd bb
       -0.014407734 -0.15990144 -0.058472827 -0.007722315
0000a0 f7 bb 16 bc 8a 27 e9 bd 07 37 9e 3d 16 e8 72 bc
       -0.009200088 -0.113844946 0.077253394 -0.014825841
0000b0 92 65 12 3e 1e d7 e6 3d 26 63 81 be ed ed 9e bd
       0.14296558 0.11271499 -0.25270957 -0.077602245
0000c0 b5 09 3c bd 58 f9 a9 bd 04 c0 ca bb 05 52 29 be
       -0.045907695 -0.08299512 -0.006187441 -0.16535194
0000d0 17 8e 6d bd 37 47 3a bc fc ba 66 ba 7c d3 b1 bb
       -0.057996836 -0.011369518 -0.00088016666 -0.005426822
0000e0 45 8e 3b be f7 ae 82 be 33 72 a6 be fd a9 96 3b
       -0.1831599 -0.25524113 -0.32509002 0.004597901
0000f0 c0 0f 96 3d 0a ce 0e be bd fd 06 be 56 a3 ed 3b
       0.07327223 -0.13945785 -0.13182731 0.007252137
000100 78 64 80 bd d1 bf 90 bd d9 36 aa 3c 81 96 45 be
       -0.06269163 -0.07067836 0.020778107 -0.19295694
000110 93 86 f6 3d 8b a7 15 be 0c eb 04 3e 9b ec 0f bd
       0.12037387 -0.14614694 0.12980288 -0.035137754
000120 60 73 67 bd 1b a5 57 be 7e 75 8f 3d 3e 43 58 be
       -0.056506515 -0.21059076 0.07004832 -0.21119401
000130 4d b1 99 be 7a 61 23 bf 37 48 91 3d 03 c5 78 be
       -0.30018082 -0.6382061 0.07093852 -0.24293904
000140 0d 3a 2f be f9 0f 82 be 38 88 aa 3d 51 e9 4b 3e
       -0.17111988 -0.2540281 0.08326763 0.19913222
000150 a4 ac 9a be d3 1f 39 3d e8 0e 8a bf 33 e8 b4 3d
       -0.3020984 0.045196366 -1.0785799 0.08833351
000160 19 af dc bb 5c b9 fb bc 57 ed f3 bd 27 ee 76 bd
       -0.0067347405 -0.030728035 -0.11910503 -0.060285714
000170 ea f1 8a 3d aa 28 fb be 3e 38 a0 3d dd 64 a9 be
       0.06784423 -0.49054462 0.07823227 -0.33084765
000180 8f 95 49 bc 06 13 86 bd d6 2e 85 3c 8f 3a 77 3d
       -0.012303724 -0.06546597 0.016257685 0.06035858
000190 77 93 0f be 83 64 9c bd c8 9d f8 bd 7d d3 4c 3e
       -0.14021097 -0.076363586 -0.121394694 0.20002551
0001a0 53 d8 d9 bd 9c 93 78 be f5 aa 91 bd 5b 7e d2 3b
       -0.10636964 -0.24275059 -0.071126856 0.006423754
0001b0 7b 86 45 3d b4 d8 09 3c c6 a6 55 bd 75 39 09 bd
       0.048223954 0.008413482 -0.052161 -0.03350206
0001c0 15 0b fe bd 0d 3b 13 be 08 f5 4b bd d4 63 57 bb
       -0.124044575 -0.14377995 -0.049794227 -0.0032865899
0001d0 2e 10 07 be 3c fc 59 3e a4 16 25 bc 6b d1 3b be
       -0.13189766 0.21287626 -0.010076199 -0.18341605
0001e0 40 26 5c 3d 26 ec 54 bc e9 c5 ef bd 8a 6c 82 bd
       0.053747416 -0.012995755 -0.1170767 -0.063683584
0001f0 db fe 9b be 94 a8 3b 3d 0b 11 f1 bd 9f b6 2c bc
       -0.30467877 0.045815066 -0.11770829 -0.010541587
000200 be 73 87 3e d8 9a 3b bd 3d 9a ac bb 9a 11 19 be
       0.26455492 -0.045801967 -0.00526741 -0.1494812
000210 0a 64 aa bc d1 33 2a be 5c 6b 28 be 0a 2e 1d be
       -0.020799655 -0.16621329 -0.16447204 -0.15349594
000220 83 fb 18 bd f6 5e b1 be 3a 45 b6 be ea 2a ab be
       -0.037349235 -0.34642762 -0.3559969 -0.33431178
000230 02 97 76 bd 01 19 53 bd 85 3e c3 bc c2 7a 7a be
       -0.060202606 -0.051537517 -0.023833523 -0.24460891
000240 f1 3b ad 3c bc 0c 9d bd 1c 4f b0 be e0 16 e6 3d
       0.021146746 -0.076684445 -0.34435356 0.11234832
000250 60 e1 d3 ba ab 0f 25 be ee 6b 8c bc c7 47 c5 3d
       -0.001616519 -0.16119258 -0.017141309 0.09632831
000260 89 c2 19 be 8f b4 b4 bd 76 d0 e0 be e6 9c 8f 3d
       -0.15015616 -0.08823501 -0.43909043 0.07012348
000270 4f ae 4a 3e 3c 79 22 bd a5 01 2a be 9f 1f 42 bd
       0.19793056 -0.0396664 -0.1660219 -0.047393437
000280 b2 e2 55 be 95 7e 69 3e 61 b5 02 3e 05 1a ad bd
       -0.20887259 0.22802193 0.12764503 -0.084522285
000290 34 ca 22 3e d0 8f f2 3c 9e b2 c4 3d b6 79 b2 3d
       0.15897447 0.02960959 0.09604381 0.08714621
0002a0 7a 26 4a bd 70 ae 7e 3d 46 0c 2e bc 7a 71 b7 3d
       -0.0493531 0.062178075 -0.010623043 0.08957191
0002b0 48 0c a3 be a6 b5 0f be 28 82 7b 3e 02 5e 33 3d
       -0.31845307 -0.14034137 0.2456137 0.043790825
0002c0 b5 8a af bc e2 19 ca bd df 86 76 bd 63 d3 9b bc
       -0.021428445 -0.09868218 -0.060187217 -0.019021695
0002d0 a9 20 e7 3e 87 30 8a be 14 80 54 be 99 ce 34 be
       0.45142105 -0.26990148 -0.20751983 -0.17656936
0002e0 0b 1b 80 be f9 ad 71 be fb e6 60 be 2d e2 82 bd
       -0.25020632 -0.23601522 -0.21963112 -0.06390796
0002f0 8f 5d cf 3d 14 6a f6 bb fb c6 cf bc 79 dc 18 3e
       0.10125267 -0.0075199697 -0.025363436 0.14927854
000300 9f af 67 be 75 58 0d be c8 b2 66 3d 52 c9 8f 3d
       -0.22625588 -0.13803275 0.056322843 0.07020821
000310 ae 25 4c 3d 9d 28 c6 bd 86 60 34 3e 2a 39 ab 3c
       0.04984062 -0.09675715 0.17614946 0.020901281
000320 ee bd 70 3c 41 9a f4 3d 2f 75 d3 bd fb 1c 8d 3d
       0.01469372 0.11943484 -0.10325085 0.06890293
000330 ac a8 9d 3e 47 b7 97 bb fc 63 87 bd be 01 3f be
       0.3079275 -0.0046300027 -0.066108674 -0.18653008
000340 38 ec 6b bd da 34 10 3e c6 ab 39 3f 43 07 b0 be
       -0.057598323 0.14082661 0.7252773 -0.3438054
000350 5e 61 2a bd b2 8c 41 be 31 30 4a 3d 45 a4 96 3c
       -0.041596763 -0.18901327 0.049362365 0.018388877
000360 d1 c2 a3 bc db 5d 6b bd a0 f9 8d bd a4 df 44 be
       -0.019990357 -0.057462554 -0.06932378 -0.19225937
000370 c4 c1 06 be 70 df a8 3e ff 16 26 3e 0c 61 8d bc
       -0.13159853 0.3298297 0.1621971 -0.01725819
000380 e8 6c 2b bd 24 d6 90 bd ef 18 73 be e8 e1 f1 bd
       -0.041851908 -0.07072094 -0.2373998 -0.11810666
000390 f6 4f 86 be 31 39 34 be da e7 6c be 56 31 0a be
       -0.2623288 -0.17599942 -0.2313532 -0.13495383
0003a0 4f 24 8b bc 2a 9d e6 bd c0 6d 1b be 3f d4 53 3b
       -0.016985087 -0.112604454 -0.15178585 0.0032322553
0003b0 a5 2a 78 3b ae 84 74 bd 27 7f 8e bd ee e2 35 be
       0.0037867215 -0.059696846 -0.06957846 -0.17762348
0003c0 b4 45 b0 bc 6c 0e 81 be 5d ef dd 3c ec 68 47 be
       -0.021517612 -0.25206316 0.027091676 -0.19473618
0003d0 a6 a0 b1 3d 8b 53 52 bd 6e 8c 45 bd b1 50 f0 3c
       0.086732194 -0.051349204 -0.048229627 0.029335352
0003e0 95 05 db 3c 52 c9 29 be 08 b9 86 3d 84 90 6c bd
       0.02673606 -0.16580704 0.06578261 -0.05775501
0003f0 de c1 7b be 7a f8 51 be 96 aa 99 be a4 d4 c3 bd
       -0.24585673 -0.20504943 -0.3001296 -0.09562042

conv_layers.0.1.bias f4 [128]
000000 c5 5c 64 bc 16 ba fa bc a9 ae 09 3b 56 7a 51 bd
       -0.013938134 -0.03060631 0.0021008647 -0.05114206
000010 f0 8d 2a bc ca 06 cc bc 49 0c b0 3b 3e 0e 58 3d
       -0.010409817 -0.024905581 0.0053725583 0.052747957
000020 32 db 12 bd 8f a7 c3 bd 5d a6 21 3b 0d 42 7a 3d
       -0.035853572 -0.09553444 0.002466581 0.061098147
000030 f9 33 1f bd fa 78 88 3d 1c b7 e3 3c 0d f1 4c bd
       -0.038867924 0.066636994 0.027797274 -0.05003457
000040 9d 66 e1 bc ec 75 af 3c ab 42 c9 3c 55 72 0b bd
       -0.02751475 0.021418534 0.024567923 -0.034044582
000050 6a 9d 3a bd ee 56 16 3d ab 25 05 3c 9a e2 75 bb
       -0.045560278 0.036703996 0.0081266565 -0.0037519098
000060 ad 45 6f 3d 13 55 f4 3c 52 29 98 bb 62 4e 73 3b
       0.058416057 0.029825723 -0.0046435976 0.0037125577
000070 37 65 eb 3a c9 5c 80 3c 0d 53 15 bc db ff 5a bd
       0.0017959242 0.015669243 -0.009114039 -0.05346666
000080 37 cf a2 bd a0 08 62 3c 74 83 0c 3d 07 0c 04 bd
       -0.07949679 0.013796002 0.03430505 -0.032238033
000090 50 53 3b 3c 57 3d 89 bc d7 84 25 bd 65 3c c5 bc
       0.0114334375 -0.016752882 -0.04040989 -0.02407665
0000a0 22 81 39 3d 0e aa 15 bd fb ad 2c bd 6b fa b0 3c
       0.045289166 -0.03653913 -0.04215811 0.021603784
0000b0 cf 2d 40 bc e3 2a 63 3d e0 a0 64 3d 07 ef 68 3d
       -0.011729672 0.05546082 0.055817485 0.05686858
0000c0 9b be 57 bc 1a 47 ee 3c 0b 15 1a bd 3f 90 a0 bc
       -0.0131680025 0.029086638 -0.037617724 -0.019600032
0000d0 42 09 cd bd f2 dd 7d bd 57 82 d7 3c 22 d0 e5 bc
       -0.100115314 -0.06197924 0.026307268 -0.028053347
0000e0 50 a2 80 bd 84 62 7c bd be de c3 3d c7 60 9a 3c
       -0.06280959 -0.06161739 0.09563969 0.018844975
0000f0 1e 6a 04 bc 3e 0f 58 bc 9d 4c d0 bb 24 16 38 bc
       -0.008081941 -0.013187228 -0.0063567893 -0.0112357475
000100 83 a1 a1 3d 14 9c 62 bc 4d c0 1f 3d 81 82 c4 bc
       0.07892134 -0.013831157 0.03900175 -0.02398801
000110 8e c0 15 3b 8b ad ca bc 84 28 a1 bd 58 f9 f1 3c
       0.0022850367 -0.024740955 -0.07869056 0.029537842
000120 3b 90 08 3c ac 48 65 3d 54 d8 91 3d bc 27 2b 3d
       0.0083351685 0.05597751 0.071213394 0.04178594
000130 4d 8e 52 3b 51 92 c5 bc d8 cd 25 bc 55 d0 13 3d
       0.0032128275 -0.02411762 -0.010119878 0.036087353
000140 54 6e 3b bc 11 2a d0 3b f3 4b 03 3d 5d d4 55 3b
       -0.0114398785 0.006352671 0.032054853 0.00326278
000150 f6 a9 85 bd 55 a8 77 3d de c2 19 bd 6d 0f 67 bd
       -0.06526558 0.06046327 -0.037539355 -0.056411196
000160 23 1c 43 3d b5 80 3b 3d 4b 67 ad 3d 7f 17 58 3d
       0.047634255 0.04577704 0.08466967 0.052756783
000170 25 e0 9d bc 87 e0 86 3d a7 38 08 3c 68 62 4e bd
       -0.01927192 0.06585794 0.008314288 -0.050386816
000180 5e e4 6a 3c 1a 49 d5 3c 12 1a 46 bd af 73 95 bc
       0.014336674 0.026035834 -0.048364706 -0.018243639
000190 5d 9a 7a 3d d4 73 19 3d 60 67 1e 3d 7e d2 fb bb
       0.06118237 0.037463978 0.038672805 -0.0076850047
0001a0 54 a0 80 3c 96 a6 e5 ba 89 a4 90 bd 6f c9 10 3d
       0.01570145 -0.001752096 -0.070626326 0.035348352
0001b0 25 db 6d 3d 6b 10 d4 3c ad 57 ea 3c 2a fe f4 bc
       0.05807032 0.025886735 0.02860626 -0.029906351
0001c0 bf 7c 77 bb 9d 04 c6 bc 83 47 4c bd 5c e5 56 bd
       -0.0037763563 -0.024172122 -0.049872886 -0.052464828
0001d0 49 50 16 bd 8b 1b 7b bd 40 93 b6 bc d1 02 43 3d
       -0.03669766 -0.061305564 -0.022287011 0.047610108
0001e0 24 95 bb bd f5 eb cf 3c 98 9c bb 3b fd b5 21 bd
       -0.09159306 0.025381068 0.0057254545 -0.0394802
0001f0 85 f5 1e bb e8 d8 4d bd 1b 74 4a bc 2e 2b 87 bc
       -0.0024255228 -0.050255686 -0.012356783 -0.016500082

conv_layers.0.2.weight f4 [128]
000000 96 a8 70 3e d6 fd 7c 3f b2 60 15 3e cf 86 9b 3e
       0.2350181 0.9882482 0.14587668 0.30376288
000010 8a b5 5f 3e 0f 16 f6 3e a4 9b ee 3d 4e ce ea 3e
       0.21846595 0.48063704 0.1165078 0.45860523
000020 a1 e4 80 3e 48 9e 0a 3f 53 f5 67 3f a9 33 19 3e
       0.2517443 0.5414777 0.9060871 0.14961113
000030 15 ca 62 3f 90 71 f4 3e dd dc 2a 3f d0 ba 37 3e
       0.885896 0.4774289 0.6674326 0.17942357
000040 96 83 08 3f 70 cc 46 3e 66 65 9b 3d dd 2f 69 3d
       0.53325784 0.19413924 0.075876996 0.05693041
000050 61 5a 81 3d e3 b9 d6 3e 51 c9 83 3f 88 b8 50 3f
       0.063160665 0.41938695 1.0295812 0.8153157
000060 be f5 39 3e 7b 0a a1 3e da a1 10 3f 3e c6 f2 3d
       0.1816015 0.31453308 0.56496966 0.11854218
000070 2a cc 3b 3e a4 f7 be 3e 2a a1 ce 3e 58 10 35 3f
       0.18339601 0.3729831 0.40357333 0.70728064
000080 9d 34 32 3f 52 ef 44 3f b1 15 85 3e da 18 9b 3d
       0.6961153 0.76927674 0.25993112 0.075730994
000090 12 1c ef 3d f5 1d e7 3d 14 f8 f7 3e ad 70 34 3e
       0.11675276 0.11285011 0.48431456 0.17621107
0000a0 b9 90 5f 3f 36 58 09 3d ae 74 e7 3e 75 33 d6 3e
       0.87330204 0.03353139 0.45206207 0.41836134
0000b0 39 fc 3a 3f ae fb 17 3e 80 41 6f 3f f5 2a 75 3f
       0.7304111 0.14842102 0.9345932 0.9576867
0000c0 4e 64 3d 3f 4d ae a2 3d 78 cd 74 3e f9 67 e2 3e
       0.7398118 0.079434015 0.23906505 0.4421995
0000d0 94 ca d2 3e 81 6b 05 3f 68 cf 4c 3f d1 45 0c 3f
       0.4117018 0.5211716 0.80003977 0.5479403
0000e0 82 8b 0f 3f b8 a7 46 3f 95 ad f1 3d f1 95 a9 3e
       0.5607225 0.7759967 0.11800686 0.3312221
0000f0 85 49 37 3f d4 80 65 3e 6d 16 b3 3d 73 86 ee 3e
       0.71596557 0.22412425 0.08744512 0.46586952
000100 c9 98 c6 3e da a6 2d 3f 27 16 1a 3e 9a d1 37 3f
       0.3878844 0.6783272 0.15047513 0.718042
000110 18 e7 30 3e 1a 83 48 3f 61 34 72 3f 27 89 e7 3e
       0.17275655 0.78325045 0.94611174 0.45221826
000120 e5 1a 9b 3e 3e b3 a5 3d ab c9 af 3e 30 a8 56 3f
       0.30293956 0.08090828 0.34333548 0.83850384
000130 3c 97 85 3e bd 95 10 3e b1 19 cf 3e df 12 72 3f
       0.26091945 0.1411962 0.40449288 0.94560045
000140 fb 5f 3d 3e 1b 90 10 3f 41 49 9f 3e 32 2d 27 3d
       0.18493645 0.5646989 0.31110576 0.040814586
000150 ee 8c 15 3f 9b c0 2d 3f a8 5a 72 3e 4d df ae 3e
       0.58418167 0.6787202 0.23667395 0.3415474
000160 e7 66 b9 3d 27 03 4f 3e 57 46 4f 3f 96 4d af 3e
       0.0905283 0.20216046 0.80966705 0.3423888
000170 4b fb 0d 3f 05 e3 3f 3f 00 4e 20 3f fe d6 2d 3d
       0.5546157 0.7495578 0.6261902 0.04244136
000180 15 3b 26 3e e1 f4 31 3e 04 1b a1 3e 9b 3c 40 3f
       0.16233476 0.1737857 0.31465924 0.75092477
000190 30 be 04 3f ec 04 78 3e f8 43 0d 3f f2 20 8f 3f
       0.51852703 0.24220628 0.5518184 1.1181929
0001a0 ac 80 45 3e 6d f2 24 3e 97 6f 81 3e d6 6e ae 3e
       0.19287366 0.16108103 0.2528045 0.34068936
0001b0 22 82 9a 3e cd 41 00 3f c4 ba 27 3f c7 f0 b1 3d
       0.30177408 0.50100404 0.65519357 0.08688503
0001c0 52 1c e5 3e fe b9 d2 3c ce a8 1a 3e ce 51 22 3e
       0.4474817 0.025723454 0.15103456 0.15851519
0001d0 82 05 83 3e 86 ad be 3e 38 74 cb 3d 89 eb 09 3d
       0.2559014 0.37241763 0.09934276 0.03367189
0001e0 13 8f b0 3e b9 00 8e 3e 2f c8 ef 3e 7f 5d dc 3e
       0.34484157 0.27734926 0.46832415 0.43040082
0001f0 51 7b b3 3e 8c 83 2a 3f 8b 69 b2 3e 2c 58 b9 3c
       0.3505502 0.66606975 0.34846148 0.022625051

conv_layers.0.2.bias f4 [128]
000000 68 48 08 bf 30 88 2e c0 63 08 80 bf f3 ec 0f bf
       -0.53235483 -2.7270622 -1.000256 -0.5622093
000010 cc 52 00 bf 11 20 87 bf 4a ac ac bf 6b c9 f7 bf
       -0.5012634 -1.0556661 -1.3490078 -1.9358343
000020 4e 9b 57 bf 4f 07 cb bf b8 9e 20 c0 68 30 a6 bf
       -0.8422135 -1.5861605 -2.5096874 -1.2983522
000030 4e 1c fc bf 36 bb d0 bf 09 2f f2 bf e7 d5 e3 bf
       -1.9696138 -1.6307132 -1.8920604 -1.7799653
000040 fa 7c 19 c0 c6 81 ac bf 77 9d 3f bf 7f 09 53 bf
       -2.398253 -1.3477104 -0.7484965 -0.82436365
000050 a9 44 6a be f2 18 ce bf 10 60 25 c0 43 72 cf bf
       -0.22877754 -1.6101363 -2.5839882 -1.6206745
000060 77 80 bf bf 88 34 2b bf c7 a8 3c c0 ea 22 27 bf
       -1.4961079 -0.6687703 -2.9478014 -0.6528765
000070 eb ef 7e bf 10 89 4a bf e0 3a 89 bf f9 a7 df bf
       -0.99584836 -0.7911539 -1.0721092 -1.7473136
000080 69 61 34 c0 75 0d df bf 55 25 53 bf 65 fe 23 bf
       -2.8184454 -1.7425982 -0.8247884 -0.6406005
000090 42 21 8c bf f9 9d 5f bf 22 23 b7 bf 24 98 35 bf
       -1.094765 -0.8735042 -1.4307597 -0.70935273
0000a0 21 b0 d4 bf 8c 18 8c bf 0c a1 9f bf e1 88 d4 bf
       -1.661625 -1.0944991 -1.2471023 -1.6604272
0000b0 b3 12 fe bf f6 dc 50 bf 19 e9 0e c0 7c 5c 3d c0
       -1.9849457 -0.8158716 -2.2329772 -2.9587698
0000c0 5e 44 d6 bf cc 14 80 bf 50 44 48 bf 08 8b c1 bf
       -1.6739614 -1.0006347 -0.78229237 -1.5120554
0000d0 01 ce b6 bf 40 3f dc bf bb b0 2b c0 95 9d c6 bf
       -1.4281617 -1.7206802 -2.6826618 -1.551684
0000e0 6a 8c c6 bf ea eb fb bf 92 2f 40 bf 55 fc 25 bf
       -1.5511601 -1.968137 -0.75072587 -0.64838153
0000f0 d5 68 ec bf 6b f6 41 bf 5a 1d 04 bf 6e 3d 63 bf
       -1.8469492 -0.7576663 -0.51607287 -0.8876561
000100 85 36 4c bf d0 77 d5 bf 35 e1 8f bf ba 84 ea bf
       -0.7977069 -1.6677189 -1.1240603 -1.8321755
000110 03 df aa be d2 36 09 c0 1d 6d 29 c0 c0 7a 16 c0
       -0.3337327 -2.143971 -2.6472847 -2.351242
000120 04 30 00 bf a5 39 c3 be a6 0f 04 bf da e3 29 c0
       -0.50073266 -0.38129917 -0.5158638 -2.654532
000130 5d b8 e8 bf 7e ba 93 bf ab b5 a2 bf f1 ab 48 c0
       -1.8181263 -1.1541288 -1.2711691 -3.1354945
000140 29 22 b2 be 38 cd f7 bf 14 ff 09 c0 b1 57 2d bf
       -0.34791687 -1.9359503 -2.1561937 -0.6771193
000150 a1 74 09 c0 df 95 06 c0 ef c3 9e bf ef 33 88 bf
       -2.1477435 -2.1028974 -1.2403544 -1.0640849
000160 ab 97 3f bf 87 9c 64 bf 77 28 1c c0 fb de 4a bf
       -0.748408 -0.8930134 -2.4399698 -0.7924649
000170 d0 ee ce bf d1 ae 00 c0 bd 87 36 c0 bd 14 14 bf
       -1.616663 -2.01067 -2.8520348 -0.57844144
000180 3b c2 12 bf c3 8f a8 be c7 bb a7 bf a5 62 04 c0
       -0.5732762 -0.3292218 -1.310418 -2.0685208
000190 cc 37 a1 bf d4 31 23 bf d3 89 fd bf e1 40 11 c0
       -1.2595153 -0.63747907 -1.9807686 -2.269585
0001a0 e7 ba 2e bf e8 a8 9c bf fb 93 d9 bf 73 47 03 c0
       -0.6825394 -1.2239046 -1.6998285 -2.051236
0001b0 df 33 56 bf 11 a0 dc bf fb 52 04 c0 67 4e 14 bf
       -0.836729 -1.7236348 -2.0675647 -0.5793213
0001c0 f8 20 b8 bf 66 3f 40 bf 2c b3 a3 bf 37 89 30 bf
       -1.4385061 -0.7509674 -1.2789054 -0.68959373
0001d0 ff 67 d2 bf c1 81 cd bf 0f 0b 37 bf eb 9d 7e be
       -1.6437987 -1.6055223 -0.7150125 -0.24864928
0001e0 b0 2b 94 bf 84 f0 df bf 31 37 a7 bf a9 d1 b8 bf
       -1.1575832 -1.7495275 -1.3063718 -1.4438983
0001f0 cc 18 e3 bf e9 d1 0b c0 72 38 d2 bf d3 69 46 be
       -1.7741942 -2.184687 -1.6423476 -0.19376306

conv_layers.0.2.running_mean f4 [128]
000000 fc 96 42 bf 3b f9 01 c0 5b 91 1b bf 91 ba 91 bf
       -0.76011634 -2.0308368 -0.6076867 -1.138506
000010 a3 de 8d bf 7d a7 b6 bf c7 8b a7 bf ba cc e3 bf
       -1.1083568 -1.4269863 -1.3089532 -1.7796853
000020 ce 7f 93 bf aa d0 23 c0 fe fe 57 c0 45 81 db bf
       -1.1523378 -2.5596108 -3.3749385 -1.7148825
000030 8d 79 1a c0 cc f8 03 c0 36 e1 b6 bf d2 47 64 bf
       -2.4136689 -2.0620604 -1.4287479 -0.8917209
000040 24 7e a0 bf c8 ba 04 be 0d 27 38 be fe 9c 8f bf
       -1.2538495 -0.12961876 -0.17983647 -1.1219785
000050 61 db a3 be 1f 96 bb bf d6 70 4e c0 19 2e 27 c0
       -0.3200331 -1.4655188 -3.225637 -2.6121886
000060 7f 29 b0 bf 4d 9a d2 bf 68 98 11 bf 1a eb 47 bf
       -1.3762664 -1.6453339 -0.5687318 -0.7809311
000070 cd 78 cf bf 25 8c ba bf b1 e0 f8 bf 1f 4d 23 c0
       -1.620874 -1.4574019 -1.944357 -2.551582
000080 b6 b7 71 bf 94 fe 96 bf db 73 af bf 86 b1 1c bf
       -0.94420946 -1.1796441 -1.3707231 -0.6120838
000090 27 7e 74 bf 1d da 78 bf c7 86 ff bf 96 7b ca bf
       -0.95504993 -0.97207814 -1.9963006 -1.5818965
0000a0 42 cc 12 c0 df 32 18 be 25 85 f3 bf f5 ab ab bf
       -2.293717 -0.14863156 -1.9025007 -1.3411852
0000b0 e6 07 3c c0 04 2f 4e bf 31 ed 47 c0 03 11 15 c0
       -2.937982 -0.8054049 -3.123852 -2.3291633
0000c0 48 f8 04 c0 39 49 31 bf b0 a2 21 bf dd ce a6 bf
       -2.077654 -0.69252354 -0.63138866 -1.303188
0000d0 cc 5c 01 c0 68 3a b5 bf 4d 19 dc bf c0 a8 17 c0
       -2.0212889 -1.4158449 -1.7195221 -2.3696747
0000e0 5e 5f 26 c0 7b 8c b2 bf 15 16 4d bf ab 0b 00 c0
       -2.5995708 -1.3949121 -0.8011182 -2.0007122
0000f0 e0 04 0e c0 c3 41 29 bf d6 53 8f be 00 61 cb bf
       -2.2190475 -0.6611597 -0.2799365 -1.5888977
000100 c4 53 ad bf b5 80 18 c0 54 e2 60 bf 81 13 dd bf
       -1.3541188 -2.3828557 -0.8784535 -1.7271577
000110 5e 63 8a bf 7d 00 2d c0 52 f8 0f c0 20 4f 41 bf
       -1.0811574 -2.7031548 -2.2495313 -0.7551136
000120 6b 7b 40 bf aa 57 3f bf ce e4 3e bf b5 3e d6 bf
       -0.7518832 -0.7474314 -0.7456788 -1.6737887
000130 86 fe 04 bc fa fd 35 bf 01 6f e0 bf 31 96 fd bf
       -0.008117324 -0.7109066 -1.7533876 -1.981146
000140 57 ee 2d bf 21 3e 14 c0 c6 2e 34 c0 f6 69 e6 be
       -0.679418 -2.316292 -2.8153548 -0.45002717
000150 30 a2 20 c0 af 9d 32 c0 55 19 1a bf 83 c5 08 c0
       -2.5098991 -2.7908742 -0.60194904 -2.1370552
000160 68 77 49 bf 36 f7 1a bf d0 74 2f c0 65 bb f2 bf
       -0.78697824 -0.60533464 -2.7415047 -1.8963438
000170 26 44 30 c0 92 55 f9 bf 05 29 39 bf 1e c4 35 bf
       -2.7541595 -1.9479239 -0.72328216 -0.71002376
000180 ab 2b 3d bf b7 8b 8f bf 7d d2 be bf 7e 9c 35 c0
       -0.7389476 -1.1214513 -1.4907986 -2.8376765
000190 44 55 d9 bf 85 19 97 bf 80 8d 95 bf 56 e9 24 c0
       -1.6979146 -1.1804663 -1.1683807 -2.5767417
0001a0 a2 47 8c bf d0 61 15 be e8 04 db 3e cd d0 b8 3e
       -1.0959361 -0.14588094 0.4277718 0.36096802
0001b0 9a 70 a7 bf 4f 92 0a c0 29 08 06 c0 79 73 55 bf
       -1.3081238 -2.16518 -2.094248 -0.8337932
0001c0 ed 9b c1 bf 86 0c f0 bc 52 3d c6 bf 22 ec 2d bf
       -1.512571 -0.029302847 -1.5487463 -0.67938435
0001d0 7d 12 05 c0 f8 ce 98 bf 59 0b a4 bf 1a e4 10 bf
       -2.0792534 -1.1938162 -1.2815963 -0.56598055
0001e0 c9 43 a9 bf 64 0f e2 bf 50 66 ed bf 6a 0e 10 c0
       -1.3223811 -1.7660947 -1.8546848 -2.2508798
0001f0 87 d5 06 bf 7e fb 4d c0 84 51 4d bf 58 27 9f be
       -0.52669567 -3.2184749 -0.8020251 -0.31084704

conv_layers.0.2.running_var f4 [128]
000000 a2 73 95 3f 29 b4 aa 40 68 40 7a 3f 6d c9 dd 3f
       1.1675913 5.334492 0.97754526 1.7327095
000010 7d 25 07 40 56 95 35 40 0d 35 df 3f 45 42 07 41
       2.111663 2.8372397 1.7438065 8.453679
000020 d1 95 df 3f 85 57 c2 40 31 b8 e5 40 98 11 b7 40
       1.7467595 6.0731835 7.1787343 5.7208977
000030 81 fd bd 40 ab 7f 91 40 67 8b 80 40 fb e7 47 40
       5.9371953 4.5468345 4.017017 3.123534
000040 52 b8 fa 40 27 f5 7a 3f 36 80 02 3e c7 9b 3c 40
       7.835 0.9803032 0.12744221 2.947008
000050 76 64 c3 3e f6 29 96 40 e9 70 1a 41 6b 73 05 41
       0.38162583 4.692622 9.652566 8.340678
000060 a3 ff 17 40 2f 88 c0 40 7c bd 12 40 0e 1f 9f 3f
       2.3749778 6.016624 2.2928152 1.2431352
000070 fd 7f 92 40 c1 0c ec 3f 3c 7d b4 40 dc 7f fc 40
       4.5781236 1.8441392 5.6402874 7.890608
000080 0e b1 a0 40 d4 59 70 40 fb 98 81 40 2e d7 3b 3f
       5.021613 3.7554827 4.0499244 0.73375213
000090 88 97 9a 40 1f 8c f5 3f 17 d5 e3 40 42 43 81 40
       4.8309975 1.9183387 7.119762 4.03946
0000a0 c0 56 f3 40 88 64 4b 3f 58 72 bb 40 c1 cf e3 40
       7.6043396 0.79450274 5.857708 7.1191106
0000b0 70 9c 28 41 6d d9 bb 3f ac 60 01 41 c9 5f 72 40
       10.538193 1.4675728 8.086102 3.7870963
0000c0 c3 42 01 41 09 59 56 3f ef 40 83 3f 98 10 49 40
       8.078799 0.83729607 1.0254191 3.1416378
0000d0 1f 4a a0 40 d8 39 0b 41 ce 9b d5 40 85 73 26 41
       5.009048 8.701622 6.675269 10.403203
0000e0 75 5b ca 40 a7 12 45 40 c5 f0 89 3f a4 26 91 40
       6.323664 3.0792634 1.0776602 4.535967
0000f0 9d 21 7c 40 1e 1c 83 3f 8d c0 cc 3e a1 d9 a8 40
       3.9395516 1.0242956 0.39990655 5.276566
000100 0c 50 a6 40 42 42 df 40 c5 6d 39 40 eb 43 fe 40
       5.1972713 6.976838 2.8973248 7.945791
000110 a6 46 d7 3f bc 9c a9 40 af bf 71 40 d7 de e7 3f
       1.6818435 5.3003826 3.7773244 1.811488
000120 0d f7 87 3f b2 f7 6b 3f b4 c4 b6 3f 35 2e 1a 41
       1.0622269 0.9217483 1.4278779 9.636281
000130 ad dd d4 3f 49 26 5e 3f 9b 5c 00 41 84 ed 15 41
       1.663015 0.8677717 8.022609 9.370487
000140 56 7d 56 3f 7a 25 f1 40 8c e8 9d 40 23 54 2f 3f
       0.83785 7.535825 4.934637 0.6848776
000150 40 1e 91 40 ff 0a f3 40 7d 86 2f 3f 40 83 97 40
       4.5349426 7.5950923 0.6856459 4.7347717
000160 7b 97 76 3f 64 31 8d 3f 8b a5 fd 40 2b ae c5 40
       0.9632489 1.1030698 7.926458 6.1775107
000170 b4 25 48 41 01 2b 5e 40 00 22 c7 3f 50 54 1a 3f
       12.509205 3.4713748 1.5557251 0.602849
000180 43 29 a0 3f c4 2c 04 40 85 02 ee 3f 9b 4b c9 40
       1.2512592 2.0652323 1.8594519 6.290479
000190 c5 08 64 40 15 4c 32 40 9c c4 2a 40 31 21 e2 40
       3.5630352 2.7858937 2.66825 7.0665517
0001a0 3c 7a c6 3f 7e 6e 3a 3f b2 83 9b 3f 0d 6d ae 3f
       1.5506053 0.7282485 1.2149565 1.362703
0001b0 23 ad 84 40 92 b2 d6 40 f6 74 18 41 cb 4a c8 3f
       4.146135 6.709298 9.528555 1.5647825
0001c0 7f 9a 84 40 92 58 f8 3e 78 1f 33 40 7d d4 c8 3f
       4.1438594 0.48505074 2.7987957 1.5689846
0001d0 62 3b f5 40 2b de 15 40 ae 14 6c 40 92 6b 29 3f
       7.663499 2.341685 3.6887622 0.66179764
0001e0 65 3b 4f 40 fa 62 a4 40 7e de c2 40 6b b7 83 40
       3.2380002 5.137082 6.0896597 4.11614
0001f0 01 1c b2 3f 09 3d ed 40 ea e1 df 3f 4c 0f 0b 3f
       1.3914796 7.4137006 1.7490819 0.54320216
