Reduced_model/Saved_models/models_trained/training_torch_simple_mask_copy_model_0c0d16f16n.pth (torch, 14005 bytes, 14 tensors)

feature_extraction_layer.1.weight f4 [16, 4, 25]
00000000: 757f 9bbf 7733 37bf e3f3 79bf 4743 d93e
00000010: a1df f6bd 07d4 683f a842 8dbf 79a3 a23e
00000020: 81ed b6bd 930f 973e 4ce2 0d3f a360 84bf
00000030: d1c8 223f ea87 823f e169 0b3f 2a44 cfbe
00000040: 3883 f3bf 3309 f13e 05b8 f53d 5ff7 243f
00000050: 150f f13e f6ca 0cc0 234f d83e d2b3 2fbf
00000060: 872d 323f 69a6 d03f 4dd8 c43f fb49 d43f
00000070: fe5c b9be 6e54 e13f bbcb 3ac0 d75c c23e
00000080: c72b 31bd fe94 3fbe 15a3 98bd 4ee7 743f
00000090: d98c b23f 4207 dabe 8879 18be f1d0 303e
000000a0: 1630 fd3e cb27 0340 dee4 da3e d54d e3be
000000b0: 8e23 e73d 0ef8 53bf c9b7 0940 0025 e6be
000000c0: 98ad 13bf bce3 dfbd b8c9 84be 0108 70bf
000000d0: 038b 33bf b36a c9bd a23d ca3e 9b7f 4d3f
000000e0: 9140 debe 52b9 d93e e91a 8b3f 3157 7d3e
000000f0: 680d 21bf aaa7 e7be 41af a9bd 4129 843e
00000100: 37dd 793e 3f99 a53e 520f 1abd bc43 cc3c
00000110: e0ca 88be 8a8e 46bf e654 8f3f 63ad 153e
00000120: 4321 f43d 11f9 9abd 9f96 963e 4b38 dfbd
00000130: c0f6 eebc 46d7 21bd 3d66 283f 83df c3bf
00000140: 0421 993f 7be7 4f3f ee80 7abe a603 87bf
00000150: 9bdf bbbe 50cd febe 68a0 8bbe 73e0 333f
00000160: 0498 1dbe 21ea 3cbe 45db 393e 3328 233e
00000170: 2c80 acbe 4bf7 833f 049a 313f 7390 07bf
00000180: a3c5 ec3d 13c7 4c3f c155 b53f 2973 00bf
00000190: 4c98 84bf 0607 9c3f 6550 0a3f 6853 eabe
000001a0: 3a02 dabe 18e1 ddbe 7932 e13d a18e db3d
000001b0: 6e43 7a3e 3ee8 0ebe 342f 023f 833a cd3e
000001c0: 8892 d13e 6531 ca3d c9a0 cd3b 5629 3bc0
000001d0: bec3 8bbe 1c93 f93c 4ba0 a83e 18c1 34bf
000001e0: 11aa 25c0 5eba 27bf e41b 963e ca5c d0bd
000001f0: 34d2 37bf 73d8 f23f 20f9 4b3e 1ff6 323f
00000200: 37ec 6c3f 204d a73f 847b 433f 4ae8 dbbe
00000210: ae1b 93be cbd2 adbe 49df 1f3f aaa8 cb3e
00000220: 03ef 823e cfca 063f 9643 853f 4209 3b3f
00000230: 9d56 0840 1698 283f 3541 ce3e a2fd ad3e
00000240: 1bc9 ab3f ee1f 1640 d47b 983f b2a9 b23f
00000250: 2e97 163f 9555 c23d d30b 0ebf 07e2 213f
00000260: 9870 64be cc8f 3d3e f5a7 14bf 6d57 8f3d
00000270: 461b 1d3f b9b6 6e3f 8524 403f 23a9 7dbd
00000280: 59da 6abf c842 41be 4bd9 9ebd f2ee 16bf
00000290: e083 6dbe 091e a43e 7a3c 93bf 3a49 f2bd
000002a0: a624 6bbe 3f92 31bd c868 da3e c654 bbbe
000002b0: d0bd bcbf dc44 30be 126f 0c3f 886c 723d
000002c0: ba65 9dbf 0664 bcbe f6e7 31be 2d1b 05be
000002d0: ae92 07bf 7b3f a0be ef71 36be 9ade 083f
000002e0: 758f c73e e62d 2abe e32c 52bd 89e3 3dbf
000002f0: f5f4 a4be 1791 4b3e 523e ec3d b2a7 923f
00000300: a231 073f 552a 923f faf6 98be 9ecb 973d
00000310: dfb4 f4bd d90c 08bd 6041 d43c 8971 3a3e
00000320: c701 cf3d d579 e03d 54f9 003e 578c fbbd
00000330: 43d0 6f3d 163f d33d 534d 1f3e f2da 523d
00000340: 9b15 063e 1dc2 4e3d 3da2 553d 19fc b73c
00000350: caf0 34bf 38d7 c63d 5323 873c 8e49 3ebe
00000360: b768 0c3e b3af af3c 1eb2 24bf 4a41 673c
00000370: 62b1 a53d 7450 0a3e 51e7 8f3c dfbd cb3d
00000380: 625f 24bf 76e4 233e 1d19 ac3d b31b d43d
00000390: ba73 e53d f8db 05bd 2e29 92be 2a54 db3d
000003a0: 5684 583d d4cb 0f3e 6c62 3a3c 5aa6 01bd
000003b0: bd70 3f3d c91b f03c f9a9 813c e6bb 273c
000003c0: 43a1 843c 0d38 d93d 4c46 88bc b834 6d3e
000003d0: 4b92 c3bb 25b2 6b3d 6d6e fb3d bcd0 5f3d
000003e0: 3d7e 4e3d 0d27 3c3e 2fb9 183e 8ea0 883d
000003f0: c2b2 a83d 5f83 853d 44f4 153d 19af e03d
-1.2148272 -0.71562904 -0.97637767 0.4243414 -0.120543726 0.9094853 -1.1035967 0.31765345
-0.08932019 0.2950407 0.55423427 -1.0341991 0.6358767 1.0197728 0.54458433 -0.40481693
-1.902442 0.4707733 0.119979896 0.6443996 0.4708182 -2.1998878 0.42247877 -0.6863376
0.6960072 1.6300784 1.537851 1.6585077 -0.3620376 1.7603891 -2.9186847 0.37961456
-0.04325464 -0.1870918 -0.074529804 0.9566544 1.3949233 -0.42583662 -0.1489011 0.17267205
0.4945075 2.0493038 0.42752737 -0.4439532 0.112860784 -0.82800376 2.1518424 -0.44950104
-0.5768676 -0.10932109 -0.2593515 -0.93762213 -0.7013399 -0.098348044 0.39500147 0.80272835
-0.43408635 0.425242 1.0867587 0.24740292 -0.6291108 -0.45245105 -0.0828538 0.25812724
0.24400793 0.3234348 -0.037612267 0.024934642 -0.2671728 -0.7756125 1.1197784 0.14616923
0.11920407 -0.07567037 0.2941179 -0.10899409 -0.029170394 -0.03951194 0.65781003 -1.5302585
1.19632 0.81212586 -0.24463245 -1.0547988 -0.36694035 -0.49766016 -0.27270818 0.7026436
-0.1539002 -0.18448688 0.18150051 0.15933304 -0.33691537 1.0309843 0.69375634 -0.52954787
0.11561134 0.79991263 1.4166795 -0.5017572 -1.0358977 1.2189643 0.5402892 -0.4576676
-0.42579824 -0.43335795 0.10995955 0.10720564 0.24439785 -0.13955781 0.50853276 0.40083703
0.40932107 0.098727025 0.0062752706 -2.924398 -0.27297777 0.030465655 0.32934794 -0.7060714
-2.588505 -0.6551875 0.29318154 -0.10173948 -0.7180512 1.8972305 0.19919252 0.699068
0.92547935 1.3070412 0.76360345 -0.4295066 -0.28732055 -0.33949885 0.6245008 0.39777118
0.25572976 0.5265321 1.041125 0.73061 2.1302865 0.65857065 0.40284124 0.3398257
1.3420748 2.3456988 1.1912789 1.3958037 0.5882443 0.0948898 -0.5548679 0.63235515
-0.22308576 0.18511885 -0.5806878 0.06999097 0.6136974 0.9324756 0.75055724 -0.06192888
-0.9173942 -0.18873131 -0.07756289 -0.5895835 -0.23194838 0.32054165 -1.1502831 -0.11830373
-0.22963199 -0.04335236 0.42658067 -0.36588115 -1.4745426 -0.17213768 0.5485698 0.059185535
-1.229667 -0.36795062 -0.17373642 -0.12998648 -0.5295819 -0.31298432 -0.178169 0.53464663
0.38976637 -0.16619071 -0.05131234 -0.74175316 -0.32218137 0.19879566 0.11535324 1.1457427
0.5281011 1.1419169 -0.29875928 0.07411884 -0.11948561 -0.033215377 0.02591008 0.18207373
0.10107761 0.109607376 0.12595111 -0.12282627 0.058548223 0.10314767 0.1555684 0.051478334
0.1309418 0.05047809 0.052156676 0.022459077 -0.70679915 0.097090185 0.016496336 -0.18582746
0.1371182 0.021446085 -0.64334285 0.014114687 0.08090474 0.13507253 0.017566355 0.099483244
-0.6420804 0.1600512 0.084032275 0.10356846 0.11203714 -0.03268048 -0.28547043 0.107094124
0.05286058 0.14042598 0.011376005 -0.031652786 0.046738375 0.029310124 0.01582812 0.01023767
0.016190177 0.10606394 -0.016635083 0.23164642 -0.005968367 0.05754294 0.122769214 0.054642424
0.05041336 0.18374272 0.14914392 0.066712484 0.0823722 0.06519198 0.036609903 0.10970897

feature_extraction_layer.1.bias f4 [16]
00000000: e68f 023e c637 18bd 6175 a3bb 13eb e2bc
00000010: 043d 9d3d 56f6 3f39 984b 743d aa32 493b
00000020: 7f34 2d3d 2cc2 09bd 8d0e 06bd d05f 6d3c
00000030: 72a2 a9bd a739 fabc 9d9a b23c 6ee5 413c
0.12750205 -0.037162565 -0.004988358 -0.027699983 0.076776534 0.00018306947 0.059642404 0.0030700364
0.042286392 -0.033632442 -0.03272872 0.0144881755 -0.08282937 -0.030545069 0.021802241 0.011834485

feature_extraction_layer.2.weight f4 [16]
00000000: fa49 9b3f 2073 853f 7559 833e 8a5d 663e
00000010: 40fd 923e fe4c 1e3f 3e17 5c3e 4f34 9b3e
00000020: a718 c63e 0eac 4a3e b5e3 653e 85fc 2c3e
00000030: 3d5c 6e3e f20e 893e ebd5 633f a8fe ab3e
1.2131951 1.0425758 0.25654188 0.2249662 0.2870884 0.6183623 0.21493241 0.30313346
0.38690683 0.19792196 0.22450145 0.16893204 0.23277374 0.26769215 0.8899829 0.33592725

feature_extraction_layer.2.bias f4 [16]
00000000: ed13 84c0 4ca3 48c0 21bb 20bf a1a3 90bf
00000010: 908d b8bf 86a4 95bf dfe8 4ebf ac4d 62bf
00000020: ec9c 82bf 2bc9 2ebf 2cc9 5bbf 2862 1dbf
00000030: 8e93 82bf e72b 75bf e63a 1fc0 d369 7bbf
-4.1274323 -3.1349669 -0.62785536 -1.1299936 -1.4418201 -1.1690834 -0.80824083 -0.8839977
-1.0204139 -0.6827571 -0.8585384 -0.614779 -1.020128 -0.95770115 -2.4879699 -0.9820835

feature_extraction_layer.2.running_mean f4 [16]
00000000: a5b7 2f40 aea8 8140 90f7 08bd 598e 273d
00000010: e23b ba3f 768a 0540 70db c6bf 63c3 103e
00000020: aaa5 56bc 3eba e83d 3874 8ebe cd3f 95bf
00000030: 2e69 da3c d2d2 813d bb08 d4be 692c 033d
2.7455838 4.051841 -0.03343922 0.040907238 1.4549525 2.086576 -1.5535717 0.14137034
-0.013101021 0.11363648 -0.27823043 -1.1660095 0.026661482 0.06339039 -0.4141291 0.032024775

feature_extraction_layer.2.running_var f4 [16]
00000000: b606 8541 9ba3 6241 5db3 943f 1b57 0340
00000010: e6ca a340 1a0d 5c41 9139 1c40 7504 1040
00000020: 024b 3441 8eb7 1340 e961 b93f 854f 4540
00000030: 5c1c d93f ff3b ae3f 8d81 3441 a0e6 1740
16.628277 14.164943 1.1617237 2.0521915 5.118518 13.753199 2.4410136 2.250272
11.268312 2.3080783 1.4483005 3.0829785 1.696178 1.3612059 11.281629 2.3734512

dense_layers.0.1.weight f4 [16, 16]
00000000: 4ae5 0140 1d41 8c3d 3db4 53bd 0ba2 413e
00000010: 5698 90be 9250 daba 02ba 12be 4b2b 093e
00000020: a40a 6e3e 909e 2f3e 3256 86bc 4dcf c63d
00000030: a486 19be 1518 8f3d b6ad 923f 520f e1bc
00000040: eaf8 d1bf 12a0 e1bc b202 42bd d1c2 f53d
00000050: 7f99 f13d e15c a53f 3eef 9abd afdc c93d
00000060: cb7f afbc 3af2 ba3d 8798 283e ed2d 623c
00000070: 46fa 823e d937 4b3d a497 9ebd eb16 19be
00000080: 5592 bebf 673e 883f 7990 3abe 7412 16bc
00000090: 0726 83bc 69e7 8c3f 5a8b 883d ea87 a23d
000000a0: 494c e9bd 3343 7f3c bef9 1dbc aa1f 633e
000000b0: e384 cd3c ae00 30be 877b 113f d1c2 923d
000000c0: 3260 ebbd a529 a13d ff5f 753d 6466 0d3e
000000d0: 1b64 203f 08d0 e83e 63b9 5d3e f696 6d3e
000000e0: 445b 8e3e e905 843e fb89 e13d 65e4 953c
000000f0: db35 54bb 84b7 993d fa03 3dbd e858 a63e
00000100: e8d7 95c0 ddc1 1a3d 6663 023e 84db 453e
00000110: 05c5 eabc f9bc b43d 426f 2fbd b2b7 d43d
00000120: dd76 943d c9ce 69bc 53dc a3bd c47a 0b3e
00000130: 9d75 173e 3df6 623d c9c0 e03d 3587 ddbc
00000140: ce9b c5be 56fb a83e 89ab 51bc 407b 323e
00000150: 45a9 5ebe 8613 a43e 9c0a 53be 3fce 13be
00000160: 8fea dabe 2ded c43d a0df 52be 6708 19be
00000170: 8434 9c3e c1f7 393e 4f06 bc3d 20d5 833e
00000180: d6c0 073e 4451 853c 781a c8bd a7fd 04be
00000190: 7e2e 87be 9a68 b23d ca99 6a3d a5e9 09be
000001a0: fa76 7f3f d6e0 ea3e 28e3 93be d28f 39bd
000001b0: 5369 d63e 2499 15be a060 69be 4c3e febc
000001c0: fdfe 04c0 8c7b 1440 3ee0 9c3e a93b 7dbd
000001d0: 519b 7bbe 6229 403b 2b67 50be 4cf1 ae3c
000001e0: 6a9f 8f3d 8602 b43e 37b3 083d 40d0 4f3e
000001f0: 5d59 61be cdee 8e3d d6cf 5c3d 70bc f5bd
00000200: 4e97 9fbf 4c59 ac3d 9e3b 00be 061d b93e
00000210: 113f be3e e344 71bf 6308 d23c abd1 44be
00000220: 4721 8abe 4dc1 4ebd 0a6d 92be b0b6 113f
00000230: f5a4 78be 92a7 853d a62f b43e 52be 833e
00000240: 5f8d 32bf fe71 29bf 582d 323d ecf3 933d
00000250: 1fa9 9dbd f185 a53f d513 8e3e 09f0 0c3d
00000260: b756 843d 6537 ac3c 7cdb d0bb 0502 08bd
00000270: 8126 2c3d 82c7 64be 4652 383f a8fe 8abd
00000280: 8769 febe f615 0f3d f237 033d b104 2bbc
00000290: eed6 ad3f 8724 11bf 9ce3 13be 9ccb b6bb
000002a0: 5e4f 8b3c a069 2abd ba5d d23e a455 21be
000002b0: bc39 8d3d 5c49 d1bc f3cc 0bba c067 7fbc
000002c0: e2dd acbf 4fd5 bfbf 696f c43d d585 98be
000002d0: 57f1 ef3e b2e5 abbd c14a 053e 899c febd
000002e0: 8d76 3abe 15c3 0e3e 6def 743e 4d18 11bf
000002f0: a9a2 7b3e 0a3e bebd 0cbf 1a3f 1165 31be
00000300: 39b3 9abe ff22 173e 7323 4a3d 7d60 dc3d
00000310: 3186 403e c85c fc3e 8ce6 68be 2ad7 ba3c
00000320: 9a8b 313f dde5 273e 73fb 4ebe 252f 1b3c
00000330: 224c 2f3e cf78 3cbe f208 39be d072 273d
00000340: 556c 3dbf 6ed2 083e f495 f5bc d7a3 b7bd
00000350: b068 49be 20e0 4d3e cab5 9e3c d4b9 57be
00000360: 6617 593f 2ec5 a73d ba44 dbbb bef6 88bd
00000370: 26a5 d53c f9ce 9c3e 3757 b93e 910c 25bd
00000380: 7542 873e a316 fe3d 9d63 2b3e 0ae3 36bd
00000390: 2dea a83e 9010 6c3f 2109 d2bb 0413 4cbd
000003a0: 3755 9dbe 0466 22be b323 6e3c e021 e43d
000003b0: 533c 54be 3a57 6cbd cb10 aebe 2042 223e
000003c0: 0103 cdbf de85 e0bd 261e 163e 5637 603e
000003d0: 2651 cabd 04f8 7d3d 769d abbd f416 1fbe
000003e0: c890 2d3f 617e 993e 739f 1fbd 0c76 3f3e
000003f0: 183f 80bd 747c 463c 9b49 893f c997 193e
2.0296197 0.06848357 -0.05168556 0.1890947 -0.28241223 -0.0016656092 -0.14328769 0.13395421
0.23246247 0.1715033 -0.016398523 0.09707508 -0.14992768 0.06987015 1.1459262 -0.027473126
-1.6404088 -0.027542148 -0.04736585 0.12000049 0.11796855 1.2918969 -0.07565163 0.09856545
-0.021423241 0.09128232 0.16464435 0.013804895 0.25581568 0.049613807 -0.07743767 -0.14950149
-1.4888407 1.0644044 -0.18219174 -0.009159673 -0.016009344 1.1008121 0.06667204 0.0793608
-0.11391503 0.015579986 -0.009642063 0.22180048 0.02508778 -0.1718776 0.5682911 0.071660645
-0.11492957 0.07869271 0.059906002 0.1380859 0.6265275 0.45471215 0.2165275 0.23202118
0.27804005 0.2578576 0.11012646 0.018297384 -0.0032380733 0.07505706 -0.04614637 0.32489705
-4.6826057 0.03778254 0.1273323 0.1932202 -0.0286584 0.08825106 -0.042830713 0.103865996
0.07249234 -0.014270493 -0.08001008 0.1362105 0.1479096 0.055410612 0.10974271 -0.02704201
-0.38595432 0.33004254 -0.012797245 0.17429829 -0.21744259 0.32046145 -0.20609516 -0.14434145
-0.4275708 0.0961555 -0.20593119 -0.14944611 0.30508816 0.18160917 0.09180891 0.2574854
0.13257155 0.016274102 -0.097706735 -0.12987386 -0.26402658 0.087113574 0.05727557 -0.13468035
0.9979092 0.4587466 -0.28884244 -0.045303173 0.4187723 -0.146092 -0.22790766 -0.031035565
-2.0780632 2.3200407 0.30639833 -0.061824474 -0.24570967 0.002932154 -0.20351855 0.021355294
0.07012828 0.35158175 0.033374038 0.20294285 -0.22006746 0.069791414 0.053909145 -0.11998832
-1.246805 0.084154695 -0.12522742 0.36154956 0.3715749 -0.9424574 0.025638765 -0.19220607
-0.26978514 -0.050477315 -0.28598815 0.56919384 -0.24281676 0.06526102 0.35192603 0.2573114
-0.69746965 -0.66189563 0.043500274 0.07224259 -0.07698273 1.2931501 0.27749506 0.034408603
0.06461852 0.021022508 -0.006373821 -0.03320505 0.042028908 -0.22341731 0.7200054 -0.06786853
-0.49689886 0.034933053 0.032035775 -0.01043813 1.3581216 -0.5669636 -0.14442295 -0.0055784713
0.017005619 -0.041604638 0.41087133 -0.15755326 0.068957776 -0.025547676 -0.0005332969 -0.015588701
-1.3505213 -1.4986972 0.09591562 -0.29789606 0.46863815 -0.0839342 0.13016798 -0.124322005
-0.18209286 0.13941605 0.23919459 -0.56677705 0.24573769 -0.09289177 0.60447764 -0.1732371
-0.3021486 0.14759444 0.049350213 0.10760591 0.1880119 0.49289536 -0.22744197 0.022807676
0.6935364 0.1639628 -0.20213108 0.009471689 0.17118886 -0.1840546 -0.18069819 0.040880978
-0.73993427 0.13361523 -0.02997873 -0.08966797 -0.19668841 0.20105028 0.019373793 -0.21066982
0.8480133 0.08191906 -0.0066915425 -0.06687687 0.026079725 0.30626658 0.36199352 -0.040295187
0.2641789 0.12406661 0.16737218 -0.044650115 0.32991162 0.9221277 -0.0064097797 -0.049822822
-0.30729076 -0.15859228 0.014534879 0.11139274 -0.20726137 -0.057700373 -0.33997187 0.15845537
-1.6016542 -0.10963033 0.14659938 0.21896109 -0.09878759 0.062004104 -0.08379643 -0.155361
0.67799044 0.29979232 -0.038970422 0.18697375 -0.06262034 0.012114633 1.0725588 0.14999308

dense_layers.0.1.bias f4 [16]
00000000: 940c d83d 3020 123e 0694 f6bd 6aa3 a2bc
00000010: 40e1 1f3d 12e3 0d3e f636 803d b34d 813d
00000020: 273d f03c 2c21 0cbd a30a 0e3c 0488 16be
00000030: 56f5 813d 7ca1 493e d0a6 2fbe 9aa5 333e
0.10549274 0.14270091 -0.12039952 -0.019853313 0.039033175 0.13856152 0.06260483 0.06313648
0.029326035 -0.034211323 0.008669528 -0.14700323 0.06345622 0.19690508 -0.17153478 0.1754364

dense_layers.0.2.weight f4 [16]
00000000: 3f3d 9a3f c332 0b3f e36f 213f 9f2c 313e
00000010: dc67 203f 1c68 f83d 57aa 1f3d c38e 923f
00000020: 04f4 293f 0ade 533f 925e c43d ea49 0a3f
00000030: 2869 123e e268 e43d 8775 ae3d 73de 6d3e
1.2049941 0.5437433 0.6306135 0.17302178 0.62658477 0.12129232 0.038980808 1.1449817
0.66387963 0.8276068 0.0958835 0.54019034 0.14297926 0.11152817 0.0851851 0.23229389

dense_layers.0.2.bias f4 [16]
00000000: 51f4 72bf 02f5 cc3c 4661 81be ed94 aebe
00000010: b83f 483f 2384 c5be 1279 97be 428e 55bf
00000020: 4ccb 13bf 3ffb 4ebe d910 9abe f3bc edbe
00000030: c69a eebe 88b4 2cbe 5cff 9cbe c87f 0a3d
-0.9490405 0.025019173 -0.25269526 -0.34097996 0.7822223 -0.38577375 -0.29584557 -0.83420193
-0.5773208 -0.2021303 -0.3009098 -0.4643322 -0.46602458 -0.16865742 -0.30663574 0.033813268

dense_layers.0.2.running_mean f4 [16]
00000000: d362 0c40 3bff d43f 4cb0 1f40 bfa7 223f
00000010: 7072 2ebf facb 523f 2ea6 a7bd 7a8b 2b3f
00000020: 1908 92bf 768f 2140 4788 79bf aa47 bfbe
00000030: 1936 143f e863 683f 32ea 683f 901c ad3f
2.1935318 1.664039 2.4951353 0.6353721 -0.6814337 0.82342494 -0.08185993 0.670097
-1.1408721 2.5243812 -0.9747357 -0.37359363 0.57895046 0.90777445 0.90982354 1.3524342

dense_layers.0.2.running_var f4 [16]
00000000: 8942 943f 5d6b d33f 904a 1440 9d90 203e
00000010: b89a 9a40 64b5 1b3e 276a b23d 1d95 0040
00000020: 7094 b93f 5c86 0440 4dcc 983e 8479 c43f
00000030: be27 5d3e d324 dc3e 2eb6 5d3f 1db8 2e40
1.1582805 1.651714 2.317051 0.15680166 4.8313866 0.15205914 0.08711653 2.0091012
1.4498425 2.0707006 0.2984337 1.5349584 0.21597192 0.42996845 0.8660611 2.7299874

prediction_layer.weight f4 [13, 16]
00000000: 0cfa b03e 68b3 f43e 678c 9fbe c605 21bd
00000010: 92fb 1dbf 3869 25be 9dc6 34be b2ed f5bb
00000020: 80c5 383e c825 c8bd 359d 613e e259 003d
00000030: f49b cf3d 11e5 b0be 2fbd 893e 1e23 19bf
00000040: ddb1 4a3f 93e5 70bd 4e0e e0be 763e febd
00000050: 2abc 99be 8b3c e4bd 8557 aebd deee bfbe
00000060: bbf7 0fbe 84c8 0abf bc25 14be 104a 6bbe
00000070: 1322 233d dcd9 52be f9a6 63be 214f 94be
00000080: 4bed c33e 4528 6f3d 97a8 323e 4571 3fbe
00000090: 0478 86be d9ff 7abe fe11 92be b0dc 72bf
000000a0: 44b2 8d3e ad04 14be c683 5ebe f40b 0ebf
000000b0: 7b5f 3fbe 8354 65be 829d ddbe b445 833e
000000c0: 33dc 853f 5cac f9be 3471 a3be f2f2 33bd
000000d0: 7261 2abf 544d 8cbd 649f ccba 59aa 98bf
000000e0: d9a5 3dbf 2337 18bf f860 c7bd 14fd 54be
000000f0: 5348 a43b 8752 cbbc f9d4 01bd d7b6 08bd
00000100: 7e00 0d3f c661 e4bd f512 92be 2363 a4bd
00000110: cab1 b7bd 7cc3 7cbd fdb0 5d3d bf4b 4ebe
00000120: d01c 413d f5fa f0be c47b ac3c d574 7ebe
00000130: 2e8b 0e3e 5a86 2a3d 7740 b5be a5b4 3ebe
00000140: c174 e53f e87e 63be aa1a 77be 87de a23c
00000150: f50b 43bf e224 c93d a17f 0b3c bc9e 11bf
00000160: 77d8 f2be 8bc8 cebe 4fa7 87bd e323 163c
00000170: 8048 e83c 4927 8a3c a60a 633c db96 01be
00000180: 8a14 1e3f fb2a 06be 603c 3dbe 7f37 88be
00000190: 418e fabe 23d0 23be 9f15 94bb ebbe 9a3d
000001a0: 7bf8 f5bd cf53 f1be ff28 9ebd 6432 71be
000001b0: c094 123e 75c6 49be b0fe c1be f03f 20be
000001c0: ef00 cb3e 79b1 ccbd 2d64 2b3f 6a65 f1ba
000001d0: 2ced af3e 4c19 613d ca55 70be dda9 7b3d
000001e0: f131 873e 3813 bc3e 94c9 343e e06e 403f
000001f0: 9195 36bf 4e48 7e3d a1c1 9ebe 6ddf 0b3f
00000200: 5ad8 313f 10fd b33e 5fae 88be c575 c2bd
00000210: d1c0 30bf 3946 6ebe c189 c0bd a9d0 96be
00000220: 0b5f 9fbd 3360 3cbe 727a dc3d 85b5 a63d
00000230: 7b98 ac3d c2bc 9dbe 7fa3 95bd 8f01 2bbf
00000240: 353a 3d3f bce7 aa3d f4e0 b6be 9b9b 6bbe
00000250: 101a aabe 85e1 d3bd afe4 fa3d 7e6f 6cbe
00000260: f009 19be 8b66 31be 644b cf3c fd6c b6bd
00000270: ee0d 69be 6b6f 3dbe d492 8fbe 50bf 95be
00000280: ea4f d33f 48b2 09bf 24e0 6abe d75d a5bd
00000290: 6dee f9be 8690 56be 9200 55bc c0a8 2abf
000002a0: 62f2 1ebf 1721 1ebf c8a5 50be fac2 0bbd
000002b0: f3d8 8cbb 801c 0d3c d0c8 33be 33e3 733c
000002c0: 6cb8 be3f 30d0 3fbe f074 aabe 4593 223d
000002d0: ab43 58bf 1839 d93c 81f2 7dba e2fa 90bf
000002e0: 9c68 0ebf 049b 00bf a4d6 16bd ea7b 7abe
000002f0: acc7 453c ff70 923b 768a ee3c 1736 6fbe
00000300: 41c2 183f 47e3 03bd a3f7 42be 534d 533d
00000310: f229 3dbf 7a76 213d 6be9 793d df09 1ebf
00000320: d3e3 7dbe 2f23 c8be 7390 4f3d bd9c 65be
00000330: da9a 783e ce54 b9bd 1aa8 2a3e 0430 68be
0.3456577 0.47793126 -0.31161806 -0.039312147 -0.6171199 -0.16153419 -0.1765389 -0.007505142
0.1804409 -0.09772831 0.22032626 0.03133572 0.101371676 -0.34549764 0.26902148 -0.5981921
0.7917765 -0.05881269 -0.43760914 -0.12414257 -0.3002637 -0.1114436 -0.08512787 -0.3748693
-0.14059345 -0.5421221 -0.1446752 -0.22977471 0.039827418 -0.2059092 -0.22231664 -0.2896662
0.38266978 0.058388013 0.17447124 -0.18695553 -0.2626344 -0.2451166 -0.28529352 -0.9486799
0.27675068 -0.14454909 -0.21729955 -0.5548699 -0.18688767 -0.2239552 -0.4328423 0.25639117
1.0457824 -0.48764312 -0.31922305 -0.043932863 -0.6655494 -0.06850687 -0.0015611467 -1.1926986
-0.7408119 -0.5945913 -0.09735292 -0.20799667 0.0050135045 -0.024819626 -0.031697247 -0.033377495
0.55078876 -0.11151461 -0.28530088 -0.08026721 -0.089694574 -0.061709866 0.054123867 -0.20146082
0.04714662 -0.47066465 0.02105511 -0.24849255 0.1392028 0.041632034 -0.35400745 -0.18623598
1.7926255 -0.2221638 -0.24131265 0.0198815 -0.7619012 0.09821488 0.008514316 -0.56882834
-0.47430775 -0.40387377 -0.066237085 0.0091638295 0.028354883 0.016864436 0.013857519 -0.12655203
0.6175009 -0.13102333 -0.18480062 -0.2660484 -0.48936656 -0.15997367 -0.004519179 0.07555946
-0.120102845 -0.47134253 -0.07722663 -0.23554379 0.14314556 -0.19704612 -0.37889624 -0.1564939
0.3964915 -0.09994788 0.6694973 -0.0018417065 0.34360635 0.054955766 -0.23470226 0.06144129
0.2640529 0.36733413 0.17655021 0.7516918 -0.7132197 0.062080674 -0.31007102 0.54637796
0.6947075 0.3515401 -0.26695535 -0.09495119 -0.69044214 -0.23268975 -0.094012745 -0.2945607
-0.077818 -0.18396072 0.10765542 0.08140091 0.08427521 -0.30808073 -0.07306575 -0.66799253
0.7391694 0.08344981 -0.357185 -0.23008578 -0.3322301 -0.10345749 0.12250649 -0.23089406
-0.14945197 -0.17324273 0.025304504 -0.089075066 -0.2275922 -0.18499534 -0.28041708 -0.29247522
1.6508763 -0.5378766 -0.22937065 -0.08074539 -0.48814717 -0.20953569 -0.013000624 -0.6666374
-0.62088597 -0.6176924 -0.2037574 -0.03412149 -0.0042983233 0.008612752 -0.17557073 0.0148857115
1.4900031 -0.18731761 -0.3329234 0.03969123 -0.84478253 0.026516482 -0.000968732 -1.1326563
-0.5562837 -0.50236535 -0.03682579 -0.24461332 0.012071531 0.0044690366 0.029118758 -0.23360477
0.5967141 -0.03219917 -0.19039778 0.051587414 -0.7389213 0.03941963 0.06101362 -0.6173381
-0.2479394 -0.39089343 0.050674867 -0.22423072 0.24277821 -0.09049378 0.16665688 -0.22674567

prediction_layer.bias f4 [13]
00000000: 6e3a 8fbf 917e aabf 0930 7ebf 18d4 f3be
00000010: 8b31 0ebf 1188 793e e0be a7bf 54e1 6ebf
00000020: b87d c3bf cf0d 9ebf e781 4fbf 0e56 613d
00000030: 3810 023e
-1.1189706 -1.3319875 -0.99292046 -0.47622752 -0.55544347 0.24368311 -1.3105125 -0.93312573
-1.5272741 -1.2347964 -0.8105759 0.05501371 0.127015
