Reduced_model/Saved_models/models_trained/training_torch_simple_mask_copy_model_0c0d64f.pth (torch, 52981 bytes, 14 tensors)

feature_extraction_layer.1.weight f4 [64, 4, 25]
0	0xbeba8ae8	-0.36434102
1	0x3e413e64	0.18871456
2	0xbd1b314b	-0.037888806
3	0x3e458d05	0.19292076
4	0x3da02dff	0.07821273
5	0x3e42900b	0.1900026
6	0x3de93941	0.113878734
7	0x3dbbc731	0.09168852
8	0xbe082070	-0.13293624
9	0x3d9196d9	0.0710885
10	0x3e27ffef	0.16406225
11	0xbdce8ca0	-0.10085416
12	0xbefca8c6	-0.49347514
13	0x3e3f8315	0.18702348
14	0x3d01fe05	0.031736393
15	0xbeab4cf2	-0.33457142
16	0x3dc85940	0.09782648
17	0x3e73624a	0.23767963
18	0xbe8653bf	-0.26235768
19	0xbccd5fb0	-0.025070041
20	0x3de445ff	0.11146163
21	0xbd6ce228	-0.057832867
22	0x3e2c9305	0.16852959
23	0x3e0726ff	0.1319847
24	0xbd447d20	-0.04797089
25	0x3e5b4166	0.21411666
26	0x3e84cf69	0.2593949
27	0x3e50c95d	0.20389314
28	0x3c9197da	0.017772604
29	0x3d4101db	0.04712091
30	0x3da7549a	0.08170433
31	0xbd83b177	-0.06430333
32	0xbe53c6c3	-0.2068129
33	0x3e609206	0.21930704
34	0x3be6ad72	0.0070397193
35	0xbe2be8a2	-0.16787961
36	0x3e0e01d8	0.13867891
37	0x3e154bfa	0.14579764
38	0xbecf49c9	-0.4048598
39	0x3dc32ec4	0.09530404
40	0xbe0e43d2	-0.13893059
41	0xbe685e78	-0.22692287
42	0x3e7794ca	0.24177852
43	0x3e31ce00	0.17363739
44	0x3d7901af	0.06079262
45	0xbd88d11c	-0.066805094
46	0x3e149d9e	0.14513251
47	0xbda1cae3	-0.07900026
48	0xbb898b31	-0.004197501
49	0xbb2ef9a0	-0.002669908
50	0x3e0718dc	0.13193077
51	0xbf3b235d	-0.73100835
52	0xbdfe0b75	-0.12404529
53	0x3e04b7d7	0.12960754
54	0x3e1dab5f	0.15397404
55	0x3e6cc8a4	0.23123413
56	0x3bfe127f	0.0077536697
57	0x3c202505	0.009774451
58	0xbe2f54a2	-0.17122129
59	0x3e1f76df	0.1557269
60	0x3e5d3845	0.21603496
61	0x3e847d0f	0.25876662
62	0x3e6d2849	0.23159899
63	0x3dd4c4c6	0.10389094
64	0x3e17f5c0	0.1483984
65	0x3e707ac5	0.23484333
66	0x3e1db9a1	0.15402843
67	0xbeeb0eb2	-0.4590965
68	0x3dec1a04	0.115283996
69	0x3e472d22	0.1945081
70	0xbcd6dbac	-0.026227795
71	0x3e67e509	0.22645964
72	0x3d78b6b7	0.060721125
73	0xbd6d4242	-0.057924516
74	0x3e4bbe45	0.19896801
75	0x3e27c3a2	0.16383222
76	0x3e4f3f45	0.20238979
77	0xbdb6198b	-0.08891591
78	0xbf49c972	-0.78823006
79	0xbe71906a	-0.23590246
80	0xbf14389d	-0.57898885
81	0x3d6a83b1	0.057254497
82	0x3dccff85	0.10009674
83	0xbca602d7	-0.020265026
84	0xbb09191e	-0.0020919512
85	0x3e88289f	0.2659349
86	0x3db701a7	0.08935862
87	0x3e7b45b7	0.24538313
88	0xbd1b6382	-0.037936695
89	0x3e33deac	0.17565411
90	0x3e943644	0.2894765
91	0xbdcbd4a0	-0.099526644
92	0x3e074d86	0.13213167
93	0xbe9b48f2	-0.3032909
94	0xbe278bfb	-0.16361992
95	0x3e3730b1	0.17889668
96	0xbddb85e1	-0.10718895
97	0x3d6a8f98	0.057265848
98	0xbdfdf0a6	-0.12399416
99	0xbd343f9e	-0.044005983
100	0xbf88f621	-1.0700113
101	0x3da9d3dd	0.08292363
102	0xbc6271ae	-0.013821049
103	0xbdb65374	-0.08902636
104	0x3e074944	0.13211542
105	0xbbff06fb	-0.0077828146
106	0x3c60579f	0.0136927655
107	0x3dc6a2b7	0.09699004
108	0x3d9c1a1f	0.0762217
109	0x3e8af28c	0.27138174
110	0x3d6c708c	0.05772452
111	0x3d402d09	0.04691795
112	0xbf558fdf	-0.83422655
113	0x3dc1b124	0.09457615
114	0x3e458c80	0.19291878
115	0x3dee204d	0.11627255
116	0x39ecbb19	0.00045152826
117	0x3d850ae1	0.064962156
118	0xbf11696e	-0.568015
119	0x3d6794cb	0.056538384
120	0x3c251b68	0.010077335
121	0xbd069e27	-0.03286567
122	0x3b83db49	0.0040239436
123	0x3cf82017	0.03028874
124	0xbe9cf5e9	-0.30656365
125	0x3e623caf	0.22093461
126	0x3d09262a	0.03348366
127	0x3e2d11b1	0.1690128
128	0x3e2e9bc1	0.17051603
129	0xbd68ac63	-0.056805026
130	0x3dc30f9c	0.095244616
131	0x3e13e01f	0.14440964
132	0x3c287410	0.010281578
133	0x3dac33f7	0.08408349
134	0x3e566808	0.20938122
135	0x3e02c38b	0.12769906
136	0xbd96b835	-0.073593535
137	0x3e4cf96d	0.20017023
138	0x3ca94098	0.020660684
139	0x3e74f1b2	0.23920324
140	0x3e80cf79	0.2515829
141	0x3dae793f	0.085192196
142	0x3e02f558	0.12788904
143	0x3e1d0169	0.15332569
144	0x3c7bb154	0.015362103
145	0x3de2c6bf	0.11073064
146	0x3df6b2a0	0.12045789
147	0x3dbf0bb4	0.09328404
148	0x3c8b5601	0.017008783
149	0x3da77f8f	0.08178627
150	0x3e5c9e54	0.21544772
151	0xbc78f3f9	-0.015194886
152	0x3df2de4b	0.11858805
153	0x3e7491cd	0.23883744
154	0x3d1424b4	0.036167815
155	0xbdee2133	-0.11627426
156	0x3e56f00f	0.20990013
157	0x3dd1b9dd	0.10240529
158	0xbbf3d90c	-0.0074416455
159	0x3e93e34f	0.2888436
160	0x3de54881	0.1119547
161	0xbd833b32	-0.06407775
162	0x3e563a78	0.20920742
163	0x3d0015e8	0.03127089
164	0xbf85abc4	-1.0443044
165	0x3ea175cc	0.31535184
166	0x3d679570	0.056539
167	0x3d6fe0a4	0.058563843
168	0x3dadee8b	0.08492764
169	0x3d0cac86	0.03434422
170	0x3b5784cc	0.003288555
171	0x3db16af7	0.0866298
172	0x3d669ba9	0.056300793
173	0x3d54df0d	0.05197053
174	0x3dd8bee8	0.105832875
175	0x3e03fb02	0.1288872
176	0x3cb3c3dd	0.02194398
177	0x3d915095	0.07095448
178	0xbf28cb3f	-0.6593513
179	0x3db3ff14	0.08788887
180	0x3d241439	0.04005835
181	0xbf9ec04c	-1.2402434
182	0x3d932ebd	0.07186649
183	0x3d68403e	0.05670189
184	0xbf919725	-1.1374251
185	0x3dff8d5d	0.12478135
186	0x3d1914ef	0.03737348
187	0x3d6a6168	0.0572218
188	0x3dca7303	0.09885218
189	0x3e74ad65	0.2389427
190	0xbf8e4913	-1.111605
191	0x3dbc62d0	0.091985345
192	0x3df3f17e	0.11911295
193	0xbebd94e5	-0.3702766
194	0xbc42ff2b	-0.011901657
195	0x3d1dff79	0.038573716
196	0xbe6bef58	-0.23040521
197	0x3dfca915	0.12336937
198	0xbc7bdbf9	-0.01537227
199	0x3d8d54d1	0.06900943
200	0x3e309263	0.17243342
201	0x3b2e94a3	0.0026638887
202	0x3dddf20f	0.10837185
203	0x3e1a3342	0.15058616
204	0x3d8a5b9d	0.06755755
205	0x3cdab0f2	0.026695702
206	0x3d4a3e29	0.049375687
207	0xbf369c2c	-0.7133205
208	0x3e0b3428	0.13594115
209	0x3d5ec0b0	0.05438298
210	0xbe678e81	-0.22612955
211	0x3e0e4fe9	0.13897671
212	0x3ddc8af4	0.10768691
213	0x3da67fcd	0.08129845
214	0x3d9729af	0.073809974
215	0x3cc04364	0.023469634
216	0x3dd25d5f	0.102717154
217	0x3ba5fcf5	0.005065555
218	0x3e6691a6	0.22516498
219	0x3d5531db	0.0520495
220	0x3e3eebc9	0.18644632
221	0x3e2209dd	0.15824075
222	0xbf4560b9	-0.7710071
223	0xbe836f3b	-0.256708
224	0x3dbcda9a	0.092213824
225	0x3de1ae64	0.110195905
226	0xbc908c83	-0.017645126
227	0xbcb53d11	-0.022123845
228	0x3e4c86db	0.19973318
229	0xbca93b30	-0.020658106
230	0xbdd2753e	-0.102762684
231	0x3c4699c6	0.012121623
232	0x3dc988c2	0.098405376
233	0xbd02ab95	-0.031901915
234	0xbca3b779	-0.019984948
235	0x3e296968	0.16544116
236	0xbedbf568	-0.42960668
237	0x3dafec99	0.08590049
238	0x3d1f8e70	0.0389542
239	0x3c640d83	0.013919237
240	0x3cefe772	0.029285166
241	0x3e378748	0.179227
242	0x3d27865f	0.04089963
243	0xbf197dfd	-0.5995787
244	0x3d927d8e	0.07152854
245	0xbedcc612	-0.43119866
246	0xbf346eac	-0.7048137
247	0x3d56565a	0.052328445
248	0xbe700c90	-0.23442292
249	0x3e12dec8	0.14342797
250	0xbf37a2e6	-0.7173294
251	0x3d9f2e8c	0.0777255
252	0x3d690837	0.0568926
253	0xbf0b4237	-0.5439791
254	0x3a5205f3	0.0008011751
255	0xbd004515	-0.03131588

feature_extraction_layer.1.bias f4 [64]
0	0x3d76fe26	0.06030097
1	0xbd7dbe97	-0.06194934
2	0x3db03064	0.0860298
3	0xbdb0018e	-0.085940465
4	0x3e8d5cfb	0.2761
5	0xbcf8334e	-0.030297901
6	0x3cd1ca37	0.025609119
7	0x3daf3dc7	0.08556705
8	0x3d72c14b	0.05926637
9	0x3d9c3636	0.076275274
10	0x3b9b5907	0.0047408375
11	0xbd3b6328	-0.04574886
12	0x3d8f600a	0.0700074
13	0x3d15cd7c	0.03657292
14	0xbc3f07e3	-0.011659595
15	0x3d1f7264	0.03892745
16	0xbd3054e1	-0.043049697
17	0x3bc03eb5	0.0058668503
18	0x3db111b2	0.08645953
19	0xbd7fa391	-0.06241185
20	0xbdc9ce75	-0.09853832
21	0x3d530a85	0.051523704
22	0x3dbb5523	0.09147098
23	0x3dcedc33	0.101005934
24	0x3bb7133c	0.0055870097
25	0xbdaa810f	-0.08325397
26	0x3d0cef42	0.03440786
27	0x3d372aca	0.04471854
28	0x3d692a98	0.056925386
29	0xbda66a95	-0.08125798
30	0x3d8de3b1	0.06928194
31	0xbd004409	-0.031314883
32	0x3d448c11	0.04798514
33	0x3d27552e	0.040852718
34	0x3da706f7	0.08155625
35	0x3dd91759	0.10600156
36	0x3d3bbc05	0.045833606
37	0x3ce78d45	0.028265605
38	0xbdae46fe	-0.085096344
39	0x3d80343b	0.06259962
40	0x3d6a0192	0.057130404
41	0x3f76885c	0.9630182
42	0xbd567d77	-0.052365746
43	0xbca11f27	-0.019668175
44	0x3d5b05de	0.053472392
45	0x3d1fff8d	0.03906207
46	0x3d857a40	0.06517458
47	0xbd1f90cc	-0.03895645
48	0xbd0fec1b	-0.035137277
49	0xbd1be12a	-0.03805653
50	0x3c3bbc4a	0.011458466
51	0x3db2c0c6	0.08728175
52	0x3d121465	0.03566398
53	0x3dafc923	0.08583286
54	0x3db2c1de	0.087283835
55	0xbdae3300	-0.08505821
56	0x3d5c6115	0.053803522
57	0xbdb74f59	-0.08950681
58	0xbd9faee6	-0.07797031
59	0xbd9c856b	-0.07642635
60	0x3d962945	0.0733209
61	0xbd8eee43	-0.069790386
62	0x3cb511b7	0.022103174
63	0xbd29fda5	-0.04150166

feature_extraction_layer.2.weight f4 [64]
0	0x3e93c66b	0.28862318
1	0x3eee7de0	0.4658041
2	0x3e5253bf	0.20539759
3	0x3e95e629	0.2927716
4	0x3f8b454b	1.0880522
5	0x3eb2aed1	0.34899
6	0x3e4976fd	0.19674297
7	0x3e43b53c	0.19112104
8	0x3e7df757	0.24801384
9	0x3e67d8fe	0.2264137
10	0x3e90ea0f	0.28303573
11	0x3e9be71c	0.3044976
12	0x3e6f1048	0.23346055
13	0x3ea6623e	0.32496828
14	0x3e9bad92	0.3040586
15	0x3ec2a1a8	0.3801396
16	0x3e511a28	0.20420134
17	0x3edbadd8	0.4290607
18	0x3e702e5d	0.23455186
19	0x3e6917da	0.22763005
20	0x3ea3b86b	0.31976637
21	0x3ead99e8	0.33906484
22	0x3e638474	0.22218496
23	0x3f561124	0.83619905
24	0x3ecb869f	0.39751145
25	0x3f8e8d1c	1.1136813
26	0x3e8b5c70	0.27218962
27	0x3eec17b6	0.4611184
28	0x3ea247cc	0.31695402
29	0x3e9f9dac	0.31174982
30	0x3e9767f8	0.2957151
31	0x3e7a6b46	0.24454984
32	0x3e8d16c4	0.2755643
33	0x3f09c049	0.5380903
34	0x3ea12360	0.314723
35	0x3e4e38c3	0.2013884
36	0x3e7ebdb0	0.24877048
37	0x3e856f69	0.26061562
38	0x3e6ceee5	0.23138006
39	0x3e91388d	0.28363457
40	0x3e8053d9	0.2506397
41	0x3fb0e3c0	1.3819504
42	0x3e52a14d	0.20569344
43	0x3eee0458	0.4648769
44	0x3e829347	0.2550299
45	0x3e856ac7	0.26058027
46	0x3e8b1529	0.2716458
47	0x3e7e341a	0.24824563
48	0x3f188f07	0.5959324
49	0x3e5226f1	0.20522667
50	0x3f911acb	1.1336302
51	0x3e651d4a	0.22374454
52	0x3e6aafd4	0.22918636
53	0x3ebe6ea4	0.37193787
54	0x3f690897	0.9102873
55	0x3eb7f1f0	0.3592677
56	0x3e76e581	0.24110986
57	0x3e82096b	0.2539781
58	0x3ec43759	0.38323477
59	0x3e96e7a4	0.29473603
60	0x3e88ec2f	0.26742694
61	0x3e41fecf	0.18944858
62	0x3ee621bb	0.4494761
63	0x3e69d3c1	0.22834684

feature_extraction_layer.2.bias f4 [64]
0	0xbf6507b9	-0.8946491
1	0xbf721cff	-0.94575495
2	0xbf484320	-0.78227425
3	0xbf653ef1	-0.89549166
4	0xc01f7f55	-2.4921467
5	0xbf71d341	-0.9446297
6	0xbf582687	-0.8443379
7	0xbf56c830	-0.8389921
8	0xbf58afc1	-0.8464318
9	0xbf7c2731	-0.984973
10	0xbf53f01a	-0.8278824
11	0xbf596632	-0.8492156
12	0xbf6392c9	-0.8889585
13	0xbf734925	-0.95033485
14	0xbfa1b95e	-1.2634695
15	0xbf7bf865	-0.98425895
16	0xbf5ccc76	-0.8624948
17	0xbf7f24cf	-0.9966554
18	0xbf749098	-0.9553313
19	0xbf4fd430	-0.8118315
20	0xbf6bbd26	-0.9208549
21	0xbf678833	-0.904422
22	0xbf487f8b	-0.78319615
23	0xc02a00d9	-2.6563017
24	0xbf61d701	-0.88218695
25	0xc06fda4b	-3.7476985
26	0xbf7144c7	-0.9424557
27	0xbf822c4c	-1.0169768
28	0xbf64068a	-0.8907248
29	0xbf68ea8b	-0.90982884
30	0xbf554507	-0.8330845
31	0xbf44c4be	-0.76862705
32	0xbf3efd1a	-0.7460495
33	0xbfe6d944	-1.8035054
34	0xbf68f539	-0.9099918
35	0xbf441c7e	-0.76605976
36	0xbf5f2c4a	-0.87176955
37	0xbf481d4f	-0.7816972
38	0xbf4b0f0a	-0.7931982
39	0xbf50cb29	-0.8156
40	0xbf62ed71	-0.88643557
41	0xc0471ce9	-3.1111395
42	0xbf3e0192	-0.74221146
43	0xc0010fb1	-2.0165827
44	0xbf3c28fd	-0.73500043
45	0xbf6fa59e	-0.93612087
46	0xbf642f7d	-0.8913496
47	0xbf3d89e3	-0.74038523
48	0xbf701022	-0.93774617
49	0xbf58886b	-0.8458316
50	0xc082dcaf	-4.089439
51	0xbf699412	-0.9124156
52	0xbf62c97b	-0.88588685
53	0xbf65c73f	-0.8975715
54	0xc042a9b3	-3.0416076
55	0xbf657d43	-0.8964426
56	0xbf4e91c5	-0.80691177
57	0xbf46f010	-0.77710056
58	0xbf841f9b	-1.0322145
59	0xbf57ddef	-0.8432302
60	0xbf63c061	-0.8896542
61	0xbf4f9154	-0.8108113
62	0xbf852567	-1.0402039
63	0xbf3c98f3	-0.7367088

feature_extraction_layer.2.running_mean f4 [64]
0	0x3f291d0c	0.66059947
1	0x3ea27456	0.31729382
2	0xbf6af06a	-0.9177309
3	0x3e709392	0.23493794
4	0x401967d5	2.3969624
5	0x3e408b53	0.18803148
6	0xbf8819e8	-1.0632906
7	0xbf79827c	-0.9746473
8	0x3ebdce2c	0.3707136
9	0x3e074339	0.13209237
10	0xbe46263f	-0.19350527
11	0xbd4bdc2d	-0.049770523
12	0xbde5301f	-0.11190819
13	0xbe93c1b6	-0.28858727
14	0x3ec0b94f	0.3764138
15	0x3e8cb075	0.27478376
16	0xbcc9e921	-0.024647297
17	0x3e7cf28f	0.24701904
18	0x3f193ce3	0.5985853
19	0xbe3cd7b4	-0.18441659
20	0x3e969e63	0.29417714
21	0x3f04931e	0.51786983
22	0xbdf90f33	-0.12161102
23	0x40a188ea	5.047963
24	0x3e837a05	0.2567903
25	0x3fef3b33	1.8689941
26	0xbf051837	-0.51990074
27	0x3ee8591a	0.4538048
28	0x3f082a72	0.53189766
29	0xbdaaeb77	-0.083456926
30	0x3e8e3acf	0.27779242
31	0xbf03ba08	-0.51455736
32	0xbde99b0e	-0.114065275
33	0xbf75cab0	-0.960124
34	0xbfa39d42	-1.2782366
35	0xbf23728d	-0.63846666
36	0x3f003b77	0.50090736
37	0xbf15fe08	-0.58590746
38	0xbe86291c	-0.2620324
39	0xbda7a82e	-0.081863746
40	0x3f6a62c8	0.9155698
41	0x40130885	2.297395
42	0x3e5457b8	0.20736587
43	0x4011d818	2.2788143
44	0xbdd32c11	-0.103111394
45	0xbe0912ac	-0.13386029
46	0x3f1720f4	0.5903466
47	0xbf20e0fb	-0.6284329
48	0x3e320eb4	0.17388421
49	0xbe56ca96	-0.20975718
50	0x401c47ec	2.4418898
51	0x3d4c7111	0.049912516
52	0xbe6f594c	-0.23373908
53	0x3f173196	0.5906004
54	0x3ffa33c5	1.9547049
55	0x3e9bd638	0.30436873
56	0xbdd02b47	-0.101645045
57	0xbcf47976	-0.029843073
58	0xbf01a775	-0.50646144
59	0xbf6e9a94	-0.9320462
60	0xbc5cb254	-0.013470251
61	0xbf75fbbb	-0.96087235
62	0xbe1b6e32	-0.15178755
63	0xbf4c5571	-0.79817873

feature_extraction_layer.2.running_var f4 [64]
0	0x3f97e488	1.1866617
1	0x402180f7	2.5234964
2	0x3ff63aae	1.9236658
3	0x3ff54fa5	1.916493
4	0x406c6447	3.6936204
5	0x4020bf5a	2.5116792
6	0x4014a13d	2.3223412
7	0x401d517f	2.4580991
8	0x40434990	3.051365
9	0x40821ef5	4.066279
10	0x4000a372	2.009976
11	0x4038a47d	2.8850396
12	0x3f9c640a	1.221803
13	0x4080c418	4.023937
14	0x3faf95fb	1.3717645
15	0x3ff871a8	1.9409685
16	0x402750ff	2.6143186
17	0x3ffaaa22	1.958317
18	0x3fabb0df	1.3413352
19	0x40225571	2.536465
20	0x40404008	3.0039082
21	0x3fd54714	1.6662316
22	0x4027e787	2.6235063
23	0x41553f0c	13.327892
24	0x40942324	4.6292896
25	0x4046b2ec	3.1046705
26	0x3fc09792	1.5046256
27	0x404d90e2	3.211968
28	0x400edc6b	2.2322032
29	0x406d623d	3.709121
30	0x40174abf	2.3639371
31	0x3fc8bc8a	1.5682538
32	0x401725a0	2.3616714
33	0x41434856	12.20516
34	0x41248f34	10.284962
35	0x408f4172	4.476739
36	0x3fb3bdef	1.4042338
37	0x3ff0f4af	1.8824672
38	0x400fb0bf	2.2451627
39	0x3f92c641	1.1466752
40	0x3fcb228a	1.5869915
41	0x40fdb2fe	7.9280996
42	0x3fca3a62	1.5799067
43	0x402b9fec	2.6816359
44	0x40769094	3.8525743
45	0x40860043	4.187532
46	0x40260fa7	2.5947053
47	0x3fb69fae	1.426748
48	0x3fb50da3	1.4144787
49	0x3f99198e	1.1960924
50	0x416a0389	14.625863
51	0x40229085	2.5400708
52	0x3fde2fc8	1.7358332
53	0x402a106b	2.657252
54	0x413df345	11.871892
55	0x4035f139	2.842848
56	0x3fc11761	1.508526
57	0x403f9119	2.993231
58	0x40095e43	2.1463783
59	0x400cb407	2.198488
60	0x4043ba3c	3.0582418
61	0x40181022	2.3759847
62	0x4039d291	2.903477
63	0x40044090	2.0664406

dense_layers.0.1.weight f4 [64, 64]
0	0xbdfb9c21	-0.122856386
1	0xbe60424b	-0.21900289
2	0xbb27b0ed	-0.0025587634
3	0x3e5f1788	0.2178632
4	0x3ed99416	0.42495793
5	0x3dc3e442	0.09565021
6	0xbd2018ee	-0.039086275
7	0x3d76d8bb	0.060265284
8	0x3cf3a46c	0.029741488
9	0x3d5f0a47	0.05445316
10	0xbdad2e4c	-0.08456096
11	0x3d5ea003	0.054351818
12	0x3d711a5b	0.058863025
13	0x3d9b8590	0.075938344
14	0xbda78c66	-0.08181076
15	0x3e32a83f	0.17446993
16	0x3d55ed9a	0.052228548
17	0x3e266e71	0.16253068
18	0xbdccbc93	-0.09996905
19	0xbe01f23a	-0.12690058
20	0xbdf0ceec	-0.11758217
21	0xbe6409b7	-0.22269331
22	0x3dae92f7	0.08524125
23	0xbd5b1b5e	-0.053492896
24	0xbe5a15f8	-0.21297443
25	0x3ed83505	0.4222795
26	0xbca0f132	-0.01964626
27	0x3e16ba71	0.14719559
28	0x3cd23f81	0.025665047
29	0xbe1778d1	-0.14792182
30	0x3e127c58	0.14305246
31	0x3db3eff7	0.08786004
32	0x3d6abbf0	0.057308137
33	0x3ec1a460	0.3782072
34	0x3e09e92a	0.13467851
35	0x3d75522a	0.05989281
36	0x3cd87976	0.026425105
37	0x3d8ca7b2	0.06867923
38	0xbdc1cf1c	-0.09463331
39	0x3de36a09	0.11104209
40	0x3e412f89	0.1886579
41	0xbb7b1e69	-0.0038317686
42	0x3e2d8ef7	0.16949068
43	0x3acc564f	0.0015589687
44	0xbd4797d4	-0.04872878
45	0xbc97ec93	-0.018545425
46	0xbe0e4077	-0.13891779
47	0x3e45b97e	0.19309041
48	0xbd753576	-0.059865437
49	0x3df1f7e1	0.11814857
50	0xbe570887	-0.20999347
51	0xbe40c7f7	-0.1882628
52	0x3e2c040a	0.16798416
53	0x3e0f381a	0.13986245
54	0x3d070c7a	0.032970883
55	0x3b28eede	0.0025777142
56	0xbd95a536	-0.07306902
57	0x3e27d13a	0.16388407
58	0x3d9288e1	0.07155014
59	0x3d238af4	0.039927438
60	0xbdbb976c	-0.09159741
61	0x3e5ba3aa	0.21449152
62	0x3c9445cb	0.018099686
63	0x3d6f3cd7	0.05840763
64	0x3c215ac4	0.0098483
65	0xbd902619	-0.070385166
66	0xbdc6f0ba	-0.09713884
67	0xbdf850cf	-0.12124788
68	0xbbbe6a21	-0.0058109914
69	0xbd62e8ef	-0.055397924
70	0xbdb5452d	-0.08851085
71	0xbd238ea1	-0.039930943
72	0xbe3d4965	-0.18485029
73	0x3df64a92	0.12025942
74	0xbd5947ee	-0.053047113
75	0xbcb76e84	-0.022391565
76	0xbdffc89d	-0.12489436
77	0xbe0a78ec	-0.1352269
78	0x3e3014ed	0.17195483
79	0x3d8f77b5	0.07005254
80	0xbd2f491c	-0.042794332
81	0x3892b9ba	6.996417e-05
82	0x3d47e2e8	0.04880038
83	0xbd027301	-0.031847958
84	0xbde66577	-0.11249822
85	0xbdcbd8de	-0.099534735
86	0x3de9b509	0.11411483
87	0x3c2b4771	0.010454045
88	0x3c97fe52	0.018553887
89	0xbe9c6e2e	-0.3055281
90	0x3e261c3a	0.16221705
91	0x3d8478a5	0.064683236
92	0x3dde6e6e	0.108609065
93	0xbd6cbba5	-0.05779614
94	0x3e731cf5	0.23741515
95	0xbc53a9c5	-0.012918894
96	0xbd929c27	-0.0715869
97	0xbbe5f00f	-0.0070171426
98	0xbd87f7cc	-0.066390604
99	0x3d379ec6	0.044829153
100	0x3d41131c	0.047137365
101	0x3d2980a7	0.041382458
102	0x3e4098c1	0.18808271
103	0xbcb09129	-0.021553593
104	0x3cff0ea8	0.031134918
105	0x4067ab67	3.6198366
106	0x3cee28b4	0.029072143
107	0x3dede5b0	0.11616075
108	0xbbece366	-0.0072292564
109	0x3d5e2295	0.0542322
110	0xbe19f6a7	-0.15035497
111	0xbd717b8d	-0.058955718
112	0x3d07b946	0.033135675
113	0xbd649cb6	-0.055813514
114	0xbed00b46	-0.406336
115	0xbd7f3d82	-0.062314518
116	0xbdd6bfef	-0.10485827
117	0x3db9cc2e	0.09072147
118	0xbea97dbd	-0.33103743
119	0x3e19ac03	0.15007024
120	0xbe04c0bc	-0.12964147
121	0xbd4cff64	-0.050048247
122	0xbd9c4c81	-0.076317795
123	0x3e835828	0.25653195
124	0x3b58a508	0.003305735
125	0xbe0c704f	-0.13714717
126	0x3cdd6a26	0.027028155
127	0xbd369257	-0.044573154
128	0xb6cb7c05	-6.064309e-06
129	0x3c5e0421	0.013550789
130	0xbde43e8f	-0.111447446
131	0xbd2f98d1	-0.042870346
132	0x3d0aa7e3	0.033851516
133	0xbda918e8	-0.082567036
134	0x3c1ce81d	0.0095768245
135	0xbda8217b	-0.08209511
136	0xbe02a0f3	-0.1275671
137	0x3c9eaf59	0.019370722
138	0xbbe5c489	-0.007011954
139	0x3cccca00	0.024998665
140	0xbea7cd05	-0.32773605
141	0xbe1a2c64	-0.15055996
142	0xbe75b127	-0.2399336
143	0xbe4c4eb5	-0.199519
144	0xbbe3c2ac	-0.006950697
145	0x3cb1ca29	0.021702843
146	0x3c14c3ef	0.009079917
147	0xbccffdef	-0.02538964
148	0x3e76984f	0.24081539
149	0xbd8d0216	-0.068851635
150	0xbcac0220	-0.020997107
151	0xbe6ef99f	-0.2333741
152	0x3d8bae8b	0.06820401
153	0xbe639006	-0.2222291
154	0x3ea64653	0.32475528
155	0x3e9ec7e7	0.31011888
156	0xbe1ab8cc	-0.15109557
157	0x3edf69df	0.4363546
158	0x3d632e8d	0.055464316
159	0x3cdc34d7	0.026880665
160	0xbd263e7b	-0.04058693
161	0xbde1b0a2	-0.11020018
162	0x3dcffb82	0.10155393
163	0xbd565669	-0.0523285
164	0x3b8198af	0.003954969
165	0x3d9e02a0	0.077153444
166	0x3e91e8cf	0.2849793
167	0xbca8c227	-0.020600392
168	0xbcd89f88	-0.026443258
169	0x3f89f23e	1.0777051
170	0x3d169a01	0.036767963
171	0x3d7f3860	0.062309623
172	0x3dbecff7	0.0931701
173	0xbe2bb8a8	-0.1676966
174	0xbbc9f903	-0.0061637177
175	0x3d37f0f8	0.04490754
176	0x3e43f650	0.1913693
177	0xbccd99c5	-0.025097737
178	0xc02ac9bb	-2.6685627
179	0xbe0dd2aa	-0.13849893
180	0xbd1a1a35	-0.03762265
181	0x3e41a4b3	0.18910484
182	0x3edbcac6	0.4292814
183	0x3e8fe901	0.28107455
184	0x3d160801	0.036628727
185	0xbe383dc6	-0.17992315
186	0x3d264d95	0.04060133
187	0x3cbbf79e	0.022945222
188	0x3e3216f3	0.17391567
189	0xbd7ac770	-0.061225355
190	0xbbb16f88	-0.005414907
191	0x3bb9d939	0.005671647
192	0x3d6dac23	0.05802549
193	0x3d92d5a2	0.071696535
194	0xbe1c940a	-0.15290847
195	0x3da98b37	0.08278506
196	0x3c37d29e	0.011219649
197	0x3cf229e4	0.02956099
198	0xbdd84acb	-0.105611406
199	0x3e116fec	0.14202851
200	0x3d9ea9cb	0.07747229
201	0x3d5a1fb5	0.053252894
202	0xbd2ca083	-0.042145263
203	0x3da26927	0.079302125
204	0x3da2ef87	0.079558425
205	0xbdbe16b0	-0.09281671
206	0xbe01c138	-0.12671363
207	0xbe094560	-0.1340537
208	0xbda609ca	-0.08107336
209	0x3d5f6188	0.054536372
210	0xbd2ef4d7	-0.042713966
211	0xbda9f069	-0.08297808
212	0x3d920346	0.071295306
213	0x3d67b597	0.056569662
214	0x3dedba9f	0.11607861
215	0x3e454298	0.19263685
216	0xbcb7d8c8	-0.022442237
217	0xbec8f807	-0.3925173
218	0x3d7dca67	0.061960604
219	0xbd13fb48	-0.036128312
220	0xbe1c244c	-0.15248221
221	0xbdaff1bb	-0.08591028
222	0x3d63fc53	0.055660557
223	0x3d7506d8	0.05982098
224	0x3ce6f719	0.028193997
225	0xbe3cf048	-0.18451035
226	0xbd86f1d9	-0.065890975
227	0xbcb6544d	-0.022256995
228	0x3c65938c	0.014012229
229	0xbd109ec6	-0.03530767
230	0x3d876178	0.066103876
231	0xbd1eb01b	-0.038742166
232	0x3ddd9e72	0.10821237
233	0x403f2248	2.9864674
234	0x3db3bba0	0.08776021
235	0xbd7d5a13	-0.06185348
236	0xbb21d701	-0.0024694803
237	0xbdbec563	-0.09314992
238	0x3d842db5	0.064540304
239	0xbd787ef0	-0.060667932
240	0x3e1aca0b	0.15116136
241	0xbce4a5c7	-0.02791108
242	0x3ee94b40	0.45565224
243	0xbd87d609	-0.06632621
244	0xbd27cb78	-0.040965527
245	0x3dbd45a8	0.092418015
246	0xbe8bb932	-0.2728973
247	0xbe0b0f56	-0.13580069
248	0x3d1f56ca	0.038901128
249	0xbd321c91	-0.043484274
250	0xbd9f4cca	-0.07778318
251	0x3dc20550	0.094736695
252	0xbdcd2179	-0.1001615
253	0x3cef9f21	0.029250683
254	0xbd982333	-0.07428589
255	0xbd435aee	-0.04769414

dense_layers.0.1.bias f4 [64]
0	0x3b8949b6	0.004189695
1	0x3e009efd	0.12560649
2	0xbd81d9d6	-0.06340377
3	0xbdbaf3cc	-0.09128532
4	0xbd05bda3	-0.032651555
5	0xbdadea0b	-0.08491906
6	0xbde4faf0	-0.11180675
7	0xbdcc87cb	-0.09986838
8	0x3d632ecb	0.055464547
9	0xbdaf858b	-0.08570393
10	0xbe04a77e	-0.12954518
11	0x3d56679f	0.052344915
12	0x3c61b0ea	0.01377509
13	0xbda98dc8	-0.08278996
14	0xbccc35a9	-0.02492793
15	0xbd96b3fa	-0.073585466
16	0x3ce977cd	0.028499508
17	0x3c9fd3d2	0.019510183
18	0x3b6e71bc	0.003638371
19	0x3d543042	0.051803835
20	0xbd9b5722	-0.07584979
21	0x3c863971	0.016384812
22	0xbca6ff35	-0.020385364
23	0x3d5c3f8e	0.053771548
24	0xbdcc7387	-0.099829726
25	0x3cf5255e	0.029925045
26	0xbdb46ca9	-0.08809788
27	0xbddd54a5	-0.1080716
28	0xbde616b2	-0.112347975
29	0xbc8a9877	-0.016918404
30	0xbdeb4485	-0.114876784
31	0x3d8074cd	0.06272278
32	0x3c8fb7d5	0.017543713
33	0x3dbfbfe4	0.09362772
34	0x3d2bafb1	0.0419156
35	0xbde15b77	-0.11003774
36	0xbd9d01cd	-0.07666359
37	0xbdba56b9	-0.09098572
38	0x3cfee055	0.03111283
39	0x3da6624e	0.08124219
40	0x3df7b95a	0.120959
41	0xbd23055a	-0.039800026
42	0xbbc4f530	-0.006010674
43	0x3e16e476	0.14735588
44	0x3dee865f	0.11646723
45	0xbe01c6a1	-0.12673427
46	0x3de99596	0.114054844
47	0xbd35ff31	-0.044432823
48	0x3e000cd2	0.1250489
49	0xbc71e3ac	-0.014763754
50	0x3dab6042	0.08367969
51	0xbb9db22c	-0.0048124995
52	0x3ddba777	0.10725301
53	0xbde3faec	-0.11131844
54	0xbd9cc119	-0.07654018
55	0x3dae76a9	0.085187264
56	0x3e80226f	0.2502627
57	0xbdb12920	-0.08650422
58	0xbdc3942d	-0.09549747
59	0x3da46626	0.08027296
60	0x3b3c574b	0.0028738554
61	0xbc82ed76	-0.01598237
62	0x3be9f6c8	0.0071400143
63	0x3c55c44b	0.013047288

dense_layers.0.2.weight f4 [64]
0	0x3ea2e46d	0.318149
1	0x3f9706e2	1.1798975
2	0x3f245afe	0.64201343
3	0x3f4bdbb7	0.79632133
4	0x3f080a3f	0.53140634
5	0x3e7a977e	0.24471852
6	0x3f822ddf	1.0170249
7	0x3d0b6ed6	0.03404125
8	0x3e34cf7d	0.17657275
9	0x3f4218c1	0.7581902
10	0x3f8a0c83	1.0785068
11	0x3f80b3c9	1.0054866
12	0x3e8ac17c	0.27100742
13	0x3fc3e881	1.530533
14	0x3e8d2301	0.27565768
15	0x3f3460a2	0.7045995
16	0x3e971e11	0.29515126
17	0x3e8d3138	0.27576613
18	0x3eecd843	0.46258745
19	0x3ec2f52c	0.38077676
20	0x3f4b7ab1	0.7948409
21	0x3f1a32e2	0.6023389
22	0x3f3664b9	0.7124744
23	0x3e72db81	0.23716547
24	0x3e8b4984	0.27204525
25	0x3c11942c	0.008885425
26	0x3e8820b2	0.26587445
27	0x3eaa9329	0.333154
28	0x3eb74051	0.35791257
29	0x3f8bdd13	1.0926841
30	0x3db246b9	0.087048955
31	0x3e4d3bd4	0.20042354
32	0x3e62c8ad	0.22146864
33	0x3f70950b	0.9397742
34	0x3fd3986a	1.6530888
35	0x3e82621b	0.25465474
36	0x3f10de03	0.56588763
37	0x3f8c43e3	1.0958217
38	0x3f4ad699	0.792337
39	0x3f957fb5	1.1679598
40	0x3e09ec19	0.1346897
41	0x3f17519f	0.5910892
42	0x3e5730fd	0.21014781
43	0x3fcc2fe7	1.5952119
44	0x3e4fc422	0.20289662
45	0x3e99c0ac	0.3002981
46	0x3f0725af	0.52791876
47	0x3e8d993d	0.27655974
48	0x3dd2c830	0.10292089
49	0x3f6de5e1	0.9292889
50	0x3e9335d7	0.28752014
51	0x3e01dee4	0.12682682
52	0x3fae4cdf	1.3617209
53	0x3eb7b2cb	0.35878596
54	0x3ec86338	0.39138198
55	0x3e57b7da	0.21066228
56	0x3f7d127d	0.98856336
57	0x3e878432	0.26468045
58	0x3e73c494	0.23805457
59	0x3e7981af	0.24365877
60	0x3e5a487a	0.2131671
61	0x3fffe8d7	1.9992932
62	0x3f2d3e35	0.67673045
63	0x3ea29b42	0.31759077

dense_layers.0.2.bias f4 [64]
0	0xbf218c1c	-0.63104415
1	0x3e9c8135	0.30567327
2	0x3def88d4	0.1169602
3	0x3e164b3d	0.14677139
4	0xbf080885	-0.53138
5	0xbef95d54	-0.48704016
6	0xbf3e60d3	-0.7436649
7	0xbd7c01e9	-0.06152526
8	0xbf27ee7d	-0.6559828
9	0xbfa0e814	-1.2570825
10	0xbfd88c48	-1.691781
11	0xbf124a85	-0.5714496
12	0xbf0aef62	-0.5427152
13	0xbf64fb5d	-0.8944605
14	0x3def3bf4	0.11681357
15	0xbf34c71f	-0.70616335
16	0xbee4ed5b	-0.44712338
17	0xbf15476e	-0.5831212
18	0x3dc6b852	0.09703125
19	0xbf2f3d42	-0.68452847
20	0xbf3b9947	-0.7328076
21	0xbe2877f5	-0.1645201
22	0xbf3458c9	-0.70447975
23	0xbf294874	-0.6612618
24	0xbedb8fd8	-0.42883182
25	0xbd0fe93f	-0.03513455
26	0xbef5f281	-0.48036578
27	0xbf42211f	-0.7583179
28	0xbea854e7	-0.32877275
29	0xbf234fa6	-0.6379341
30	0xbf3156e8	-0.69273233
31	0xbf10591f	-0.5638599
32	0xbebd3b9b	-0.36959538
33	0x3e5bebf3	0.21476726
34	0x3e9d170f	0.30681655
35	0xbec2c0f1	-0.38037828
36	0x3e3a4810	0.18191552
37	0xbf4a13c3	-0.78936404
38	0xbfafed2c	-1.3744254
39	0xbe7cb6a2	-0.24679044
40	0xbf2bc62f	-0.6709928
41	0xbf669eef	-0.90086263
42	0xbf5b33dd	-0.8562601
43	0x3ed76786	0.4207117
44	0xbf0714d4	-0.52766156
45	0xbf0b636d	-0.54448587
46	0xbf4f05f2	-0.80868447
47	0xbf27d4fc	-0.65559363
48	0xbf079c89	-0.5297323
49	0xbeff4cf7	-0.49863407
50	0xbf0e9f43	-0.55711764
51	0xbf102c1e	-0.5631732
52	0xbf8ae090	-1.0849781
53	0xbf1d9937	-0.6156191
54	0xbf2bba28	-0.67080927
55	0xbf097dd4	-0.53707623
56	0xbf1d9548	-0.6155591
57	0xbee86472	-0.45389134
58	0xbeb23207	-0.34803793
59	0xbf17f0cc	-0.593518
60	0xbf18cfff	-0.59692377
61	0xbf58b98f	-0.8465814
62	0x3e874957	0.2642314
63	0xbf1a934a	-0.60380995

dense_layers.0.2.running_mean f4 [64]
0	0x3e632c2c	0.22184819
1	0x417541b2	15.328539
2	0x4087cab9	4.2434964
3	0x41478f74	12.472523
4	0x409114df	4.5337977
5	0x3fdc60f0	1.7217083
6	0x409e3051	4.943398
7	0x401b985a	2.4311738
8	0x3e72895f	0.23685215
9	0xc06e2ee6	-3.7216125
10	0xc114e348	-9.305489
11	0xc10c8f16	-8.784933
12	0x3ee6ae36	0.45054787
13	0x403ea06b	2.9785411
14	0xbfbf2a39	-1.493476
15	0xbea3a0d2	-0.31958634
16	0x4018952b	2.3841045
17	0x403eae59	2.9793913
18	0x413e091b	11.877223
19	0x4051b430	3.2766228
20	0x3ffce369	1.97569
21	0x3ec4ca56	0.3843562
22	0x40a4a992	5.1456995
23	0x3e1b12a4	0.1514383
24	0x40297d08	2.6482563
25	0x407a91ea	3.915156
26	0x4008201a	2.1269593
27	0x3fde8e68	1.7387209
28	0x4006b6bb	2.104903
29	0xc118ba0c	-9.545422
30	0xbf84b08d	-1.0366379
31	0x3fa2878e	1.2697618
32	0x3ed2c463	0.41165456
33	0x416ab680	14.669556
34	0x40965156	4.6974287
35	0x3dc4392d	0.09581218
36	0x3f4263de	0.75933635
37	0x409773e2	4.732896
38	0xc0293c37	-2.6443002
39	0x406e7dd1	3.7264292
40	0x3d7dc0ff	0.061951634
41	0x3b56dc35	0.0032785062
42	0xc0069d29	-2.1033423
43	0x4184dffd	16.60937
44	0x3ea929a0	0.3303957
45	0x3ff82d73	1.938887
46	0x405ad98c	3.419528
47	0x3f2d52f0	0.6770468
48	0xbf32ed74	-0.69893575
49	0xc02b850b	-2.6799953
50	0x3fda6aed	1.7063881
51	0xbfa4a4b5	-1.2862765
52	0x40d9f304	6.810915
53	0x3f95ca8c	1.1702437
54	0x40533437	3.300062
55	0x402186dc	2.5238562
56	0xc0380ddf	-2.8758466
57	0x4052bcea	3.2927804
58	0x3e931e27	0.28733942
59	0x4053d954	3.3101397
60	0x3fd28f53	1.6449989
61	0x41a3a1c9	20.453997
62	0xbee34c19	-0.44393995
63	0x4061f511	3.5305827

dense_layers.0.2.running_var f4 [64]
0	0x3d1a3733	0.0376503
1	0x42795657	62.334316
2	0x40bed9f0	5.9641037
3	0x422b9995	42.899982
4	0x40b213e3	5.5649276
5	0x3f360c57	0.7111258
6	0x40d9d135	6.806788
7	0x4006c98e	2.106052
8	0x3e8d7c5d	0.27633944
9	0x407200e9	3.7813056
10	0x41b514e7	22.635206
11	0x41ae79bb	21.809439
12	0x3d5ab2ca	0.053393163
13	0x40510d50	3.2664375
14	0x3f9d8cf0	1.2308636
15	0x400dc167	2.2149293
16	0x3fc2bcc5	1.5213858
17	0x40069e45	2.10341
18	0x4217ebfb	37.98045
19	0x4039b69a	2.90177
20	0x3f7a09ef	0.9767141
21	0x3f503e9c	0.81345534
22	0x41000659	8.00155
23	0x3d5cf2d0	0.0539425
24	0x401c911a	2.4463563
25	0x408a90ce	4.3301764
26	0x3fb3dd0d	1.4051834
27	0x3f765746	0.9622692
28	0x3fdabc0d	1.7088639
29	0x41ca665d	25.299982
30	0x3e51f485	0.20503433
31	0x3e945076	0.28967637
32	0x3e3774b5	0.17915614
33	0x426833f4	58.050735
34	0x40ee4a36	7.446559
35	0x3e96dd92	0.2946592
36	0x3fcd0510	1.601717
37	0x40ceb8c2	6.4600534
38	0x4015c6fa	2.3402696
39	0x40533edb	3.3007114
40	0x3e2f3142	0.17108634
41	0x3ef9f52f	0.48819873
42	0x3fa9a827	1.3254441
43	0x4292a992	73.33119
44	0x3d94fd52	0.072748795
45	0x3f780ec0	0.96897507
46	0x404a9013	3.1650436
47	0x3de0fb9f	0.10985493
48	0x3e4e7618	0.20162237
49	0x4006a790	2.1039772
50	0x3f25440c	0.64556956
51	0x3ed91c65	0.42404476
52	0x41400164	12.0003395
53	0x3f01772f	0.50572485
54	0x40423195	3.0342762
55	0x3fca5409	1.5806895
56	0x403543f9	2.8322737
57	0x40408564	3.0081415
58	0x3e3f1faa	0.18664423
59	0x403b0a88	2.9225178
60	0x3f54112e	0.82838714
61	0x42dedbab	111.42904
62	0x3ff3b999	1.9041015
63	0x4060d784	3.513154

prediction_layer.weight f4 [13, 64]
0	0xbd170eac	-0.036879227
1	0xbfaaa39d	-1.3331181
2	0x3c848291	0.01617554
3	0xbfaaf97e	-1.3357389
4	0x3cc0b885	0.023525486
5	0xbd5e0ef9	-0.054213498
6	0xbdcf31c7	-0.10116916
7	0xbe14ce41	-0.14531805
8	0xbd8c3ffa	-0.0684814
9	0x3f98bf5c	1.1933398
10	0x3fdaa8c6	1.7082756
11	0xbf91195d	-1.1335865
12	0x3e04c449	0.12965502
13	0x3f6df438	0.92950773
14	0xbe381e3a	-0.1798028
15	0xbeb15358	-0.346339
16	0xbd069070	-0.03285259
17	0xbe5bf407	-0.21479808
18	0xbf5fb6ae	-0.8738812
19	0x3d0656e4	0.03279771
20	0x3f298841	0.6622353
21	0xbd56bd39	-0.05242655
22	0xbe909cfe	-0.28244776
23	0x3d25d960	0.040490508
24	0xbe38c762	-0.18044809
25	0xbe3adca5	-0.18248232
26	0x3dfec9a5	0.124408044
27	0x3d2b49ca	0.041818418
28	0xbd87c3b0	-0.06629121
29	0xbf9ab9eb	-1.2087988
30	0xbebbe1d8	-0.36695743
31	0x3e192cc1	0.14958479
32	0x3e79c3e3	0.24391131
33	0xbfaececb	-1.3656858
34	0xbf4e6e44	-0.80637
35	0x3d70eef4	0.058821633
36	0xbea2531c	-0.31704032
37	0xbe9bc6d9	-0.30425146
38	0x3f1e5685	0.6185077
39	0xbe483bb2	-0.19554022
40	0x3cc57a7f	0.024106262
41	0x3e2b3ffc	0.16723627
42	0x3e6b369c	0.2297005
43	0xbfcc20e4	-1.5947537
44	0xbc41f49a	-0.011838103
45	0x3df16338	0.117865026
46	0xbe759b09	-0.23984922
47	0xbcd98f3d	-0.02655756
48	0xbd78c087	-0.060730483
49	0xbf196f85	-0.5993579
50	0xbd87bdc2	-0.0662799
51	0x3da5d9ce	0.080981836
52	0xbe8ef2a8	-0.27919507
53	0xbe6dd7f9	-0.23226918
54	0x3b7bbe08	0.0038412828
55	0xbdfc6277	-0.12323468
56	0xbf192cd8	-0.5983405
57	0x3d0381d0	0.03210622
58	0xbce02aa9	-0.027364092
59	0xbe695c45	-0.22789104
60	0xbdf2ca74	-0.11855021
61	0x401071eb	2.256953
62	0x3e5903e1	0.21192886
63	0xbe4e2982	-0.20133021
64	0xbe174753	-0.14773302
65	0xbf83fcae	-1.0311487
66	0xbf0bb945	-0.54579574
67	0xbf69b71a	-0.91295016
68	0xbdfc2178	-0.12311071
69	0xbde6600c	-0.11248788
70	0xbd9c951e	-0.07645629
71	0xbdfaead7	-0.122518234
72	0xbcfb9ea2	-0.03071529
73	0x3f6e9944	0.93202615
74	0x3fc8d4a9	1.5689899
75	0xbf5bbde3	-0.8583662
76	0xbc904938	-0.017613038
77	0x3f951540	1.164711
78	0x3e41edf7	0.18938433
79	0xbea14762	-0.31499773
80	0xbdc1530c	-0.09439668
81	0xbdcded27	-0.10054999
82	0xbf2d6ed1	-0.6774722
83	0xbc81c571	-0.015841218
84	0x3e9859dc	0.29756057
85	0xbe3a8a23	-0.18216757
86	0xbea12529	-0.31473663
87	0xbdd842ff	-0.105596535
88	0x3e16bbac	0.14720029
89	0xbe89bd5e	-0.26902288
90	0xbd08bf65	-0.033385653
91	0xbd021ed3	-0.031767678
92	0xbdd07b94	-0.10179821
93	0xbf641c94	-0.89106107
94	0xbe2a6021	-0.16638233
95	0xbd3eddc0	-0.046598196
96	0x3e5142ec	0.20435685
97	0xbf7cb8fd	-0.9871977
98	0xbf4ce601	-0.8003846
99	0x3d644099	0.055725668
100	0x3da511d5	0.08060042
101	0xbe309e40	-0.17247868
102	0x3f7008f5	0.9376367
103	0xbe0503c5	-0.12989719
104	0x3de71088	0.1128245
105	0xbc7a2c21	-0.01526931
106	0x3e125d1a	0.14293328
107	0xbfa19f87	-1.2626809
108	0xbd06c231	-0.03290004
109	0x3e56caec	0.20975846
110	0xbeae3821	-0.34027198
111	0xbc44c8f2	-0.0120108
112	0xbd6e8610	-0.05823332
113	0xbf3d26f0	-0.7388754
114	0xbe1180e8	-0.1420933
115	0x3caeb85c	0.021328144
116	0xbdbf6389	-0.09345157
117	0xbe60ac11	-0.21940638
118	0x3ea2956b	0.31754622
119	0xbd699cf2	-0.05703444
120	0xbf043929	-0.5164972
121	0x3de8ac83	0.11361029
122	0x3e0c3152	0.13690689
123	0x3e325edc	0.17418998
124	0xbc888eec	-0.016669713
125	0x40059260	2.087059
126	0x3e1507fa	0.14553824
127	0xbd6abe4e	-0.057310395
128	0xbdef9e5f	-0.11700129
129	0xbf18ee10	-0.59738255
130	0xbfcdb040	-1.6069412
131	0xbecd3f91	-0.4008756
132	0xbdb4aae7	-0.088216595
133	0xbd876395	-0.06610791
134	0xbe6b09cb	-0.22952954
135	0xbf1b0196	-0.60549295
136	0x3d624cfb	0.055249196
137	0x3dab5a80	0.08366871
138	0x3f292c16	0.66082895
139	0xbf2bc8cc	-0.67103267
140	0x3db9f46b	0.09079822
141	0x3ea9d44a	0.33169776
142	0xbf6263bc	-0.8843343
143	0xbee1e06c	-0.44116533
144	0x3c4d16cf	0.012517645
145	0xbe9d985c	-0.30780303
146	0xbeef6a6d	-0.46760884
147	0xbdb85d66	-0.09002189
148	0xbe1c8b76	-0.15287575
149	0xbed819d0	-0.42207193
150	0xbebd0414	-0.36917174
151	0xbea2d0bb	-0.31799874
152	0xbecd28bb	-0.40070137
153	0xbe54370d	-0.20724125
154	0xbd4eef6a	-0.05052129
155	0x3cb0b2e3	0.021569675
156	0xbdfe529d	-0.12418101
157	0xbf1921ce	-0.59817207
158	0xbdd80e23	-0.10549571
159	0xbd96c99f	-0.07362675
160	0x3d9e445c	0.07727882
161	0xbf3404f1	-0.7032004
162	0xbfcf288a	-1.6184247
163	0x3dbef8d8	0.09324807
164	0x3f1292da	0.5725533
165	0xbe26538a	-0.16242805
166	0x3dbffd59	0.09374494
167	0xbf5df3d8	-0.867002
168	0x3c1dc4ed	0.00962947
169	0xbe859dd9	-0.2609699
170	0xbe1ec4c4	-0.15504748
171	0xbf391c5c	-0.723089
172	0x3e588e88	0.21148121
173	0xbc75fd20	-0.015013963
174	0xbe086314	-0.13319045
175	0x3e0c4de3	0.13701586
176	0xbe03956d	-0.1284997
177	0xbf92efd6	-1.1479442
178	0xbd909eca	-0.070615366
179	0x3ce30faa	0.02771743
180	0xbe88d981	-0.26728442
181	0xbe8fa2a9	-0.28053787
182	0x3d1069e1	0.035257224
183	0xbe92d3e6	-0.2867729
184	0xbf3077da	-0.6893288
185	0xbe27ed83	-0.16399197
186	0x3e91c8f0	0.28473616
187	0xbd6017d1	-0.054710213
188	0xbe899826	-0.26873893
189	0x3fad55f9	1.3541862
190	0x3fc31eaf	1.5243739
191	0xbe51b847	-0.20480452
192	0xbe1facc8	-0.15593255
193	0xbef70f94	-0.48254073
194	0xbf2a793e	-0.6659125
195	0xbe36129c	-0.17780536
196	0xbe673a4a	-0.2258083
197	0xbd09a5e4	-0.03360547
198	0xbf2029e8	-0.62563944
199	0xbe1bfbb0	-0.1523273
200	0xbe248fca	-0.16070476
201	0x3dece2f0	0.115667224
202	0x3f9bc8ff	1.2170714
203	0xbee68a27	-0.45027277
204	0xbc3a26a8	-0.011361755
205	0x3f5838a7	0.84461445
206	0x3db2a2e5	0.08722476
207	0xbee14170	-0.43995237
208	0xbd1881b1	-0.03723306
209	0x3a389a06	0.0007041994
210	0xbe3d20b2	-0.18469504
211	0xbd9643c6	-0.073371455
212	0x3ea20de8	0.31651235
213	0x3e21c919	0.15799369
214	0xbe9f344c	-0.31094587
215	0x3d2b8bc6	0.041881345
216	0xbdb97d2c	-0.09057078
217	0x3bf1b454	0.007376233
218	0xbd83960f	-0.06425106
219	0xbd962cb6	-0.07332747
220	0xbe5fa312	-0.2183955
221	0xbf09b5d2	-0.5379306
222	0x3e0a438a	0.13502327
223	0x3d8542ec	0.06506905
224	0xbe330948	-0.1748401
225	0xbeb0033f	-0.34377477
226	0xbf7b3927	-0.9813408
227	0xbc8c8e1a	-0.017157603
228	0xbea665bc	-0.32499492
229	0xbf304e14	-0.6886914
230	0x3f62e5a3	0.8863165
231	0xbf4b58c9	-0.7943235
232	0x3dd2f506	0.10300641
233	0xbea7eea7	-0.32799265
234	0x3e191371	0.14948823
235	0xbf191b97	-0.59807724
236	0xbd0aa405	-0.033847827
237	0x3cc9012a	0.024536688
238	0xbe197239	-0.14984979
239	0xbdfd8305	-0.123785056
240	0x3c9ad8d1	0.018902214
241	0xbf26b285	-0.6511615
242	0x3c1a9b0d	0.009436381
243	0x3df06332	0.1173767
244	0xbf777c9e	-0.96674526
245	0xbadcb60a	-0.001683892
246	0xbc37d300	-0.01121974
247	0xbce242ba	-0.027619708
248	0xbf3aa67f	-0.729103
249	0xbcead679	-0.028666722
250	0x3c54c540	0.012986481
251	0x3e6a5741	0.22884847
252	0xbc56c7cb	-0.013109158
253	0x3fb2d0f8	1.3970022
254	0x3ea576fc	0.3231734
255	0x3cc880ec	0.024475537

prediction_layer.bias f4 [13]
0	0x40196ddf	2.397331
1	0x3fc0189a	1.5007508
2	0x3f1d511f	0.61451906
3	0x3f893ad3	1.0721077
4	0x3cbaa6b7	0.022784574
5	0x3fd4b5d9	1.6617996
6	0x401c85a7	2.4456575
7	0xbeaab8b9	-0.33344057
8	0xbf46387c	-0.7742994
9	0xbeaf9ff0	-0.3430171
10	0x3f53749b	0.825998
11	0x3fcf66e4	1.6203275
12	0x3f6ed2a0	0.9329014
