Julian/training_torch_simple_mask_copy_split_model.pth (torch, 539169 bytes, 38 tensors)

feature_extraction_layer.1.weight f4 [128, 4, 25]
00000000: b5db 82bd ba20 373e 00b2 18bc f79d 82bd
00000010: 9d48 c4be 38e1 7d3e ac10 cebd e04a f83e
00000020: 6eb4 0bbf d1ee c13e a51f fa3e 6ba4 d5bc
00000030: 7319 acbd 8225 ddbe 36c7 7a3f cc27 d23e
00000040: cf1e e3be 3647 94bf 78bd 51bf 6f66 a2be
00000050: 85a0 8a3f 7c8e 8fbd 8334 acbf ceeb 80bd
00000060: 8cc6 21be 7ae5 ad3d a6f9 153f 6e00 433d
00000070: 05e5 8dbe d9f2 0040 6589 44bf 87af eabe
00000080: 7a61 dabe 39fc 4ebe 613e b43d 059a b8be
00000090: 5cab fa3c 717b d83d 6704 fd3d 889a cc3e
000000a0: b126 b03e 0930 093e fc75 c53e 2abe 513e
000000b0: 709c 073e 5f38 3d3e 9778 63be a4da 85bd
000000c0: fc2b 673e 0a4a 973e cb02 2e3d 8d1b bdbe
000000d0: ce48 be3e 0b15 0e3f 5fbb b0bf c0ad 393e
000000e0: 04e1 9f3e 4767 1fbe 9bee febd ad7d 96be
000000f0: ac24 babe b140 96be e75c e9be aec3 a4bd
00000100: 6b4f dfbe 0e9a 0fbf a74d 29be 4732 513e
00000110: f923 103f f06c cdbe 9eef efbe 2ebc eb3e
00000120: 4b6b ec3e 5210 fcbd 2a12 1ebe f309 6abd
00000130: 11ed 20bf 6474 05bf 3624 8fbe 6617 17bf
00000140: ff6f 033f 57b9 403e 7aba c83e a60c 603f
00000150: 157e 1e3e ff56 933e 2ee9 943e 746d a93e
00000160: 7aef 263d bbd0 c0be f964 973c 4118 f83e
00000170: 7ec6 aa3d 1913 8c3d aa4c 223f 3c08 6cbe
00000180: 2432 66bd 0924 3cbe de22 1bbe de13 883d
00000190: eaf4 bd3e 3561 9e3e 0c57 9cbe ea29 7f3e
000001a0: 4fd9 8cbe 3ac1 7e3e 0278 e8bd ecdd 263f
000001b0: 9380 d63e 989c 67bc f212 b7be 1c4b 79be
000001c0: cc03 31bf 7863 503d 33cb 8c3e 07ea d23f
000001d0: 801a 913e 59d9 c93d ce4a 103f 78c8 29bf
000001e0: 6bd5 3bbf 7dd9 0cbf 2df5 38bd 2630 623e
000001f0: 690d ed3d e722 09bc 92ea 0dbe ee55 cb3e
00000200: f2bf 6abe 48c1 733d aa1d 4f3e c8d8 023f
00000210: 5721 133e 2abb fdbe 8c64 dd3e 2902 373e
00000220: 3c98 a13e 0c4a fb3e 0705 01bf 3a3a 473f
00000230: 0c5a 323f 2a77 463f ebc0 cfbe 69dc 91be
00000240: 5839 473d 24ae 903d 82c2 a53e 4e47 083f
00000250: f89e 163e debb 9dbd 3893 2bbf f63e b3be
00000260: 6e3b c6bd 434b eb3e d03e 3c3f e19a d33d
00000270: a23b 14b8 5534 44bf 69ef babd 24d0 85be
00000280: 5065 6fbb 9a69 f1be 3c61 16bd e2cb ce3e
00000290: 5e21 5fbf c521 30c0 4c18 963d fb14 3f3e
000002a0: e8b1 10bf f2cc 253e 999e b93e a1bf 2bbf
000002b0: 8c49 62bf 8cbd b2bd 34b5 93be aa62 613e
000002c0: 989b 963e 33a8 913d f4d4 ccbe 60d6 4dbf
000002d0: 7b5b 12bf 683a 02bf 90a4 10be 4680 d43e
000002e0: 45e5 56bd b640 b93d c6d7 333f ee9a 5a3e
000002f0: 2128 ae3d 151f 4fbf daee 2f3f 9b02 e2bf
00000300: b6ec bcba 8f0e be3e a068 093f fb50 a23e
00000310: 32ab 173f e297 283f afc5 f6be 2642 7c3d
00000320: b36c 03be 6fc1 533d d4ad b1be 78ee 46bf
00000330: d5e0 96be 1e65 d8bc efa2 103e 901e 12bf
00000340: c6f2 28be 51e5 49be b5de 0a3f 8576 27be
00000350: 56b0 ecbc a3ce 09be 6d16 1fbf e14c 4bbe
00000360: 2f1d 893d 443a 013f c5ea abbe 6a9b 61bf
00000370: bb97 8b3c 80db 683f 3fe5 bdbe c2d5 c3be
00000380: cd80 bcbe a235 12be 8baf 673e 615b c83e
00000390: aa20 9e3d 2add 2240 6a26 92bf e7be 45be
000003a0: ae66 b4bd 9284 afbe ef80 9ebe 870d 2abc
000003b0: 6002 f2bd 512c 9c3e 42c1 fbbe 3799 d13e
000003c0: a0af 1ebf 9f25 51bd 7795 90be 6dcd e93e
000003d0: ad74 94bf 8e46 febe a515 71bc baa3 0b3f
000003e0: b98e ad3e ca43 36bf 2d9f 2a3f 78db 42be
000003f0: 22f7 163e 73e7 293f d770 ddbf db44 80be
-0.06389562 0.17883578 -0.009319782 -0.06377786 -0.3833665 0.24792945 -0.10061774 0.48494625
-0.5457219 0.37877515 0.48852268 -0.026079377 -0.084032916 -0.4319268 0.9796022 0.41045988
-0.44359443 -1.1584232 -0.8192973 -0.31718776 1.0830237 -0.070095986 -1.3453525 -0.06294976
-0.15798396 0.08491035 0.5858406 0.04760783 -0.2771379 2.0148222 -0.7677215 -0.45837042
-0.42652494 -0.20213403 0.0880096 -0.36055008 0.030599289 0.105704196 0.12354355 0.39961648
0.3440452 0.1339723 0.38566577 0.20482698 0.1324327 0.18478535 -0.2221397 -0.06535843
0.22575372 0.29548675 0.042483132 -0.36935082 0.3716492 0.5550086 -1.3807181 0.18132687
0.3122636 -0.15566741 -0.12447854 -0.29392758 -0.36356103 -0.2934623 -0.4557869 -0.080451354
-0.4361528 -0.56094444 -0.16533528 0.20429336 0.5630489 -0.40122175 -0.468625 0.46042007
0.46175608 -0.123078 -0.15436617 -0.057138395 -0.62861735 -0.52130723 -0.27957314 -0.5902008
0.5134277 0.18820702 0.3920477 0.875193 0.15477784 0.2877731 0.29084152 0.3309132
0.040755726 -0.3765925 0.018480765 0.48456004 0.08338641 0.0683958 0.6339823 -0.23050016
-0.05620016 -0.18373121 -0.1515002 0.06644414 0.37100917 0.30933538 -0.30535161 0.24918333
-0.27509543 0.24878398 -0.11351015 0.65182376 0.4189497 -0.014136456 -0.35756642 -0.24345058
-0.6914642 0.05087611 0.2749878 1.647767 0.2834053 0.09855909 0.5636414 -0.66321516
-0.73372525 -0.5501936 -0.045155693 0.2208868 0.115748234 -0.008370138 -0.13859013 0.39713997
-0.22924784 0.0595105 0.2022616 0.5111203 0.14368187 -0.49556857 0.43240774 0.17871918
0.31561458 0.4907993 -0.50398296 0.7782322 0.6966865 0.7752558 -0.40576872 -0.28488472
0.04863867 0.07064465 0.3237496 0.532338 0.1470908 -0.077018484 -0.67021513 -0.35008973
-0.09679304 0.45955858 0.73533344 0.10332275 -3.5341487e-05 -0.7664235 -0.09127695 -0.2613536
-0.0036528893 -0.4715088 -0.036713824 0.40389925 -0.8716029 -2.7520611 0.07328853 0.18660347
-0.56521463 0.16191462 0.36253813 -0.6708928 -0.88393474 -0.087275594 -0.28849185 0.22010294
0.29415584 0.071121596 -0.4000622 -0.80405235 -0.5717084 -0.5087037 -0.14125276 0.41504115
-0.052464742 0.09045546 0.7025112 0.21348163 0.08503748 -0.809068 0.68723834 -1.7657045
-0.0014413807 0.37120482 0.5367527 0.31702408 0.592456 0.65856755 -0.48197696 0.06158652
-0.12834434 0.051698145 -0.34702933 -0.77707624 -0.29468408 -0.026415404 0.14124654 -0.57077885
-0.1649886 -0.19716384 0.54246074 -0.16353805 -0.028892677 -0.13457732 -0.62143594 -0.19853546
0.066950195 0.5047953 -0.33577552 -0.8812777 0.017040124 0.9095993 -0.37088963 -0.38249022
-0.36817017 -0.14278272 0.22625558 0.39132217 0.07721074 2.5447488 -1.1417973 -0.19311105
-0.08808647 -0.3428083 -0.30957744 -0.010379202 -0.11816859 0.3050256 -0.49170882 0.40937206
-0.6198673 -0.05106127 -0.28239033 0.4566454 -1.1598107 -0.49663204 -0.014714633 0.545467
0.3389795 -0.7119719 0.6664913 -0.19029033 0.14742711 0.6636879 -1.7300061 -0.25052533

feature_extraction_layer.1.bias f4 [128]
00000000: bd2c d43d bf87 e5bd a563 b53d efc3 a33d
00000010: cbcd 963d 6b08 623c d3d4 1d3d 8a6d 253e
00000020: 69f7 c0bd 8d9d 8d3c c6a7 60bc e810 eabc
00000030: 6b32 323c 1f87 0b3c 8cd2 dbbd 335a a83d
00000040: 78dd 873d 572c db3d a8c4 513c a0c4 733d
00000050: 569b 963b 6610 e23d 57ca 47bc d9e1 8fbd
00000060: 1a6c 7fbd 1c1a 663d a4d8 2d3d f372 d3bd
00000070: a718 393d 7174 603d 5530 a7bd 0f34 403d
00000080: be9e 03bd 2878 103d faef 5f3d 75f2 d7ba
00000090: e883 2c3d c081 50ba 1ea7 443d a158 83bd
000000a0: 3af6 22be b6fc 9c3d 7322 a4bd 478d 09be
000000b0: bed1 6a3d fed0 0bbe dc04 023e 2a03 013d
000000c0: 6be8 4ebd 1704 36bd c112 123e 05cd 073d
000000d0: f05d 4fbc 310a c23d 65cd 15bd 69e8 c53b
000000e0: 63f7 243e 2147 683d 7632 363d e252 243c
000000f0: 25eb fabc ad93 a03c f358 e6bd 787b 3e3d
00000100: eecb ffbd ded3 863c 8b18 3e3d d515 80bb
00000110: 513f d5bc 1860 38be bb9f 29be c1cd 3a3d
00000120: a47b 043e 1af7 04be 4d76 573d 08cf dc3d
00000130: 4f3c b43e b991 6abc fb69 1dbd 8906 68bd
00000140: bb06 0ebe 41a1 6d3c e366 2b3d b28a 1b3d
00000150: 9cd5 183b ba5f 483d b844 003e a82d e03b
00000160: b216 98bd acdb 91bd 6dcc 84bd 51ab febd
00000170: a8d0 a03d 8d2d 093e d3b2 03bd a32c 0fbd
00000180: bad0 a5bd de9e 1d3d dba0 263c eace ca3c
00000190: 18b3 1abd f543 bdbd 7157 20bd 00db 02be
000001a0: b1dc bdbc 921e 21bd 92aa 9ebd 1885 c2bd
000001b0: 291a 1f3d b26f 0d3d ee47 5abd 7ad8 023e
000001c0: 2ac2 b8bd f36a 2d3d 31af cc3c 3fb2 843d
000001d0: cab5 e43c 11c1 823b 2798 ad3c be0c d03d
000001e0: 3d2b 753d 4193 25bd fd79 393b de52 d33d
000001f0: 98d8 c6bd dd30 5abd 9108 84bd 3990 933c
0.10360096 -0.11207532 0.08856896 0.07996356 0.07363471 0.013795952 0.038533043 0.16155067
-0.0942219 0.01728704 -0.013711875 -0.028572515 0.010876278 0.008516102 -0.10733518 0.08220329
0.06634039 0.107018165 0.012803234 0.059513688 0.004596154 0.11038284 -0.012194238 -0.07025499
-0.062358953 0.056177244 0.042442933 -0.10324659 0.045189526 0.054798547 -0.081635155 0.046924647
-0.03213381 0.03527084 0.05467222 -0.0016475456 0.042117983 -0.00079539046 0.048010938 -0.06413389
-0.1591424 0.07665388 -0.08014383 -0.134328 0.057328932 -0.13653943 0.12697166 0.031497158
-0.05051462 -0.044437494 0.14264967 0.033154506 -0.012656674 0.094746 -0.036572833 0.0060396683
0.16109996 0.05670846 0.044481717 0.010029526 -0.030629704 0.019601667 -0.112474345 0.046504468
-0.124900684 0.016458448 0.046410125 -0.0039088526 -0.026031168 -0.18005407 -0.16564839 0.04560638
0.1293779 -0.12984887 0.052603055 0.107816756 0.35202262 -0.01431697 -0.03843115 -0.056646857
-0.13869755 0.014503778 0.041846167 0.037974067 0.002332068 0.048919417 0.12526214 0.00684138
-0.07426204 -0.07121977 -0.064843036 -0.1243502 0.07852298 0.13396282 -0.032152962 -0.03495468
-0.08096452 0.038481586 0.010170187 0.024756867 -0.037768453 -0.092414774 -0.03914589 -0.12778854
-0.023176523 -0.039335795 -0.077473775 -0.09498042 0.038843308 0.03453035 -0.053291254 0.12777892
-0.09021409 0.042338323 0.024985882 0.0647931 0.027918715 0.0039903005 0.021190716 0.101586804
0.05985569 -0.040423635 0.002830147 0.1031854 -0.09709281 -0.053269256 -0.064469464 0.018013107

feature_extraction_layer.2.weight f4 [128]
00000000: e82f 3d3f a4a7 843f 0276 753f b80e 353d
00000010: 11ba b73e 6f8d ef3e 938e 263f 22a2 c33f
00000020: 1552 403f 65a6 4e3f 290b 963e 06d9 873f
00000030: 3443 5a3f 21cf 2b3f ae7c e73e b113 833f
00000040: 4f09 453f 5b93 4f3f 9062 893f 484c 903e
00000050: 29f9 fb3e 45f9 4c3f b359 2b3f 906a 033d
00000060: 4952 643f ed4e b53e 1398 0c3e 7ae8 4e3f
00000070: 94a0 f83d 5f66 5a3f f68e 063f d5ae 5d3f
00000080: 98d3 2d3f 4612 0d3f eb7d 023f 4b4c 8a3e
00000090: c923 c83f 353d 923f bed0 f03e 021d f03e
000000a0: 4932 9a3f 7789 063f 9c59 dd3e a64f 5a3f
000000b0: a3c3 cf3e eae3 903e dccb 7e3f 53ff fe3d
000000c0: 5492 793f 4849 c23e 1f70 573f aba7 013f
000000d0: 55a1 2f3f 069f 293f ee88 f33e f40c 123f
000000e0: 250d c13e 9aed 023f f0a1 693f d781 203f
000000f0: 1f62 753f ba40 143f d42e 723f eb41 7a3f
00000100: 817c 4e3f 809c 993f e3aa c63e d550 163f
00000110: 6034 863f fc1b 8c3e ac84 df3e ea0b 653f
00000120: 4ad7 273e 09f1 e23d 6af9 393f 4c3a 103e
00000130: cf0b 9d3f ba2f f43d 89d4 283f deaf ab3f
00000140: ef4d a23f 4dc0 213f a96c 753f ff40 b73e
00000150: 92ba 173f 5faf 503f 4043 d93e f9f3 fc3d
00000160: 094c 383f 912a 133f 09e5 923e 7b6f 133f
00000170: 4da6 c73e 46eb 323f b879 a13e 7e0e f53e
00000180: 5d4a 843f 5941 b43e efab fd3e e7eb 593f
00000190: 250e 7d3f 3ba2 283f 7d78 623f dc6d 2c3f
000001a0: 66e3 733f 894c 613f 43ea 493f 205c 183f
000001b0: e0ab 173f 02b1 2c3f fec7 173f 5b33 3b3f
000001c0: f7e3 a63f e8fa 233f f182 053f 27fd ba3f
000001d0: 4a73 773f 5d1b 773f 2d6b 093e 4aa2 443f
000001e0: 9a4f a33f d9dc 563f 26c2 503f f8b2 fb3d
000001f0: afda 883f 0fe0 1f3f 6ef0 3d3f df71 8d3f
0.73901224 1.036366 0.9588319 0.04420349 0.35884145 0.46787593 0.650613 1.5283854
0.7512525 0.8072265 0.2930539 1.0613105 0.85258794 0.6711293 0.4521231 1.0240384
0.7696733 0.8108422 1.0733204 0.28183198 0.49213532 0.80067855 0.66933745 0.032084048
0.8918806 0.35411778 0.13729887 0.8082348 0.12140003 0.85312456 0.5256189 0.865949
0.6790099 0.5510601 0.50973386 0.27011332 1.5635921 1.1424929 0.47034258 0.4689713
1.2046596 0.52553505 0.4323243 0.85277784 0.40578946 0.28298885 0.99529815 0.12451043
0.97488904 0.37946534 0.8415546 0.50646466 0.6860555 0.66258276 0.47565407 0.57051015
0.3770534 0.511438 0.9126272 0.6269812 0.95852846 0.57911265 0.94602704 0.9775683
0.8065873 1.2000885 0.3880225 0.5871709 1.0484734 0.273651 0.43655908 0.89471304
0.1639072 0.1108113 0.726462 0.14084738 1.2269229 0.119231656 0.659493 1.3413045
1.2680033 0.6318405 0.9586893 0.35791776 0.5926906 0.81517595 0.4243412 0.123512216
0.7199102 0.57486826 0.28690365 0.5759198 0.38994065 0.6989025 0.31538177 0.4786262
1.0335194 0.35206106 0.49545237 0.85125583 0.9884971 0.65872544 0.884651 0.6735513
0.9526886 0.8800741 0.7887308 0.5951557 0.59246635 0.6745759 0.5928954 0.7312524
1.3038319 0.6405473 0.52152926 1.4608506 0.9666029 0.9652613 0.1341979 0.76810133
1.2758667 0.83930737 0.81546247 0.12289995 1.0691737 0.6245126 0.7419499 1.1050376

feature_extraction_layer.2.bias f4 [128]
00000000: 4346 93bf c7cb 4dbf 2884 0fc0 8c4f d83e
00000010: 3285 cabf 5972 a6bf b9bb adbf 8e87 b4bf
00000020: c78a c5bf f4a7 d4bf 877d 8ebf 4fc4 8dbf
00000030: 50d0 d9bf 3f80 e7bf b34d 94bf f894 f0bf
00000040: 2ecb d0bf e713 c4bf 8ae7 00c0 536c 54bf
00000050: a0a6 babf c0bc d8bf 9814 8bbf e149 14be
00000060: f771 03c0 52ea 3ebf e6fc 02bf 3fbc aebf
00000070: 51bf e9be 0d69 a0bf 20e4 b3bf 5835 8abf
00000080: 15de aabf c476 8abf 6e2f 0bc0 f185 2ebf
00000090: b787 babf c123 c7bf 346d a5bf d744 c6bf
000000a0: 2fcd 89bf 6cb3 d5bf 45d6 94bf f285 f3bf
000000b0: a08e 63bf ade4 56bf d811 26c0 43a7 3fbf
000000c0: ad14 cabf 9477 a6bf 556d b9bf 4bfe a0bf
000000d0: 837b bfbf 1f6b 9dbf 287f 95bf daad 58bf
000000e0: f8fa 5abf a94b b8bf 0312 ecbf 0d16 9abf
000000f0: 14eb 0cc0 f077 d9bf a007 00c0 2912 03c0
00000100: b752 00c0 bef1 a5bf 8654 a1bf 2f81 26bf
00000110: de9e efbf e174 2ebf 02bf b8bf 3844 02c0
00000120: 5f0a 25bf efb9 0dbf 9d49 a9bf a9fb 01bf
00000130: 77d0 d6be 5d64 d7be b03a d4bf 08f2 fcbf
00000140: 3c29 c4bf e333 a4bf 8801 fdbe 6901 e0bf
00000150: d82e 8dbf 94c2 a4bf c431 aebf ae59 d1be
00000160: 5b27 9dbf af8d 4ebf c125 63bf fd22 c0bf
00000170: 7e43 99bf 66ac b7bf 94a4 3bbf 9a07 a4bf
00000180: c1f6 6cbe 22fd 71bf 5a98 4ebf 53be 17c0
00000190: 0b5e 11c0 d75b c6bf a6c6 aebf 896d e8bf
000001a0: 1fdf e4bf d668 f1bf ff34 c1bf 6101 8abf
000001b0: e913 e8bf 567e b1bf 6c19 adbf 0837 80bf
000001c0: 8d2e 21c0 8528 93bf 5358 cabf 49f7 d5bf
000001d0: 5c7d a9bf bf20 92bf 3983 08bf 249d dfbe
000001e0: 4d28 80bf 2bba eebf 7e4c a9bf c21d 12bf
000001f0: 9d76 8abf 7641 9cbf a84f 50bf a766 a5bf
-1.1505817 -0.80389065 -2.2424412 0.4224819 -1.5821898 -1.3003646 -1.3572913 -1.4103868
-1.5432976 -1.6613755 -1.1132058 -1.1075534 -1.7016697 -1.8086013 -1.1586212 -1.8795462
-1.6312006 -1.5318574 -2.014132 -0.8297779 -1.45821 -1.6932602 -1.086566 -0.14481308
-2.0538309 -0.74576294 -0.5116714 -1.3651198 -0.45653775 -1.2532059 -1.4053993 -1.0797529
-1.3349024 -1.0817494 -2.1747699 -0.6817313 -1.4572667 -1.5557786 -1.2923951 -1.5489758
-1.0765742 -1.669538 -1.162789 -1.9025252 -0.88889503 -0.8394268 -2.594839 -0.74864596
-1.578756 -1.3005242 -1.448649 -1.2577604 -1.4959568 -1.2298316 -1.167943 -0.84640276
-0.855392 -1.439809 -1.8442997 -1.2037979 -2.201848 -1.6989727 -2.0004654 -2.0479834
-2.0050485 -1.2964399 -1.260392 -0.6504087 -1.8720357 -0.68147093 -1.4433291 -2.0354137
-0.6446895 -0.5536184 -1.322559 -0.5077463 -0.4195592 -0.4206876 -1.658041 -1.9761362
-1.5325084 -1.2828335 -0.4941523 -1.750043 -1.102992 -1.287188 -1.3608937 -0.40888733
-1.2277635 -0.8068494 -0.8872948 -1.5010678 -1.1973722 -1.4349487 -0.73298 -1.281482
-0.23141004 -0.94526875 -0.8070122 -2.3709915 -2.271365 -1.5496777 -1.3654373 -1.8158427
-1.7880591 -1.8860118 -1.5094298 -1.0781671 -1.8131076 -1.386668 -1.3523383 -1.0016794
-2.5184662 -1.149674 -1.5808204 -1.671609 -1.3241382 -1.1416243 -0.5332523 -0.43674576
-1.0012299 -1.8650564 -1.3226469 -0.57076657 -1.0817448 -1.2207477 -0.81371546 -1.2921952

feature_extraction_layer.2.running_mean f4 [128]
00000000: 4d5b 22bd d07d 26bf 733d 81bf 21d7 72bd
00000010: ca24 e6be ce5f ec3e bf83 0dbf bb4a ef3f
00000020: e091 05bf 308c c1bf e720 34bb de94 bf3f
00000030: 864c adbf 0a97 88be c8d7 2a3f e560 f2bf
00000040: b35b 35bf ca7c 82be d62f a1be 3df9 d33e
00000050: 3072 c53d 2d0d 0abf 4ea3 ebbe 1203 d93d
00000060: 97c6 b0bf e16f 8dbd c746 cd3e c0ce f5be
00000070: bef7 1b3e c118 85be c21a 7b3e 71af 993d
00000080: 0081 1d3d b239 ff3e 862b cebe 3d9b 303f
00000090: d73a 5dbf 7083 e3be e359 4abe 15b7 e63c
000000a0: ee81 4e3f ef38 8c3f 6f0c 973d 6448 d6bf
000000b0: 3292 34be 1811 613d 95b5 ffbd 79e6 863d
000000c0: ff2b e4be 84a1 113e 6976 57bf 9be1 80be
000000d0: c141 adbe 522e 753e ddf6 3b40 7961 b33f
000000e0: 08fe eb3e 90ff 77bf be2b 3c3b d35c 573e
000000f0: 447b adbf 28ee ee3d 29af ccbf 14de 373d
00000100: f4fc 36be 73ca 4f40 116e 413e 3b64 fb3e
00000110: cd6e 5e3f 7907 a3bd 2936 3cbf ccb8 d1bf
00000120: 0484 87bc a8fc 433e f40f 74be dc46 92be
00000130: a90d d23d ba00 06bd 8f3c f33e b384 bebf
00000140: 099a 9ebe 989f 373e 1587 33bf e215 a83d
00000150: 6733 42be 4cb7 da3f fc31 53bd 2fb3 143b
00000160: 5323 c0be 5f1b 193e ec5b 943e 25c9 f0be
00000170: 510a 173f aa74 183e a5ab 3e3f 4b19 57be
00000180: a57e 7fbf 1e99 353f b7f6 16be 7aa8 d5bf
00000190: eb5d d3bf ed62 763f c61b a9bf d815 72bf
000001a0: d535 87bf b186 13bf bcdb 18bf 76a2 65bf
000001b0: 9491 023f d1c3 92be c246 edbe 8684 903f
000001c0: 0a76 ccbf db68 d73f 750c 1c3c 1172 e2be
000001d0: 4c30 c7be ad05 443e e22b 833e 84a6 abbd
000001e0: 9b51 2a40 6530 1c3f 3c9c 6a3e a596 cb3e
000001f0: b4da 593f b1ab 17bf 099c cf3e 2c79 e2bd
-0.039637852 -0.65035725 -1.0096878 -0.059287194 -0.44949943 0.46166843 -0.55279154 1.8694681
-0.5217571 -1.5120907 -0.0027485432 1.4967306 -1.3538978 -0.26677734 0.66735506 -1.893582
-0.70843047 -0.25485831 -0.31481808 0.4140109 0.0964092 -0.53926355 -0.4602303 0.10596289
-1.3810605 -0.06906105 0.4009306 -0.480093 0.15231225 -0.25995448 0.24521926 0.07504166
0.038453102 0.49848706 -0.4026758 0.68986875 -0.8641791 -0.44436216 -0.19760852 0.028163472
0.80667007 1.0954875 0.073754184 -1.6740842 -0.17633894 0.054947942 -0.12485806 0.06586928
-0.44564816 0.1422177 -0.84165055 -0.25172123 -0.3383923 0.23943451 2.9369423 1.4014121
0.46092248 -0.9687433 0.0028712596 0.21031503 -1.3553243 0.116665184 -1.5990955 0.044889525
-0.17869931 3.2467315 0.18889643 0.49099907 0.8688782 -0.0796041 -0.7352014 -1.638452
-0.016542442 0.1913935 -0.2383421 -0.28569686 0.10256512 -0.032715537 0.4750714 -1.4884247
-0.30976894 0.17931974 -0.70127994 0.08207299 -0.18964921 1.7087188 -0.05156134 0.002268981
-0.3752695 0.14951847 0.2897638 -0.4702846 0.59000117 0.14888254 0.7448066 -0.21005742
-0.9980262 0.70936763 -0.14742552 -1.669204 -1.6513036 0.962447 -1.3211601 -0.9456458
-1.0563303 -0.576274 -0.5971029 -0.8970102 0.51003385 -0.2866502 -0.46343046 1.1290443
-1.5973523 1.6828874 0.009524454 -0.4422765 -0.38904035 0.1914279 0.25619417 -0.0838137
2.6612308 0.61011344 0.22911161 0.3976337 0.8509934 -0.59246355 0.40548733 -0.11058268

feature_extraction_layer.2.running_var f4 [128]
00000000: 9dd8 b340 3439 fa40 898b ed40 8fbb f83f
00000010: 19ec 5340 9f5e 2740 0075 a840 4e08 0d41
00000020: 6cd1 b440 bb5c 1441 c374 5a40 445a f340
00000030: 244c c640 1762 9240 2fbe 7040 5b02 0a41
00000040: 7036 f540 455d a640 4e7c 1341 3cd8 0540
00000050: e620 9d40 3eea ba40 75f1 9140 6799 0c3f
00000060: cfe7 d840 50ff fd3f 3986 a33f 725a b940
00000070: a452 ee3f 8bf2 ee40 46cc 2d40 2a31 f840
00000080: b880 c040 ff13 af40 dc83 9f40 af1c 2e40
00000090: 53cd 0c41 1905 1f41 e292 4e40 c96d 2e40
000000a0: 36b1 1c41 0ebe 7740 41fc 9b40 bec5 ee40
000000b0: a117 5840 4a2d 3a40 3e47 dd40 7ceb 0d40
000000c0: adfb f440 323f 0b40 9592 ff40 a32e 6440
000000d0: b22c f240 df85 1941 9e22 e840 57ac bd40
000000e0: 4976 3640 320b a040 7177 d040 07ef ec40
000000f0: e874 0841 9ecf 6b40 749a e840 e621 0a41
00000100: 4657 e640 eeee c840 0d83 9340 cfef d140
00000110: 7ada 1041 d422 9540 dc41 4640 ccf7 f340
00000120: 9ec4 b93f 7677 c73f 1814 ef40 3770 cf3f
00000130: af73 5641 5c2f 753f 9ec6 a640 7ffd 0341
00000140: 5aae 1241 44e7 9040 60fc 2141 2c0f 2040
00000150: 22da 8f40 7c12 c340 6c30 5240 360e 853f
00000160: 8374 f440 0465 b940 75a4 2040 dd19 7740
00000170: fdff 2040 d17d d140 b889 4440 394d a740
00000180: 61eb 1c41 7d1b b440 f13b 7840 092a d840
00000190: d940 2a41 5c22 ab40 a688 d140 f353 fe40
000001a0: 0511 e340 16f5 1241 7f79 ce40 30b1 ef40
000001b0: 4525 8940 731f 0341 6897 9f40 8651 8d40
000001c0: 1b59 0141 e213 9440 cd83 7440 4eac e740
000001d0: 68e4 ec40 a9d3 c340 1b82 3c3f 7597 dc40
000001e0: 2d03 2041 0369 0041 702b 4e40 f31d 4240
000001f0: e560 1041 f91e 9540 403f ac40 3995 f240
5.620192 7.819483 7.423283 1.9432238 3.3112853 2.6151502 5.264282 8.8145275
5.650564 9.272639 3.4133766 7.6047688 6.1967945 4.574474 3.761608 8.625575
7.662895 5.1988854 9.217848 2.091323 4.910266 5.841094 4.5607247 0.54921573
6.778297 1.984354 1.2775337 5.7922907 1.861897 7.4671073 2.7155929 7.7560015
6.0157127 5.471191 4.984846 2.7205007 8.800128 9.938745 3.227715 2.7254508
9.793264 3.870975 4.8745427 7.4616385 3.3764422 2.9090142 6.9149466 2.2174978
7.655722 2.1757321 7.9866433 3.5653465 7.567956 9.595183 7.2542257 5.9272876
2.8509696 5.0013666 6.5145802 7.404178 8.528542 3.684547 7.268854 8.633276
7.1981535 6.279166 4.6097474 6.5605235 9.053339 4.6605015 3.0977697 7.6239986
1.4513128 1.5583332 7.471203 1.620612 13.403243 0.9577539 5.2117453 8.249389
9.167566 4.5282307 10.124115 2.500926 4.4953775 6.0960064 3.2842054 1.0394962
7.6392226 5.793581 2.5100377 3.8609536 2.5156243 6.5466084 3.0709057 5.2281766
9.807466 5.6283555 3.8786585 6.7551312 10.640832 5.3479443 6.5479307 7.9477477
7.0958276 9.184835 6.452331 7.4903793 4.2857995 8.195178 4.987232 4.4162016
8.084254 4.627427 3.8205445 7.2397833 7.4028816 6.1195874 0.73636025 6.8934884
10.000775 8.025638 3.2214012 3.033078 9.023656 4.660031 5.382721 7.5807157

conv_layers.0.1.weight f4 [128, 128, 3]
00000000: 4f4f c13d c34f bc3d 6901 3abe 7c70 02bd
00000010: 8bc7 16be c915 94be fa73 85be 899b b93d
00000020: 4ed0 9b3e ec76 bebd 1d58 e5be 48eb b1bd
00000030: d99c d3be eb8d f93d e796 fd3e 7eac 2a3e
00000040: 199c 7dbc a5a7 42be a9b7 2abe 923a b4be
00000050: 880a 81bf f7b7 f73e e99d d8bf 144b 32be
00000060: e7cc ea3e 85a8 47be b4b3 783e 0410 07be
00000070: c318 133f e1c1 2f3f d03e 92ba e808 333e
00000080: a48a 0bbf 35a8 35be 37de 833e a149 43be
00000090: b5ac 3d3d 8455 e1be 0407 0f3c 7ef2 90be
000000a0: d306 aabc 1d1f dbbd ceb6 173e cd58 383e
000000b0: 8e91 77be 4685 71bf 4220 0ebe 03c6 c63b
000000c0: e92d 153d d9eb 1bbd bfea cdbe 6c76 18be
000000d0: d981 a43d fd12 c4be a675 0fc0 ddf1 a7be
000000e0: 827a bebd 3832 213e 935f 683d 4963 e73d
000000f0: d971 17bf af5b d1bd 69a3 14be c336 69bd
00000100: f187 16bf ed21 733e 2278 45bc 90d3 6b3e
00000110: a043 08be eb10 013e eea8 443d 2bc2 d03b
00000120: 72d8 c03d 68ac 04bf 51b6 503f 5498 febc
00000130: 364f 7f3e 72da bf3e 8492 ad3d 7fd3 86bd
00000140: f00a d7bd bbc2 40bc fb02 e93e c584 ccbe
00000150: a015 563e a0ca 173b 91a9 973d 62a7 65bf
00000160: 6ba3 453e f914 d7be 664c 67bc 1f3b 1b3e
00000170: 4d8b 903d 3653 8ebf 7f2e 26be 8bb1 07be
00000180: 58b7 6bbc 6668 d1be 2ef3 e7be 50c5 303e
00000190: 1156 05bf 1cf4 dabe a2c9 20be 9671 6bbe
000001a0: dec2 55be 867f 883e f59c b1bd fdd1 2abc
000001b0: dd49 c63e 4e06 70bf d1dd 34bf 4daa c83f
000001c0: c513 18bf fdb1 533f 036a 16bf 2e35 8fbc
000001d0: dadb 3b3d 8e47 d6bd 45ce 113e b283 0dbd
000001e0: adbf 1f3e 4d5c b13f 7451 e8bf bc55 71bd
000001f0: 32c2 3b3d 12a7 06be e123 0f3f 1ebf cebd
00000200: 9622 bc3d 84da bdbf 0d0d 11bf 4644 06bf
00000210: 80c5 96bd bd65 a73b fd76 44bd 26a9 853d
00000220: 9c79 8cbd f8a1 07be f5ec 53bf 54b1 47be
00000230: 597b 79be 1478 66be 9e1a d8bd 0e49 793d
00000240: 2c38 6f3e cd92 a83d 345c c8be 0a72 b5bb
00000250: ab23 7dbe 26aa 1bbd 39da 003e dd07 63be
00000260: 0c1c 05bd 87ac 4dbe 053f 1cbe 1e29 153d
00000270: b61e c93e e894 3abf 9ae3 a2be cc20 813c
00000280: a3eb 0cbf 65e4 263f 09ff 093e 2b75 1fbe
00000290: 1ecb fabe a291 aabe 37ba f9bd f5b5 72bd
000002a0: 5e77 1d3e cf71 cc3d a8bc b9be 3471 23bf
000002b0: ad02 a1bd 0e2e d9bd fbec b43e ddd3 e93e
000002c0: fb0d 73bf 3521 52bd 2e49 a0bc 698d 413f
000002d0: 9890 54be 63bc 903c 3837 7dbd 0771 433f
000002e0: 3080 5b3e 0110 78be 4e6d 91bf 6b91 91be
000002f0: ba86 e8be b5d6 84bd 8614 0240 42a9 e23e
00000300: 699b bd3e a144 0abf 9055 a03e 8529 4bbf
00000310: bf32 d13d 2522 5d3d f982 a63e 68f7 a73c
00000320: 1564 123d 7428 063e a6d2 48be 6494 db3d
00000330: 4fe2 563e 44e3 15bf 54e9 d2bd 20c0 bfbb
00000340: 3761 05bd 22c7 d9be f4f8 303e 80ab c0be
00000350: 306c 8cbe 6560 1a3f 6faf b7bd 617e b7be
00000360: 8e8b 28be 07f3 ed3e 3ddc 673e 0ff3 5bbe
00000370: d9f0 ac3d aec6 4f3d e957 1f3f 5a84 45bf
00000380: 6d56 38bf bbcc 86be 4633 693c fb2c d4bd
00000390: 38f2 5f3e 6fc1 93bf 4f18 70be a7e1 de3c
000003a0: 0f0e b3bc cd9c d33c 29ff f2be e1b6 823e
000003b0: a133 2ebe 4f1e 5a3e 869d d0be d722 4e3f
000003c0: cb0e 18bd 4fe3 b13b 85f6 25be dd87 fe3d
000003d0: d8ee b1be 90e6 ffbd ccae ae3e ddc2 803e
000003e0: c402 0a3f 2947 5dbd dfba 9f3c 9135 033d
000003f0: c7e6 da3d f672 64be f130 d3be 8f9e 0dbf
0.09438955 0.09194901 -0.181646 -0.031845555 -0.14724557 -0.2892287 -0.26065046 0.09062869
0.3043236 -0.09300026 -0.44793788 -0.086874545 -0.41330603 0.12185272 0.49529192 0.16667363
-0.015479111 -0.19009264 -0.16671623 -0.35200936 -1.0081339 0.48382542 -1.692319 -0.17411453
0.45859453 -0.19497879 0.24287301 -0.13189703 0.5745966 0.6865521 -0.0011157636 0.17483866
-0.54508424 -0.17739947 0.25755474 -0.19071056 0.046307284 -0.44010556 0.0087297 -0.28310007
-0.020755207 -0.10699294 0.14815828 0.18002625 -0.24176618 -0.94343984 -0.13879493 0.0060660853
0.036420736 -0.03806672 -0.4021816 -0.14888924 0.08032579 -0.38295737 -2.2415557 -0.32801715
-0.0930071 0.15741813 0.05673177 0.11298234 -0.5915809 -0.102225654 -0.14515461 -0.05693699
-0.5880118 0.2374341 -0.012052568 0.23029923 -0.13307047 0.1260411 0.048012666 0.006370803
0.09416284 -0.5182557 0.8152819 -0.031078495 0.2493256 0.37471348 0.08475211 -0.065833084
-0.10500133 -0.011765177 0.45510086 -0.39945045 0.20906687 0.0023161545 0.07405389 -0.8970853
0.1930062 -0.42008188 -0.014117336 0.15159272 0.070578195 -1.1119144 -0.16228674 -0.13251321
-0.014386974 -0.40899962 -0.4530272 0.17262769 -0.5208445 -0.42764366 -0.15701917 -0.22992548
-0.20875117 0.26659793 -0.08672515 -0.010426042 0.38728228 -0.9375962 -0.70650965 1.5676972
-0.59405166 0.82693464 -0.5875551 -0.017481413 0.045863964 -0.10462867 0.14238842 -0.034549423
0.15600462 1.3856293 -1.8149858 -0.058919653 0.045839496 -0.1314967 0.5591412 -0.100950465
0.09186284 -1.4832311 -0.5666054 -0.52447927 -0.07361889 0.0051085637 -0.04796504 0.06526403
-0.06859133 -0.1324538 -0.8278344 -0.19501239 -0.2436346 -0.22506744 -0.10551952 0.060860686
0.23361272 0.08231125 -0.39132845 -0.005537276 -0.24720638 -0.038004063 0.12583245 -0.22170968
-0.03249745 -0.20085345 -0.15258415 0.036416166 0.39281243 -0.7288346 -0.3181427 0.01576271
-0.55047053 0.6519225 0.13476194 -0.1557204 -0.4898309 -0.33314234 -0.12193721 -0.05925556
0.15377566 0.09982645 -0.36276746 -0.6384461 -0.078618385 -0.10604487 0.35337052 0.4566945
-0.9494321 -0.0513012 -0.019566145 0.756064 -0.20758283 0.017667955 -0.06182024 0.7634434
0.21435618 -0.24224855 -1.1361482 -0.28431258 -0.45415288 -0.064862646 2.0325027 0.44269758
0.3703263 -0.5401097 0.3131528 -0.7936023 0.10214757 0.05398764 0.325218 0.020503715
0.035739977 0.13101369 -0.19611606 0.10721663 0.20984767 -0.58549905 -0.1029841 -0.0058517605
-0.032563414 -0.4253474 0.17282468 -0.37630844 -0.2742629 0.60303336 -0.08969008 -0.35838607
-0.16459486 0.46474478 0.22642608 -0.21479438 0.084443755 0.050726585 0.62243515 -0.7715508
-0.72006875 -0.26328072 0.014233416 -0.10360142 0.21869743 -1.1543406 -0.23446773 0.027207209
-0.02185729 0.025831604 -0.47460297 0.2553015 -0.17011882 0.21300624 -0.4074518 0.8052191
-0.037123483 0.0054287086 -0.16207321 0.124282576 -0.34752536 -0.12495148 0.34117734 0.2514867
0.5391047 -0.05402294 0.019498287 0.032033507 0.106885485 -0.22309479 -0.41248277 -0.55320066

conv_layers.0.1.bias f4 [128]
00000000: d87e eb3c 807f 09bd 7767 9abc 1e39 dabc
00000010: 56aa f5bc df83 7fbc f4f7 bbba 0015 7a3c
00000020: 9235 21bd 19dc e0bc ceb3 ebbc eae0 ed3c
00000030: 712f 823c 8899 d7bc ec1b 52bd a5f6 21bd
00000040: fad2 d93c d294 40bb b5a4 8fbc 4fc4 e73c
00000050: c110 1fbd 12ff 1c3c fc6c 3fbc 0aa0 44bc
00000060: 9b2c 513d 63f2 663c 3780 fe3c d8bc 223d
00000070: fcc4 913b 04e7 92bc 02ac b0bc ab12 843c
00000080: 1372 013b a2c2 8d3b c118 a3bb 6014 3cbc
00000090: 61fc 1e3d 1035 19bd 55c7 cfb9 93d8 f83a
000000a0: 58e2 ec3b 5314 3abd e0c1 a5bb 9615 2a3d
000000b0: b999 63bd a077 f43c cf59 c33c bed5 883c
000000c0: 8224 2ebd 501e 033d 2d36 b5bc 736d 91bd
000000d0: 9171 24bd 051e 8bbc 85f0 2e3d 4713 f13b
000000e0: 0706 93bd edb0 68bd 50dd 093d 85a9 00bd
000000f0: 5f3e acbc 62e6 313d 6864 49bd aada fdbb
00000100: 7d27 7b3d 599e 7c3c b2fd 043d 8574 59bd
00000110: 4e63 0fbc 2982 093d 4e4f 57bd a9b1 d23c
00000120: abfb 3d3c d9b2 473d 5996 953d 4113 473d
00000130: 790d e5bb af3f dbbc 651d 9ebc 0b7d 673d
00000140: 4a81 1bbd 4cb2 6d38 41d1 8e3d c860 163d
00000150: 9380 41bd e0b6 633d cb26 75bc 17a4 05bc
00000160: 2494 143c a17d 383d 6d5f a03d 344b 453c
00000170: 28bc 9bbd af2b 633b a7ef 78bd 04a6 0fbd
00000180: 70ef d03c 59d0 e9bc f845 88bd 766d 1abd
00000190: 0fbe 573d 08c7 173d 1fa8 353d a305 4cbd
000001a0: bab1 6f3c ba14 aebc 0295 8bbd e3a1 413d
000001b0: 84a4 593c 26b9 cbba 0a70 273c 9cc1 7f3c
000001c0: 029d abbb 4ee3 913c 7fe7 f6bc 0039 91bd
000001d0: d627 16bd 60a8 c9bc 1666 ac3c 1f97 3e3a
000001e0: 1053 b6bd 9c14 1bbb 715f 67bd ef10 e8bc
000001f0: 0954 293d e6ed abbc 6530 97bc 6020 97bc
0.028747007 -0.03356886 -0.018848164 -0.026638564 -0.029988449 -0.015595405 -0.0014340864 0.015263796
-0.03935773 -0.0274487 -0.028772261 0.029037911 0.015891762 -0.026318327 -0.05129616 -0.03954186
0.02658986 -0.0029385579 -0.017534593 0.02829185 -0.038834337 0.009582298 -0.011683699 -0.012001047
0.05106793 0.014095875 0.031066997 0.039730877 0.004448531 -0.017932422 -0.021566395 0.016122183
0.0019751831 0.0043261806 -0.004977316 -0.011479467 0.038814906 -0.03740412 -0.0003963063 0.0018985443
0.0072291307 -0.04542954 -0.005058512 0.041524492 -0.055566523 0.029842198 0.023846535 0.016703483
-0.042515285 0.03201133 -0.02212056 -0.07100954 -0.040147368 -0.016982088 0.042709846 0.0073570344
-0.07178884 -0.056809355 0.033658326 -0.031411666 -0.021025835 0.0434326 -0.04916802 -0.007747014
0.061316956 0.015418612 0.032468505 -0.053089637 -0.008751703 0.033571396 -0.052565865 0.02571948
0.011595647 0.048754547 0.07304067 0.048602346 -0.0069901315 -0.026763765 -0.019301126 0.056515735
-0.037965097 5.6671255e-05 0.06973506 0.03671339 -0.04724176 0.055594325 -0.014962862 -0.008156798
0.009068523 0.045041684 0.07830701 0.012041856 -0.07604247 0.0034663489 -0.060775425 -0.035070434
0.025504798 -0.02854173 -0.066539705 -0.037702046 0.05267149 0.037055045 0.044349786 -0.049810063
0.014629776 -0.021250118 -0.0681553 0.047273528 0.0132838525 -0.001554285 0.010219583 0.015610125
-0.0052372226 0.017808583 -0.030139683 -0.0709095 -0.036659084 -0.02461642 0.021044772 0.00072704436
-0.08902562 -0.0023663407 -0.056487504 -0.028328387 0.041339908 -0.020987462 -0.018455693 -0.018448055

conv_layers.0.2.weight f4 [128]
00000000: f613 683f 43ca fa3e 1c99 913c 4260 353e
00000010: de11 023f 1f95 363f b7eb 693e bd44 013e
00000020: 30da fe3e 4b75 f23e 6b59 f73e 1eae 5f3e
00000030: 3a4a 9f3e e1c9 ef3e b7ca b33d 8f92 d63e
00000040: b1af d03e 59f8 e13e 66d8 473e 0023 9e3e
00000050: 6f10 e73e b6f5 933d 27a0 b23e c6d9 1f3f
00000060: 5feb 803d 5477 0c3f d691 bb3d 8c4b 643f
00000070: 7742 533f 57b1 233f 3605 883e d39b 0d3f
00000080: 4a93 1b3f 8751 d83e 3996 643d d89a f33e
00000090: 0363 1b3f 1f65 403f 477b cd3e ada0 3c3e
000000a0: 5b02 783e 2b1b 073e fa1c d53d 87e4 2d3e
000000b0: 5c9a 623d 82b8 5b3c 6233 523f 8798 9f3d
000000c0: b9e7 423e 3782 8e3d 0bb7 413e af66 d13c
000000d0: 8eeb cc3e 7799 e13d 0296 8f3e e786 e73d
000000e0: d4ec ba3d 34eb bc3d 1471 213e f880 2a3f
000000f0: ad62 4f3f 919e a43c 6f39 653f 4cd2 df3e
00000100: 4ecc 2f3e 9818 af3d d073 b93e ed4b 833d
00000110: 64b2 4b3f 4617 403f 0a36 a23e 7957 733e
00000120: ae1f 8e3e 726d 1b3f 0926 8c3f 60fd ba3d
00000130: f6e4 4f3d 7e52 b53e f5eb d5bc aead ba3e
00000140: 521f f43e 149f 7a3f d718 d93e d5de 4d3f
00000150: a19a 6a3e 9acd 8a3d c007 d13e ffb0 353e
00000160: 0b54 56bd 011a c53e f666 b83d 1e59 ab3e
00000170: 99ba 893e d531 4c3e 9985 163e 948f b3bc
00000180: 5e46 e63c db89 b43e af03 3b3d e4a2 0c3e
00000190: 4616 263d 7596 1c3f 3b21 203f d66d 81bd
000001a0: f243 033f 622c c93e ec64 df3d e745 183e
000001b0: 2876 923e 3118 c63e 45d2 833d 0e29 e93e
000001c0: 798b a73e 5ac6 2c3e 92ec 573e 4e39 1a3f
000001d0: 299c c63e c508 633e b776 743f 5d1b 463f
000001e0: 41df 453f 1f50 6b3d 58e9 463e 4dd9 e93d
000001f0: ec48 c23e 7374 ee3c 5d60 453f 2492 b23e
0.9065546 0.48982438 0.017773204 0.177125 0.50808513 0.7132129 0.22843824 0.12623878
0.4977584 0.47355112 0.48310408 0.21843764 0.31111318 0.4683371 0.08778899 0.4190869
0.40759042 0.44134787 0.19516143 0.30886078 0.45129725 0.072246 0.34887812 0.6244167
0.062948935 0.5486958 0.091586754 0.89177775 0.8252329 0.63942474 0.26566476 0.55315894
0.6077162 0.422497 0.055807326 0.47579074 0.60697955 0.751543 0.40133116 0.18420668
0.24219649 0.13193958 0.104059175 0.16981708 0.05532299 0.013410689 0.82109654 0.07792764
0.19033708 0.0695843 0.18917482 0.025561659 0.40023464 0.11015599 0.28044134 0.113050275
0.09127203 0.09224549 0.15765792 0.6660304 0.8100994 0.020095142 0.8954076 0.4371513
0.1716778 0.08549613 0.3622117 0.06410966 0.7956908 0.7503551 0.31681854 0.23763837
0.27758545 0.60713875 1.0949107 0.09130359 0.050755464 0.354145 -0.02611349 0.36460632
0.47680146 0.97898984 0.42401764 0.8041814 0.22910549 0.06777497 0.40826225 0.177433
-0.052326243 0.38496402 0.09004013 0.3346643 0.26900175 0.19940884 0.14699401 -0.02191905
0.028109726 0.35261425 0.04565781 0.13734013 0.040548585 0.6116708 0.62550706 -0.06319778
0.5127555 0.39291674 0.10907921 0.14870416 0.2860577 0.38690332 0.0643659 0.45539135
0.32723597 0.1687254 0.21086338 0.6024369 0.38791016 0.22171314 0.95493644 0.77385503
0.77293783 0.057449456 0.19424951 0.114184 0.3794626 0.029108262 0.77100164 0.3487712

conv_layers.0.2.bias f4 [128]
00000000: 3c35 32c0 6783 00c0 a383 76bf f63c d6bf
00000010: e7ad dbbf c57b 05c0 ae5e abbf 6059 9fbf
00000020: edd4 acbf 2a9b e0bf 5d40 dbbf 7131 b2bf
00000030: 1992 87bf ffba dfbf 8c79 81bf 9598 d0bf
00000040: 6657 9cbf 0acd cebf 6f8a 95bf 7183 b4bf
00000050: ccc0 b6bf d788 39bf aa55 debf 92d5 f5bf
00000060: 845b 19bf f604 1ac0 591f 51bf f624 43c0
00000070: c271 1dc0 fc73 04c0 e078 86bf 2e9a c4bf
00000080: 8fed d6bf 9842 9cbf 8fb7 fdbd 46e4 b3bf
00000090: 8c16 11c0 9c4d 16c0 260d e8bf 5ac9 b5bf
000000a0: 9dfd f9bf 2a79 8cbf bfad 5bbf 104b 87bf
000000b0: 6e84 07bf ea2b 97bf 7033 4dc0 0299 28bf
000000c0: 494d 9cbf 5685 4ebf 0e01 8fbf fb9f 28bf
000000d0: ac35 abbf dde2 3cbf 562f c9bf 1896 b3bf
000000e0: caa8 55bf cc77 37bf 71a7 42bf d4a6 b7bf
000000f0: 8734 4fc0 1d5e 24bf 3b43 09c0 9bfc dbbf
00000100: 1223 62bf 5ed8 5fbf 0fdb a1bf 8cb6 7ebf
00000110: 25fe 34c0 eb16 21c0 005d e1bf 069e 48bf
00000120: 141a 50bf 6d64 09c0 1623 16c0 f438 99bf
00000130: 7f9b 3cbf 2338 7ebf e402 05bf 97f9 dcbf
00000140: 2fdb f3bf c53a 52c0 72b3 a1bf df89 19c0
00000150: 42f0 63bf 9da5 18bf 03da 06c0 371e acbf
00000160: 07db 6dbf 80b1 9abf ebc5 2abf d2c3 88bf
00000170: 2820 8ebf d49f acbf 6180 8abf 8c6e 1bbf
00000180: cc6d 22bf 141c 00c0 a686 e4be 10a7 9ebf
00000190: ab60 38bf bc7e 18c0 e8da b9bf 973e dfbe
000001a0: ea41 c3bf 599e 87bf 5111 52bf 9b79 50bf
000001b0: 8df3 77bf 94b7 b1bf af6b fdbe 324c 00c0
000001c0: e0fc 91bf 353a 80bf 0156 18bf 208a e6bf
000001d0: b43c 90bf b8ac 88bf 2f33 09c0 4144 0ac0
000001e0: c026 2dc0 c2ed 27bf eb68 aebf 2cb2 5fbf
000001f0: 10cc a6bf 36d5 5cbf bd17 28c0 2f6d cbbf
-2.7844992 -2.0080202 -0.9629461 -1.6737354 -1.7162446 -2.0856793 -1.3388269 -1.244915
-1.350248 -1.7547352 -1.7129017 -1.3921338 -1.059146 -1.7478942 -1.0115218 -1.6296564
-1.2214172 -1.6156323 -1.1682872 -1.4102613 -1.4277587 -0.72474426 -1.7369893 -1.9205801
-0.59905267 -2.4065528 -0.8168846 -3.049131 -2.4600682 -2.0695791 -1.0505638 -1.5359552
-1.6791247 -1.2207823 -0.12388527 -1.4054039 -2.2670012 -2.348487 -1.8129013 -1.4202073
-1.9530522 -1.0974476 -0.8581199 -1.0569782 -0.52936447 -1.1810277 -3.2062645 -0.6585847
-1.2211086 -0.80672204 -1.1172197 -0.6586911 -1.3375754 -0.73783666 -1.5717571 -1.403018
-0.83460677 -0.7166717 -0.76036745 -1.4347787 -3.237581 -0.64206105 -2.1447284 -1.7186464
-0.88334763 -0.87439525 -1.2644976 -0.99497294 -2.8280118 -2.5170238 -1.7606506 -0.78366125
-0.8128979 -2.1467545 -2.3458915 -1.1970506 -0.7367477 -0.9930441 -0.51957536 -1.7263669
-1.9051265 -3.284837 -1.2632887 -2.39904 -0.8903848 -0.59627706 -2.1070564 -1.3446721
-0.92912334 -1.2085419 -0.6670825 -1.068476 -1.1103563 -1.3486276 -1.0820428 -0.60715556
-0.63448787 -2.0017138 -0.4463398 -1.2394733 -0.72022504 -2.3827353 -1.451993 -0.4360244
-1.525449 -1.0595199 -0.8205767 -0.81435555 -0.96856004 -1.3884149 -0.4949622 -2.0046506
-1.1405296 -1.0017763 -0.5950623 -1.8010902 -1.1268525 -1.067771 -2.143749 -2.160416
-2.70549 -0.65597165 -1.3625768 -0.87381244 -1.3031025 -0.86262834 -2.6264489 -1.5892695

conv_layers.0.2.running_mean f4 [128]
00000000: bf7d a8bf c900 18c0 1cb2 35bf 1c9b d1bf
00000010: 5555 14c0 fa8f babf 4eff 83bf e039 613d
00000020: 7ee4 2bc0 4788 34c0 e1ea 29c0 e85d 6abf
00000030: 26d9 dcbf 2179 17c0 9bd6 afbe db5d 56bf
00000040: 0268 f7bf 36ff ecbf bf6e b0bf 0a8e 62bf
00000050: 4372 f5bf 9e37 ccbe 76af 6abf ec90 34c0
00000060: fc9e 9bbe 5b31 a1bf 1bdb 95bf a2ca e3bf
00000070: fae7 26c0 ea18 dabf 1dfd 1dc0 082e b8bf
00000080: e981 02c0 6d7f e6bf 713f 55bf 2baf 42c0
00000090: 5187 98bf f9c1 dbbf d86c 10c0 3e22 63bf
000000a0: c969 a9bf 5855 aabe 8c89 dcbf ea40 cebf
000000b0: de6c a2be b6cf 07bf e17c 1dc0 a2b3 d2be
000000c0: 26e8 42bf 5109 91bf f0fc 42bf cf2b 5abf
000000d0: 7368 0dc0 26c0 21bf 0779 b43d 1942 b2bf
000000e0: 1389 38bf 72b9 4abf 9a13 96be f113 37c0
000000f0: 0933 e1bf 0664 b3be b0c7 29c0 4d2f dbbf
00000100: c3b5 7dbf 29af 6bbe e561 ecbf b988 32bf
00000110: ec1e 51c0 aaa4 06c0 7132 febf 572b e5bf
00000120: ddd3 28bf be6a debf db53 22c0 33bf 8ebf
00000130: 0cd7 8bbe 76a0 16bf 0471 30bf ae2b efbf
00000140: c96e 09c0 3932 07c0 cd38 f2bf 85e2 d9bf
00000150: 6eee 9fbf 3e97 82be 4ce9 5b3e 24e3 bdbf
00000160: ddd6 4dbf 14fe a5bf 8384 19bf 6194 85bf
00000170: 9d9b 97bf 1a0f f5bf 5785 08c0 6386 6bbf
00000180: 92f7 32bf 6d21 023f d8cc 4cbf a9d5 87bf
00000190: 71bc 43bf 150a 34c0 0242 f0bf e517 a4be
000001a0: cd68 17c0 7afa bfbf f309 45bf bc5f fabe
000001b0: d091 12c0 aaef fbbf 9bf2 0abf 80da adbf
000001c0: c272 3ebf dc3f 2bbf c02e 24bf d4e3 f8bf
000001d0: 541e d8bf 555e f3bf f5c4 0cc0 d7f3 8cbf
000001e0: cf2c e0bf d31d afbe 5134 31bf 40af 84bf
000001f0: b3e7 e3bf 917b b2be f818 53c0 9d81 eebf
-1.3163375 -2.375048 -0.709749 -1.6375461 -2.3177083 -1.4575188 -1.0312288 0.054986835
-2.685821 -2.8208177 -2.6549609 -0.9154954 -1.7253768 -2.3667681 -0.34343418 -0.8373696
-1.9328616 -1.8515384 -1.3783797 -0.88497984 -1.9175495 -0.39886183 -0.9167398 -2.8213453
-0.30394733 -1.2593187 -1.1707491 -1.7796214 -2.6079087 -1.7038853 -2.4685738 -1.4389048
-2.039179 -1.8007637 -0.8329993 -3.0419414 -1.1916295 -1.7168571 -2.2566433 -0.88724124
-1.3235408 -0.33268237 -1.7229476 -1.611356 -0.31723684 -0.53051317 -2.460747 -0.41152674
-0.7613548 -1.1330968 -0.761672 -0.85223097 -2.2095 -0.6318382 0.08812147 -1.3926421
-0.7208416 -0.7918922 -0.2931183 -2.8605921 -1.75937 -0.3503725 -2.652813 -1.712381
-0.9910547 -0.23016037 -1.8467375 -0.6973987 -3.2675123 -2.1038003 -1.9859143 -1.7903851
-0.6594828 -1.7376325 -2.5363681 -1.1152099 -0.27312505 -0.58838594 -0.6892245 -1.8685205
-2.1473868 -2.1124403 -1.8923584 -1.7022253 -1.2494638 -0.25506014 0.21475714 -1.4834943
-0.8040598 -1.2968163 -0.5996782 -1.0435907 -1.1844364 -1.9145234 -2.1331384 -0.9200193
-0.6990901 0.50832254 -0.80000067 -1.0612079 -0.76459414 -2.8131154 -1.8770144 -0.3204948
-2.3657715 -1.4998314 -0.76968306 -0.48901165 -2.2901497 -1.9682515 -0.54276437 -1.3582306
-0.74393857 -0.66894317 -0.64133835 -1.9444528 -1.6884255 -1.9013163 -2.1995213 -1.1011914
-1.7513674 -0.34202442 -0.69220454 -1.0365982 -1.7805084 -0.348599 -3.298399 -1.8633305

conv_layers.0.2.running_var f4 [128]
00000000: 2dd8 9740 ae25 5240 b83c 3c3f 71b6 0b40
00000010: 8c24 6c40 715a 9540 2569 0e40 f638 253f
00000020: 94a3 6440 376e 8640 d503 6c40 b3a9 573f
00000030: 0455 3340 04d8 4c40 4913 113f 2e21 da3f
00000040: 573f 4940 acda 9540 2ea0 a13f 7171 ea3f
00000050: cea9 2340 fbdf 043f 1156 3840 e8fa 7840
00000060: 6b57 873e 1d7b 3340 69a5 383f e94f 4a40
00000070: c871 6340 f45b 6440 0a14 1140 8f9d 2a40
00000080: cdd7 8240 a435 5040 0a4e 363f abfc 7d40
00000090: 7a25 fe3f 950c 7640 069a 5a40 5e3c e03f
000000a0: b98c 2640 8e83 d33f 1f4a c13f ee54 9a3f
000000b0: 82b5 813e fe3d 593f d828 4840 c7c5 ad3e
000000c0: b510 123f 057f a33f 3509 113f 15c4 db3e
000000d0: 1f67 3a40 beed f23e 2964 0040 e146 ec3f
000000e0: b1bb 3b3f 5420 e53e 6f48 af3e 78c6 8040
000000f0: 1abb 3f40 761a 713e 003f a940 a2d3 0f40
00000100: 1487 8a3f 6640 853e e98c 6340 ec8b 1c3f
00000110: d3b7 8e40 8991 9a40 b22b 5540 7382 b93f
00000120: 4f69 8c3e 3972 8140 3b1f 3b40 d8ae a53f
00000130: 4b12 883e 47ed 823e e2cc df3e 1b32 2d40
00000140: 88eb 5c40 3c65 4d40 c36b 4b40 b2ec 6d40
00000150: e017 453f b080 143e 8017 e03f be66 e13f
00000160: ceee 133f 361b 3340 15da ba3e 3047 0240
00000170: 41ad ed3f 4e55 f53f 2035 3940 7132 f83e
00000180: 9451 2d3f c9cf d03f 8438 103f b046 d63f
00000190: 9a56 b93e 6c2a 7e40 369d 1840 1b55 703e
000001a0: 0062 9340 4f51 c93f 36cb 153f 8651 653e
000001b0: e1f5 0940 2442 3c40 54c7 cf3e 12d7 2d40
000001c0: c2d0 0f40 5d78 953f 1462 863e 657b 7a40
000001d0: b5dc 4640 fb19 0c40 ce55 4440 7891 1940
000001e0: c237 8340 686a b93e 7b40 ef3f 808d 293f
000001f0: 09ef 2a40 84ec da3e 741b 8440 8203 2b40
4.7451386 3.2835498 0.7353015 2.1830103 3.6897306 4.66729 2.2251675 0.6454004
3.572484 4.200954 3.687734 0.84243315 2.802064 3.2006845 0.5667005 1.7041376
3.144491 4.6829433 1.2627008 1.831587 2.557239 0.5190427 2.880253 3.890314
0.26433882 2.8043892 0.72127396 3.1611273 3.5538197 3.5681124 2.266848 2.6658666
4.088843 3.253274 0.7121283 3.9685466 1.9855187 3.844518 3.4156508 1.7518423
2.602339 1.6524522 1.5100745 1.2057168 0.25333792 0.8486022 3.127493 0.33939955
0.5705674 1.2773138 0.56654674 0.42923036 2.912544 0.47447008 2.0061133 1.845913
0.7333327 0.44751227 0.3423495 4.024227 2.9957948 0.2354525 5.2889404 2.247292
1.0822473 0.26025695 3.5554755 0.61151004 4.4599395 4.8302655 3.330792 1.4492935
0.27424094 4.045193 2.9237812 1.2943983 0.26576456 0.25571653 0.43711 2.7061832
3.4518757 3.2093039 3.1784523 3.7175717 0.76989555 0.14502215 1.7507172 1.760948
0.5778626 2.7985358 0.36494508 2.035595 1.8568498 1.9166658 2.8938675 0.48475984
0.67702603 1.6313411 0.56336236 1.6740322 0.36198884 3.9713392 2.3845954 0.23469965
4.605713 1.5727938 0.585132 0.2239438 2.1556323 2.941537 0.40581763 2.7162519
2.2471166 1.1677357 0.26246703 3.9137814 3.107221 2.1890857 3.067737 2.3995037
4.1005564 0.36213994 1.8691553 0.66231537 2.6708395 0.42758572 4.128351 2.672089

conv_layers.1.1.weight f4 [128, 128, 3]
00000000: 2964 8a3f 704e 393d 53cd a5bd 1bdd f8bd
00000010: 0fba 2ebf 6884 dabd 277b 41be 5a8e 9bbd
00000020: 9e5e d6bd 2984 5a3d 4d63 8c3d c2d2 b9bd
00000030: 005b 973e e909 b03d 7646 a33e 638d c73e
00000040: c1d0 97bd c59b db3d 141d d5bd 0f05 603e
00000050: 75a8 29bd 13dd 653d 2b93 fcbd 0ba5 243d
00000060: 462f 4abd b8ce c2bb e7f7 3b3f 64e7 ae3e
00000070: fa48 98bb a612 3c3e a4ea cf3d 6651 813d
00000080: 6cec a03e 77a4 30bd a4bb a6bc 8eca f0bd
00000090: 8a98 efbc e83a 3a3c d53b 8c3e d6fa 693e
000000a0: 6199 febc 83ba f73d b2f7 70be d37f 38be
000000b0: 9133 05bb 8b5b cbbe 6ad9 3f3d 3f19 72be
000000c0: bee0 37bf 481d 9dbd 2bcb 7c3e 081b 28be
000000d0: 8a68 e2be 69ec 0a3e ec3c 8f3d 0aeb 8dbe
000000e0: 4535 a7bc 8f31 9bbe 0b9f e4bc b30e 43be
000000f0: db29 c23e 678f 8a3d 9969 d53e 6fcf 12be
00000100: 27bc d9bd 9e06 50bd f87a 65be 9396 943d
00000110: cf33 c63e 31cf cfbe 195e f63d abd7 b73e
00000120: ad1f 05be f370 5dbd 9eb5 983d a71a 31bf
00000130: de7f d1be 4ba7 86be 3783 67bd 2740 4ebd
00000140: b405 e43d 0f50 3dbf ed95 41bd 99df e3bd
00000150: b738 7fbe d370 62be 0f12 d53e 3e60 5c3e
00000160: 9976 39be 96fd 713c 8dd3 bc3d fab9 5abc
00000170: 72a3 f83d d75f 09be bfeb b3bd 5b63 e63e
00000180: fefe 3c3f 4b8b 7bbe fb94 e4bd ff6a 7bbe
00000190: 46b2 053e 5070 013f 8b9a bebd 4508 39be
000001a0: 4b8e 163d 2be3 723e e3fd 92bd c998 3c3e
000001b0: 38c3 a3be fffb 91bd cb2f 74bf 5d6f 803f
000001c0: 0fd4 d3bd 94a9 bdbc 32a8 703e 0e26 c1bd
000001d0: d4f4 183e 7198 a83d 0676 893e ca4a b33e
000001e0: 4c15 f0bd a721 86bd 35fa d9bd ce83 fcbd
000001f0: 9b80 13be 0599 683d 5728 f6bd 5e8c 9ebd
00000200: eaf0 7abe 27be e4bd 31a0 fcbd a269 28bd
00000210: 58e9 8ebd d224 043c 8bec 21be a867 edbd
00000220: 07aa 85bd 21cc 08be cd02 cabe cb80 103d
00000230: f8dc 913f 11bb 26bd 8e67 6a3c f7f3 a63c
00000240: 0769 fcbd 83fd ec3b f09a 1bbe b98b 07be
00000250: 84e8 80bd 700d e7bd f778 80bd e3f9 c33b
00000260: 6ebe 1c3b 85f9 94be 2a24 9bbd 2c16 18be
00000270: 293b debd e864 0abd 8556 0d3f f002 20be
00000280: 8fa6 43bd 25fb 32be 8662 eb3e 066a e33e
00000290: 5f81 9a3f 3cb8 b73d c86a ccbd f88c 013f
000002a0: 2673 7fbe b0bf 75bc b2dc eabd 6650 92bd
000002b0: 120b 333d 06a5 c0b9 8776 8dbd 65d9 62be
000002c0: c72b edbd 4e0f 153e d2b1 afbe 9d5c ddbe
000002d0: c87f 34bf a9a7 31be 8ff3 f3bd 9895 13be
000002e0: bc71 f6bd 1af7 80bd 1a3c 3f3f f1fa 303e
000002f0: f728 96bf f5d5 1cbf 0194 a9be 7339 bcbd
00000300: 78e5 e43d 125c 40bd a8c9 923e 4b98 d1bd
00000310: d25f 69be 8266 16be 0b0f 533d 5631 70be
00000320: 1747 763e 5684 75bd 9e1d debd 31a6 55bd
00000330: a918 a7be 1c84 44be 251c 0f3f 6fb7 7a3f
00000340: ba51 8ebd fc13 3fbe f22c 22bd 47ea f63b
00000350: f4a7 843c 9bb3 e13d 6623 a73e 43dd 003c
00000360: 6e44 f3bd 3c72 edbd fb2d 03bc 0543 8c3e
00000370: 850f a4bd 2ff5 10be 14a6 0fbe 7d13 c63b
00000380: 9b6e c73d 8af8 b9be 0bd5 53bd fcfd cebd
00000390: 1981 25bd 6b6e 41be eb92 ccbd f727 093c
000003a0: 44d4 81bc 2029 b73d 4258 abbd 5d40 32be
000003b0: b10e 97bd 107e fb3e 5068 f13d d161 093e
000003c0: 8fbe 173e 22cb ac3c 3b3f 283d e841 4cbf
000003d0: 02ef 73be 8842 4cbe 8662 f13d fd09 d3bb
000003e0: 05e5 6dbd cb0a 783f 72af c73d 42d1 bc3e
000003f0: 8330 0ebb 3196 363d da5e 2b3d f6c0 1ebe
1.0811816 0.04524082 -0.08095803 -0.121515475 -0.6825265 -0.10669786 -0.18894635 -0.07595511
-0.104672655 0.053348694 0.068548776 -0.09073402 0.29561615 0.0859564 0.31889695 0.38975057
-0.074128635 0.1072307 -0.10405937 0.2187693 -0.04142042 0.056119036 -0.123327576 0.04019646
-0.04936149 -0.005945053 0.73425144 0.34160912 -0.0046473714 0.18366489 0.10152176 0.06314354
0.31430376 -0.043125596 -0.020353146 -0.11757384 -0.029247541 0.011366583 0.27389398 0.22849593
-0.031078996 0.12096121 -0.23531988 -0.18017511 -0.0020324925 -0.3971828 0.0468382 -0.23642443
-0.71827304 -0.076716006 0.24686877 -0.16416562 -0.44220382 0.13566746 0.06994042 -0.27718383
-0.020411143 -0.30311248 -0.027907869 -0.19048576 0.37922558 0.06765633 0.41682127 -0.14336942
-0.1063159 -0.05078756 -0.2241019 0.07255282 0.38711402 -0.40587762 0.120296665 0.3590673
-0.13000365 -0.054062795 0.07456516 -0.69181293 -0.40917867 -0.2629951 -0.05652162 -0.05035415
0.111339 -0.73950285 -0.04726212 -0.11126632 -0.24923979 -0.22113352 0.4161534 0.21521088
-0.18111648 0.014769932 0.092200376 -0.013350004 0.1214055 -0.13415466 -0.087851994 0.44997677
0.7382659 -0.24564855 -0.11161228 -0.24552535 0.13056287 0.50562 -0.093068205 -0.18069561
0.036756795 0.2371947 -0.07177331 0.18417658 -0.31984878 -0.071281426 -0.95385426 1.0033985
-0.10343181 -0.02315215 0.23501661 -0.094310865 0.14937145 0.08232201 0.26847857 0.35017997
-0.11722812 -0.065493874 -0.10643426 -0.12329827 -0.14404528 0.056786556 -0.12019413 -0.07741617
-0.24505964 -0.11169081 -0.123352416 -0.041116364 -0.069781005 0.008065419 -0.1581289 -0.115920365
-0.06526571 -0.13359119 -0.39455262 0.035279077 1.1395559 -0.040705744 0.014306916 0.020380003
-0.1232472 0.0072323694 -0.15195823 -0.13236894 -0.06294349 -0.1128186 -0.06273072 0.0059807166
0.0023917216 -0.29096618 -0.07575257 -0.14852208 -0.10851128 -0.033787638 0.55210143 -0.1562612
-0.047766265 -0.17478617 0.45973605 0.44416827 1.2070731 0.08970687 -0.099813044 0.50605726
-0.2494627 -0.014999315 -0.114678755 -0.07144241 0.04371173 -0.00036744046 -0.06907373 -0.22153242
-0.115806155 0.1455662 -0.34315354 -0.4323472 -0.7050748 -0.17349114 -0.119116895 -0.14412534
-0.12033412 -0.06297131 0.7470108 0.17283227 -1.1731251 -0.6126397 -0.3312073 -0.09190645
0.1117658 -0.046962805 0.28669477 -0.10234126 -0.22790459 -0.14687541 0.051528018 -0.2345632
0.24050556 -0.05994066 -0.10845493 -0.052160446 -0.32636002 -0.1919102 0.5590232 0.9793615
-0.06949182 -0.18659967 -0.039593644 0.0075352523 0.016193368 0.11020585 0.32644194 0.007865253
-0.11878286 -0.11594054 -0.008006568 0.27394882 -0.080107726 -0.1415603 -0.14028198 0.0060448037
0.09737893 -0.36322433 -0.051716845 -0.101070374 -0.04040632 -0.18889777 -0.0998896 0.008371345
-0.015848286 0.08943391 -0.08366443 -0.17407365 -0.07375849 0.49119616 0.11787474 0.1341622
0.14818786 0.021092955 0.041075926 -0.79788065 -0.23821643 -0.19947255 0.1178637 -0.0064403997
-0.05807974 0.9689147 0.097502604 0.368784 -0.0021696396 0.044576827 0.041838504 -0.15503296
