Julian/training_torch_simple_mask_copy_model_0c0d128f64n_d-separator50.pth (torch, 96245 bytes, 14 tensors)

feature_extraction_layer.1.weight f4 [128, 4, 25]
000000 31 30 34 88 70 d8 7b 84 46 5c 3c a3 36 92 07 80
       -5.422343e-34 -2.9604291e-36 -1.021104e-17 -6.95299e-40
000010 ae cc f1 1e 18 7c 02 00 23 29 07 80 31 3b 1b 83
       2.5601521e-20 2.28187e-40 -6.57606e-40 -4.5618354e-37
000020 1b b7 98 9f 04 eb 02 00 22 3d 05 80 c9 32 01 00
       -6.4677427e-20 2.67979e-40 -4.81108e-40 1.10054e-40
000030 74 75 05 00 19 e9 8d 06 62 3d 02 00 f5 05 02 00
       5.01312e-40 5.338081e-35 2.05691e-40 1.85808e-40
000040 31 f9 e3 81 76 f9 5f 24 d2 2c 20 07 da ea 84 03
       -8.37442e-38 4.856672e-17 1.2050234e-34 7.812182e-37
000050 48 9c 25 00 ea a4 02 80 65 cd 02 80 5a c7 07 00
       3.453977e-39 -2.42831e-40 -2.57353e-40 7.14362e-40
000060 49 83 06 00 0c 72 0f 01 a3 e9 05 80 88 65 bc 1f
       5.98109e-40 2.6346777e-38 -5.4299e-40 7.9789066e-20
000070 30 82 a4 24 eb e7 18 90 33 d7 05 80 b8 87 1f 89
       7.134421e-17 -3.0155378e-29 -5.36376e-40 -1.9202743e-33
000080 09 76 04 00 fb 00 1d 81 d5 bf f9 27 b0 70 07 00
       4.09685e-40 -2.883705e-38 6.931937e-15 6.83273e-40
000090 82 e5 8f 1e f7 4e 66 0f cc 56 29 06 d8 77 03 00
       1.5235636e-20 1.13550836e-29 3.1849136e-35 3.18498e-40
0000a0 87 8a 51 18 ec 76 07 80 08 a8 45 90 a5 62 0d a2
       2.7082555e-24 -6.8551e-40 -3.8980846e-29 -1.9161285e-18
0000b0 96 10 03 00 0b c2 2e 8d 4f 96 59 97 85 7a 04 00
       2.81456e-40 -5.385146e-31 -7.03062e-25 4.11294e-40
0000c0 77 ed 9a a7 ab 63 01 80 e7 a6 cf 91 e7 6d 80 81
       -4.3001046e-15 -1.2759e-40 -3.2761703e-28 -4.7177476e-38
0000d0 e3 8c 03 00 c1 60 62 96 5b 60 07 80 76 c4 43 12
       3.26047e-40 -1.8286665e-25 -6.77414e-40 6.1773307e-28
0000e0 fb 9f a0 03 49 e2 48 04 3a 69 83 9a 3d 06 08 96
       9.4406845e-37 2.3613792e-36 -5.435033e-23 -1.0987961e-25
0000f0 a6 f9 27 8a 78 bd 5b 83 4f 2f 1f 82 c6 7a a9 04
       -8.087711e-33 -6.4575815e-37 -1.1695052e-37 3.984446e-36
000100 9c d6 06 80 f0 88 3b 96 a8 9a ea 17 ce e4 00 80
       -6.28e-40 -1.514895e-25 1.5160936e-24 -8.208e-41
000110 74 1c d1 0c 73 4b 04 00 32 f6 00 00 6b 0a 92 80
       3.2218673e-31 3.94408e-40 8.8318e-41 -1.341172e-38
000120 cf 8e 0b 0a e6 75 c2 25 25 c4 be 8a 0a a3 03 80
       6.719466e-33 3.3733527e-16 -1.8370116e-32 -3.33994e-40
000130 05 2c 01 00 44 32 05 80 88 18 88 02 19 82 03 00
       1.07627e-40 -4.7721e-40 1.9997484e-37 3.22177e-40
000140 f6 1e 8b 16 1c f8 04 00 1e ae 01 00 65 a6 06 80
       2.24762e-25 4.56347e-40 1.54297e-40 -6.10704e-40
000150 11 b9 02 80 de 0e 00 00 d6 7b 2c 00 76 0e 05 80
       -2.5006e-40 5.333e-42 4.085186e-39 -4.64365e-40
000160 6b e3 02 80 b6 68 48 18 84 fd 07 00 bd 3a 07 80
       -2.65253e-40 2.590226e-24 7.33793e-40 -6.6392e-40
000170 81 f3 89 14 60 fc 97 1e 4e 69 07 80 b5 e4 1d 82
       1.392951e-26 1.6092127e-20 -6.80625e-40 -1.1600174e-37
000180 b3 ea 07 00 05 42 03 00 f0 33 05 80 ad ba 00 80
       7.27043e-40 2.9919e-40 -4.77809e-40 -6.6967e-41
000190 92 cc 5e 96 ca 8f 20 1a 62 c0 cb 20 c1 35 a9 89
       -1.7997568e-25 3.3203376e-23 3.4516846e-19 -4.073582e-33
0001a0 05 85 82 a6 48 a9 4b 8a 65 03 4f 94 7f 54 e8 21
       -9.056617e-16 -9.805933e-33 -1.0451499e-26 1.5743297e-18
0001b0 ee 23 02 00 8c c3 de 18 44 95 0a 26 99 95 58 00
       1.9656e-40 5.7583107e-24 4.808066e-16 8.135189e-39
0001c0 1d 52 cf 25 d3 18 2b 9a e9 ec ed b3 a7 d2 ba 9a
       3.5964418e-16 -3.5382024e-23 -1.1079266e-07 -7.7268124e-23
0001d0 12 dd fe 1c 1c 98 04 11 31 01 a4 16 fc cf 1e 88
       1.6865455e-21 1.0459836e-28 2.649638e-25 -4.779088e-34
0001e0 d2 ad ed 95 9e 7c 4f 24 a7 f7 26 89 ad 98 b1 13
       -9.599778e-26 4.4991525e-17 -2.0097969e-33 4.483163e-27
0001f0 87 3a 93 0b e6 82 56 23 28 76 71 16 c1 81 16 21
       5.67104e-32 1.1628682e-17 1.9505109e-25 5.0993705e-19
000200 5e 47 16 18 08 dd 1d 1d 98 ea 83 96 ba 9d 50 a8
       1.9423077e-24 2.0893047e-21 -2.131224e-25 -1.1580521e-14
000210 bc 35 6d 24 f6 92 f0 9e 9c b4 4f 1d 1a 6d 4a 22
       5.1436698e-17 -2.547177e-20 2.7489595e-21 2.7433863e-18
000220 db 56 84 93 0b c2 ac 9d 6a c6 6b 22 ee 10 89 28
       -3.340713e-27 -4.5728657e-21 3.1953478e-18 1.5217398e-14
000230 a8 5d 99 9e fd 69 71 1c f7 b9 c9 1c f5 66 b7 94
       -1.623824e-20 7.98772e-22 1.3349135e-21 -1.8518887e-26
000240 b1 07 64 1f 23 58 04 23 37 48 90 1d ab 67 eb 92
       4.828724e-20 7.174398e-18 3.819115e-21 -1.4856141e-27
000250 75 76 95 26 99 0d 05 29 1b a9 88 18 42 ff c9 25
       1.037106e-15 2.9543727e-14 3.532593e-24 3.504091e-16
000260 69 94 31 8e 5b 7d 25 22 91 36 fe 9d 8d 86 36 25
       -2.1888391e-30 2.2428032e-18 -6.728966e-21 1.5831571e-16
000270 08 0a 2a 1f 53 eb 64 a3 10 48 9e 1e ae 66 5d aa
       3.6007198e-20 -1.2409737e-17 1.6758705e-20 -1.9664367e-13
000280 d8 a6 3f 96 e8 b8 18 21 fd 56 1b 23 aa b8 42 19
       -1.5481504e-25 5.1744325e-19 8.420987e-18 1.00668575e-23
000290 ac f4 87 25 4c b0 81 21 88 d8 08 a9 04 64 22 1e
       2.3584563e-16 8.788045e-19 -3.0385877e-14 8.596891e-21
0002a0 45 e1 b0 a6 68 00 eb 95 97 42 19 29 45 6d a4 20
       -1.2273513e-15 -9.4916385e-26 3.4030582e-14 2.785499e-19
0002b0 6a f4 32 1d af fc 97 a0 2c e9 02 a0 d0 6a 02 80
       2.3684463e-21 -2.5747607e-19 -1.1088578e-19 -2.21988e-40
0002c0 c6 bb 05 00 21 4a eb 1d fd bf 0a 29 0c ca 00 03
       5.26538e-40 6.228063e-21 3.080868e-14 3.7847758e-37
0002d0 06 5b 11 15 da 09 1b 03 37 17 93 a7 9e 1b 84 2b
       2.9354322e-26 4.5561715e-37 -4.0825866e-15 9.386829e-13
0002e0 a6 c6 04 00 17 ee 34 20 de 20 f3 1d ac 6f 49 17
       4.38604e-40 1.532537e-19 6.435555e-21 6.5087553e-25
0002f0 99 0b a6 22 d2 bd 05 80 cf e1 55 0e 10 67 d1 0f
       4.500667e-18 -5.27272e-40 2.6363e-30 2.064869e-29
000300 97 8f 4f a9 06 8b 93 1f 5d 0f 8e 0e 37 ab 81 98
       -4.6087778e-14 6.2486917e-20 3.5020497e-30 -3.35186e-24
000310 73 cb 0c 8d 71 b0 53 27 1f b3 b6 88 48 55 01 80
       -4.3385724e-31 2.9377781e-15 -1.0995838e-33 -1.22429e-40
000320 c5 39 00 00 2d a7 03 00 73 cf 05 00 85 e9 06 00
       2.0724e-41 3.35478e-40 5.33596e-40 6.34784e-40
000330 4a 28 01 00 34 57 03 80 d1 4f 00 80 81 ee 01 80
       1.06288e-40 -3.06789e-40 -2.8633e-41 -1.77395e-40
000340 41 89 07 80 66 1b 04 00 bc 25 01 00 b2 41 05 00
       -6.92086e-40 3.7717e-40 1.05372e-40 4.82745e-40
000350 f2 7e 01 00 69 d5 04 00 76 25 02 80 64 49 07 00
       1.37375e-40 4.43899e-40 -1.9711e-40 6.69176e-40
000360 94 c2 04 80 e7 e9 07 80 d3 c5 07 80 e9 23 01 00
       -4.37143e-40 -7.26757e-40 -7.13814e-40 1.04718e-40
000370 e3 ae 01 00 03 55 06 00 8d 5d 03 80 f4 85 03 00
       1.54573e-40 5.8151e-40 -3.09066e-40 3.2356e-40
000380 b7 7e 06 00 b3 e5 02 00 56 f2 03 80 9b 03 03 00
       5.9647e-40 2.66072e-40 -3.6244e-40 2.768e-40
000390 96 0f 07 80 c4 de 02 00 1d c5 06 00 ab b4 06 80
       -6.4844e-40 2.63584e-40 6.21724e-40 -6.15824e-40
0003a0 f2 05 04 80 d9 ed 01 80 6d e4 04 80 cf 0b 04 00
       -3.69475e-40 -1.77159e-40 -4.49286e-40 3.71578e-40
0003b0 72 e8 06 00 54 d9 03 80 86 5f 01 80 58 3f 06 00
       6.34399e-40 -3.53469e-40 -1.26103e-40 5.73736e-40
0003c0 fd 93 07 80 92 e6 01 80 8d e7 02 00 45 ed 04 00
       -6.95937e-40 -1.74549e-40 2.66736e-40 4.52458e-40
0003d0 7c 88 08 80 f4 0a 01 80 8e 17 06 80 44 d0 05 00
       -7.83645e-40 -9.5765e-41 -5.59463e-40 5.33889e-40
0003e0 ab 29 02 80 0f b5 02 00 d3 c4 05 80 aa b2 07 80
       -1.98619e-40 2.48623e-40 -5.29785e-40 -7.06941e-40
0003f0 e3 dd 03 80 bd 98 04 00 df bf 04 80 85 f5 00 80
       -3.55104e-40 4.22134e-40 -4.36172e-40 -8.8076e-41

feature_extraction_layer.1.bias f4 [128]
000000 46 09 09 00 95 13 3b 00 f4 72 00 00 7c 26 11 80
       8.29846e-40 5.425319e-39 4.1237e-41 -1.575009e-39
000010 4c 45 2f 00 2f f6 2b 80 15 85 37 80 65 df 20 00
       4.341127e-39 -4.03724e-39 -5.098693e-39 3.018875e-39
000020 cf da 1c 80 a2 e7 26 00 cd b8 ce b8 56 3a 12 00
       -2.649888e-39 3.572843e-39 -9.857267e-05 1.673966e-39
000030 e4 98 2f 00 b4 4b 14 80 c6 e3 0d 00 e4 a5 0e 80
       4.371115e-39 -1.863867e-39 1.275571e-39 -1.345207e-39
000040 89 71 03 80 c3 47 0a 00 e0 48 0f 8b 80 da 2f 00
       -3.16235e-40 9.44098e-40 -2.7595623e-32 4.394651e-39
000050 c3 a1 2d 80 ea e4 0e 00 82 3d 15 80 dd 54 22 80
       -4.190626e-39 1.367816e-39 -1.95061e-39 -3.15285e-39
000060 13 25 3f 00 81 30 2f 00 66 ff 13 80 63 47 07 00
       5.798936e-39 4.333668e-39 -1.836494e-39 6.68457e-40
000070 73 37 38 80 41 6f 00 80 84 be 23 00 59 46 24 00
       -5.162679e-39 -3.991e-41 3.282586e-39 3.331314e-39
000080 5d 95 10 80 a2 0a 35 00 09 1e 3e 00 ab 5a 25 00
       -1.52295e-39 4.871096e-39 5.704575e-39 3.430439e-39
000090 5f 01 36 80 a6 37 16 00 60 91 0c 00 7d 30 09 80
       -4.959609e-39 2.040344e-39 1.154177e-39 -8.43914e-40
0000a0 33 87 00 00 f3 df c0 39 11 2b 21 80 a0 a1 1c 00
       4.85e-41 0.0003678795 -3.04602e-39 2.629374e-39
0000b0 7b 53 13 00 91 d8 2d 80 4f e8 2e 00 63 54 13 80
       1.774822e-39 -4.210287e-39 4.30777e-39 -1.775147e-39
0000c0 1c dc 2c 00 82 ff 16 80 60 dd 1e 00 19 e7 33 00
       4.119722e-39 -2.11204e-39 2.834479e-39 4.766513e-39
0000d0 10 d6 32 00 90 a4 23 00 a5 b2 0d 00 1e f2 38 00
       4.668566e-39 3.273276e-39 1.257947e-39 5.229643e-39
0000e0 e9 6c 1f 80 1c 2f 13 00 0c 02 39 00 75 7b 11 80
       -2.88597e-39 1.761774e-39 5.235358e-39 -1.605491e-39
0000f0 dc 46 32 00 c1 cb 14 00 cc ea 0f 00 89 15 ba b9
       4.617194e-39 1.909803e-39 1.461762e-39 -0.0003549273
000100 f8 a2 30 00 1d 4f 14 00 09 f1 0b 80 e9 b1 33 00
       4.466566e-39 1.86509e-39 -1.096658e-39 4.747432e-39
000110 0a e9 09 00 a8 d6 0c 00 b9 e9 37 00 5e 61 24 80
       9.10118e-40 1.17903e-39 5.134796e-39 -3.341007e-39
000120 54 41 3c 80 8f 0a 09 00 fc d8 35 8a e6 4c 22 00
       -5.533565e-39 8.30307e-40 -8.755643e-33 3.149993e-39
000130 20 21 3f 80 2d 1d 1a 80 ee a7 3e 80 50 f5 04 80
       -5.797519e-39 -2.398189e-39 -5.754043e-39 -4.55344e-40
000140 0b 90 40 00 ee b8 23 00 c2 77 29 80 3d f5 29 80
       5.929145e-39 3.280583e-39 -3.808216e-39 -3.85323e-39
000150 4a db 2f 00 51 e5 31 80 cc 27 36 80 fd f0 40 80
       4.394934e-39 -4.582203e-39 -4.973393e-39 -5.963922e-39
000160 b0 bb 40 00 7a f5 13 00 e4 07 0a 80 2a 21 42 80
       5.944801e-39 1.832935e-39 -9.21186e-40 -6.07304e-39
000170 9b 38 36 80 29 fd 3a 00 73 95 3e 80 82 8b 36 00
       -4.979423e-39 5.417276e-39 -5.747413e-39 5.009163e-39
000180 09 f3 0b 86 da 1e 07 00 e2 b0 c4 39 dc 2b 26 00
       -2.6321548e-35 6.53916e-40 0.0003751582 3.505483e-39
000190 89 15 0c 00 fc 78 35 00 bc a2 0e 80 9a 1d 35 80
       1.109751e-39 4.910682e-39 -1.344075e-39 -4.8779e-39
0001a0 2f 14 30 80 cc 56 1a 80 e9 63 2b 00 51 5b 3c 00
       -4.415344e-39 -2.41886e-39 3.984767e-39 5.542888e-39
0001b0 b2 23 0f 00 91 16 35 00 94 58 2d 00 d9 43 1f 80
       1.390338e-39 4.875377e-39 4.164373e-39 -2.87124e-39
0001c0 06 4e 19 00 15 84 32 80 ea 60 0e 00 86 c5 18 80
       2.323877e-39 -4.639157e-39 1.320463e-39 -2.27491e-39
0001d0 e6 01 fc 8b 1c 26 21 80 de 55 18 00 a5 e1 29 00
       -9.7069726e-32 -3.044242e-39 2.234855e-39 3.846201e-39
0001e0 08 eb 32 80 83 6f 18 00 9e ae 20 80 8f 7c 18 00
       -4.676088e-39 2.244055e-39 -3.001377e-39 2.248735e-39
0001f0 83 5c 31 80 89 a9 21 00 ad 6b 26 80 e1 4c 34 80
       -4.533126e-39 3.091389e-39 -3.528376e-39 -4.803025e-39

feature_extraction_layer.2.weight f4 [128]
000000 0c 8a 54 bb 55 e8 17 3d d8 f8 61 b6 d5 bd 98 3a
       -0.0032430915 0.037086803 -3.3672459e-06 0.0011653254
000010 97 2d f5 38 02 5c 58 3b 3b b2 65 3c 17 cf 3b bd
       0.00011691002 0.0033013825 0.014019544 -0.045851793
000020 fc 97 1f bc 58 bd a9 bc a1 98 59 3f 17 db 2b 3a
       -0.009740826 -0.020720169 0.8499852 0.0006555779
000030 99 17 3d 3a 3a 2b 56 bd 3d 6f b8 3b ca 6c 95 3b
       0.0007213294 -0.052287318 0.005628495 0.004560088
000040 91 28 1c 3c 2f 11 69 3a aa 50 6d 3d 18 20 cd 3b
       0.009531156 0.0008890805 0.057938255 0.0062599294
000050 d2 06 ac bb 0b db db 3b 6c 5f a1 3a ac b5 1d 3c
       -0.0052498365 0.0067094616 0.0012311763 0.0096258335
000060 1a 89 1f 3b 71 6b 1e 3b 53 d8 24 3b 2d 39 72 bd
       0.0024343194 0.0024172927 0.0025153353 -0.05913656
000070 39 23 1c 3b d2 86 10 3b ca d7 93 3a 18 21 30 39
       0.0023824705 0.0022053015 0.001127952 0.00016796996
000080 d0 b3 1d 3b 52 1b 48 3c 4a 82 56 3c 14 03 de ba
       0.0024063475 0.012213545 0.013092587 -0.0016938173
000090 47 64 59 3b c0 7a 17 bc 88 f9 af 3a c6 59 9d 3c
       0.0033171342 -0.0092455745 0.0013425807 0.019207846
0000a0 46 a8 c2 bc aa 0b 0e 40 20 c2 4a bd 08 c8 82 3c
       -0.02376188 2.219462 -0.04950154 0.015964523
0000b0 ad 6d 0e 3a 9d 9d c8 bb 13 d1 2e bb 11 9a d5 b8
       0.0005433213 -0.0061223046 -0.002667491 -0.000101853286
0000c0 37 d1 d3 b8 98 9e 82 3b 19 64 3b b7 16 c4 01 3c
       -0.00010100233 0.003986191 -1.1169374e-05 0.007920286
0000d0 7e d5 89 bc 97 27 60 bb f6 56 14 3c 65 36 ac 3b
       -0.016825434 -0.0034203285 0.009053936 0.005255508
0000e0 7d a9 2f bb 79 4c 98 b8 c2 ff c3 b9 53 b3 06 bb
       -0.0026803904 -7.262169e-05 -0.00037383853 -0.0020553663
0000f0 9c 96 0d 3b 6f c9 61 bd 32 5f e8 bb 7c d6 b7 3f
       0.0021604663 -0.055123743 -0.0070914263 1.436233
000100 02 4f ff b9 cb 22 2c 3c 35 b1 b5 3b 63 8b 2a 3d
       -0.00048696256 0.010506342 0.0055448064 0.041636836
000110 17 f0 be bb 39 85 ad 3b 95 92 ff 3c 3c 85 57 3b
       -0.005826961 0.0052954224 0.031197825 0.003288581
000120 c3 59 a0 bb 8c 60 a7 3b c6 71 69 3c 7d f4 4c 39
       -0.004893513 0.005107945 0.014248317 0.00019546035
000130 bf c3 c0 3e f7 d6 9f b9 42 d7 1f 3c 58 44 43 3d
       0.37649342 -0.00030487005 0.009755911 0.0476726
000140 37 47 39 3d 78 65 c2 ba 58 a6 2d 3b 75 06 07 bb
       0.04523393 -0.0014831265 0.0026496854 -0.0020603214
000150 74 fd 64 b9 d2 ec c4 ba 90 5b 59 3c 24 7c 86 3d
       -0.00021838193 -0.0015024191 0.013266459 0.06566647
000160 8c 4f 82 bb e7 47 20 3b de bd 63 3b c1 a6 36 3d
       -0.003976768 0.002445692 0.003475062 0.044592623
000170 78 7b 31 3b 97 9e 00 bc 68 36 c0 bc 94 d6 c3 3c
       0.002708165 -0.007850311 -0.023463443 0.02390603
000180 b4 8e 42 3e c0 b5 b5 3a 49 70 95 3f c3 52 1c ba
       0.1899975 0.001386337 1.1674892 -0.000596326
000190 65 bb 17 bd b8 d7 a0 39 eb ef 99 ba 17 4c 1b bb
       -0.037043948 0.000306783 -0.0011744475 -0.0023696476
0001a0 dd 70 3a 3b 75 12 c5 bc 64 fb 2b 3c 5c f3 4d 3c
       0.002844862 -0.024056653 0.010496948 0.012570228
0001b0 80 ae 4b 3a 31 96 0b ba e7 9f b6 bc e5 7a 7a 3b
       0.0007769838 -0.00053248095 -0.022293044 0.0038220224
0001c0 17 1c 8e b9 18 c3 cf ba 43 84 21 3f 39 1c 0b 3b
       -0.0002710528 -0.0015850989 0.6309244 0.0021226539
0001d0 7f 71 21 bc 83 3f 83 3b 30 e0 3f 3a af 0d e2 ba
       -0.00985372 0.004005374 0.00073194783 -0.001724651
0001e0 d3 19 32 3c 09 4d c9 3b 17 5f c0 ba 89 1e bf ba
       0.010870415 0.0061432165 -0.0014676776 -0.0014581244
0001f0 09 72 9c bb 80 b2 ca 3b 43 49 16 3c ee 7e e5 3c
       -0.0047743362 0.0061858296 0.00917274 0.028014626

feature_extraction_layer.2.bias f4 [128]
000000 a7 a7 60 b3 71 01 1a ba a0 52 c8 9e 5b fe a7 b2
       -5.2306543e-08 -0.00058748486 -2.1209997e-20 -1.9557026e-08
000010 a1 f9 28 a8 d4 ba 21 b8 a6 6f 89 bd 56 88 de bd
       -9.380003e-15 -3.855939e-05 -0.067107484 -0.10865848
000020 33 dc 03 b7 f9 54 0e bc 3a 93 19 c0 49 35 f6 b4
       -7.859478e-06 -0.008687251 -2.399611 -4.585984e-07
000030 c0 ec 07 b7 56 50 da bc 71 73 ed b7 e4 c0 fa b4
       -8.10175e-06 -0.026649635 -2.8306358e-05 -4.6706475e-07
000040 5b 15 13 b7 61 03 38 b3 c7 ab 58 be 4f 47 10 b4
       -8.766855e-06 -4.284391e-08 -0.21159278 -1.3436987e-07
000050 9b 90 1e b8 dc 5f a4 b6 42 a5 d6 b0 76 3e 07 b9
       -3.780481e-05 -4.8987404e-06 -1.5617518e-09 -0.00012897872
000060 ed 1f 0e b2 7a 2d c8 b1 4d 06 a4 b5 30 bc 4b bc
       -8.272747e-09 -5.825936e-09 -1.2220786e-06 -0.012435004
000070 36 25 71 b4 85 0f c8 bb c6 ac 54 b7 22 f4 d4 b3
       -2.2458411e-07 -0.0061053657 -1.2676412e-05 -9.916427e-08
000080 49 3e 4a b8 d6 59 51 b8 55 19 1b bb d0 a5 f3 b7
       -4.821856e-05 -4.991315e-05 -0.0023666222 -2.904507e-05
000090 47 f8 22 b5 d2 17 ca b8 63 53 ac b6 cc 15 82 ba
       -6.0710994e-07 -9.6365475e-05 -5.135707e-06 -0.0009924709
0000a0 37 1a f4 b9 16 8c bc c0 d1 84 40 be 9b ed ca b6
       -0.00046558838 -5.8921003 -0.18800665 -6.04773e-06
0000b0 e2 e3 9d b1 f8 4f 12 b8 f6 68 02 bc 6f 3f 60 aa
       -4.5952087e-09 -3.488359e-05 -0.007959595 -1.9917205e-13
0000c0 66 0e b4 b4 e3 33 aa b4 e9 a8 f4 b1 d4 a1 8d b8
       -3.353809e-07 -3.170272e-07 -7.1205375e-09 -6.753547e-05
0000d0 4c 05 b0 b9 eb 7d 68 ba 54 b5 33 bb 45 1d ad bc
       -0.00033573282 -0.0008868861 -0.0027421312 -0.02113212
0000e0 a4 c3 62 ba ce b5 67 b0 17 3f 5b af e9 12 0f b9
       -0.00086503685 -8.429567e-10 -1.9940348e-10 -0.00013644587
0000f0 70 ec 08 b9 d6 b1 b2 bd 9c aa 81 ba cd 15 50 c0
       -0.0001305805 -0.08725326 -0.0009892765 -3.2513306
000100 b5 23 d4 af 94 79 86 b6 bf a1 4f b3 80 3a d9 ba
       -3.8587947e-10 -4.0076648e-06 -4.834305e-08 -0.001657322
000110 2c 45 fc b7 86 cd 85 b6 de b3 46 ba 37 ef e4 ba
       -3.0072952e-05 -3.987635e-06 -0.0007579903 -0.0017466311
000120 24 c6 82 ba d4 79 8e b7 70 5d 4e be 82 7b 38 b2
       -0.0009977263 -1.698445e-05 -0.20152831 -1.0738292e-08
000130 ed 00 30 bf 22 26 1f af 88 f1 b7 b8 86 69 e8 bd
       -0.6875141 -1.4474513e-10 -8.771109e-05 -0.11348252
000140 81 65 22 bc 85 e8 3f b7 21 0f 2b b5 5d 4e 5c b3
       -0.009911896 -1.1438625e-05 -6.372448e-07 -5.1294013e-08
000150 86 55 0a b4 bd ae 2b b9 95 04 12 b9 65 95 a2 bc
       -1.2883365e-07 -0.00016372926 -0.00013925352 -0.019846627
000160 8c af ba b8 54 c5 1d b6 c8 48 d1 b1 10 4d 1f bc
       -8.901869e-05 -2.3509683e-06 -6.090975e-09 -0.009722963
000170 b0 cd 7a bb ca e0 a7 bb 17 a6 a5 bb b3 7e c4 b9
       -0.0038269572 -0.0051232325 -0.0050552 -0.00037478431
000180 a1 7c 06 bf 0a 4f 21 b1 3b 1d 4c c0 f0 18 65 b9
       -0.5253392 -2.3473512e-09 -3.189284 -0.00021848432
000190 61 b3 a1 bd 06 a7 34 b1 47 4d ad b9 a6 85 b2 b3
       -0.07895542 -2.628839e-09 -0.00033054707 -8.3130814e-08
0001a0 a8 61 36 b4 ce e1 99 b9 9c d2 34 ba 99 70 9c bc
       -1.6985598e-07 -0.00029350672 -0.00068978383 -0.01909666
0001b0 8a 2a 92 b5 6c d8 cc b8 9d 6a 26 bc ac 55 37 b6
       -1.0890228e-06 -9.76779e-05 -0.0101572545 -2.7318993e-06
0001c0 b8 28 3b b0 d5 94 9a af 93 9d 64 bf 12 70 c2 b0
       -6.808807e-10 -2.8118188e-10 -0.8930294 -1.414721e-09
0001d0 50 01 6b bf b7 1b e0 b5 dd b1 b7 b3 1d a2 81 b1
       -0.9179888 -1.6697367e-06 -8.553955e-08 -3.7728243e-09
0001e0 5d 11 04 bb de 2b d4 b8 93 58 43 b3 8a d0 df b3
       -0.002015195 -0.00010117119 -4.5482533e-08 -1.042218e-07
0001f0 1f 74 0d b7 9e c7 1e b9 fd c5 92 b7 31 d6 0c bc
       -8.4312915e-06 -0.00015142417 -1.7496752e-05 -0.008595989

feature_extraction_layer.2.running_mean f4 [128]
000000 7b 33 ad 26 23 49 bc b2 e5 21 02 00 f6 9a c7 a0
       1.201824e-15 -2.191934e-08 1.9583e-40 -3.3814456e-19
000010 3c d3 03 80 c3 b4 22 29 0f c9 20 b8 2f ec e4 b8
       -3.51283e-40 3.6128012e-14 -3.8334223e-05 -0.0001091588
000020 c6 c7 c5 a3 11 4c f3 31 4d 6d 87 3d c0 99 37 a8
       -2.144339e-17 7.0808786e-09 0.06612644 -1.019188e-14
000030 6f 04 a6 a5 89 57 ab 35 bc 04 4f 27 a2 9c 53 a8
       -2.8799414e-16 1.2765969e-06 2.8729587e-15 -1.1746817e-14
000040 4b b1 12 a4 0d 15 99 a8 c8 6f 90 bb 69 55 37 a3
       -3.1808876e-17 -1.6995542e-14 -0.0044078566 -9.938536e-18
000050 1c c8 ea 2a 43 3b a6 ab 62 10 55 a5 e8 6d 80 b4
       4.1705604e-13 -1.1811458e-12 -1.8480356e-16 -2.3921825e-07
000060 3c 89 cb 22 69 2b dd 9d b2 a3 a5 a9 05 23 94 b1
       5.5168563e-18 -5.8543098e-21 -7.3558686e-14 -4.311348e-09
000070 4b d5 61 ae 6a 84 e6 b6 1f e4 96 ab 7f 97 e3 22
       -5.134852e-11 -6.869949e-06 -1.0721457e-12 6.1688876e-18
000080 4a 3c 46 22 57 58 9b a2 06 99 8f 2a 39 7f b6 2d
       2.686592e-18 -4.2106368e-18 2.5508084e-13 2.0747503e-11
000090 b0 e4 be ac 08 04 9c 18 d0 4f 8b ae 79 24 d1 b2
       -5.425514e-12 4.0329125e-24 -6.335166e-11 -2.4347388e-08
0000a0 7c 37 26 17 c6 18 79 bf de 90 4f b8 d5 bd 8f aa
       5.3707524e-25 -0.97303426 -4.9487564e-05 -2.5533625e-13
0000b0 0d d6 47 16 27 b9 21 ac fc 89 ca 2b c1 0c 59 89
       1.6142634e-25 -2.2982256e-12 1.4391262e-12 -2.6126422e-33
0000c0 2a c3 bc 22 bf de 22 9e 2f a0 9d a6 81 69 42 2f
       5.116414e-18 -8.622271e-21 -1.0937481e-15 1.768168e-10
0000d0 09 32 d4 27 97 19 9d 2d b5 bb a3 31 ac 85 14 35
       5.889607e-15 1.7860198e-11 4.765264e-09 5.5328815e-07
0000e0 00 0b 60 ab 26 66 3f a7 f1 2e 61 a3 61 58 c5 25
       -7.959605e-13 -2.656195e-15 -1.2207215e-17 3.423394e-16
0000f0 47 25 0a b5 e4 13 a0 b5 37 cb 27 a9 06 da 17 40
       -5.146325e-07 -1.1926718e-06 -3.725771e-14 2.372682
000100 6f 39 bc 98 97 db fb 25 f8 5e 8b a1 4e 76 ba b0
       -4.8654854e-24 4.369036e-16 -9.444144e-19 -1.3566905e-09
000110 a8 86 e8 ad f9 a8 c2 a7 aa 81 fe b3 3f b1 1b af
       -2.6435146e-11 -5.4029017e-15 -1.18513825e-07 -1.4160138e-10
000120 5a 77 65 2e 9c 6e 0c 21 36 e3 18 bd d0 6d 2b 22
       5.2174577e-11 4.7580235e-19 -0.03732606 2.3232956e-18
000130 64 c7 70 bc 7b b3 3c a5 70 58 ce 29 0d 23 34 36
       -0.014695976 -1.6367211e-16 9.163579e-14 2.6842492e-06
000140 89 7e 3b ad a5 a9 a1 23 75 fb 37 27 f9 f6 18 97
       -1.0657816e-11 1.7527502e-17 2.5532667e-15 -4.942557e-25
000150 a7 a9 ad 1a 98 e2 31 a6 4a a4 92 a4 89 28 00 ab
       7.182521e-23 -6.1716303e-16 -6.3595723e-17 -4.553099e-13
000160 03 7d 99 a6 d7 cd 0a b5 d8 37 24 08 d2 76 2d b3
       -1.0650392e-15 -5.170854e-07 4.94176e-34 -4.0387768e-08
000170 22 66 0a b1 a8 68 cf 2c bb b2 05 2b e8 da a2 ae
       -2.0139699e-09 5.894913e-12 4.749913e-13 -7.4057926e-11
000180 0b 57 94 3d cd 4b a0 a4 7f 42 f0 bc 06 fe 9a b5
       0.07243165 -6.951735e-17 -0.029328583 -1.1547825e-06
000190 70 c3 17 b6 8d 7f 9f a0 bc 31 bd 26 1a 82 88 15
       -2.2614513e-06 -2.7020054e-19 1.312799e-15 5.5135227e-26
0001a0 eb 6c 76 a7 d2 d2 3b 26 0b dc b2 b8 5a 93 be 36
       -3.4198403e-15 6.5164373e-16 -8.5286876e-05 5.6795952e-06
0001b0 7e 4d ec a5 49 5c dd 25 8f 85 58 2c ea e1 ae 9e
       -4.0991985e-16 3.8399924e-16 3.0769586e-12 -1.8516402e-20
0001c0 91 b9 4c 22 8f 53 f0 95 ac bc f3 bc c5 15 35 88
       2.7745393e-18 -9.706706e-26 -0.029753052 -5.4493296e-34
0001d0 49 23 68 bd bc f1 29 25 43 aa 2a 1f 03 eb 91 25
       -0.056674276 1.4740316e-16 3.6139737e-20 2.531274e-16
0001e0 7b 80 92 23 d3 60 26 b1 60 3b 24 87 6c 99 f1 a4
       1.5883765e-17 -2.4211217e-09 -1.2355437e-34 -1.04776996e-16
0001f0 97 84 b7 ad d5 a6 85 a7 a3 f3 34 30 f8 8a 86 2f
       -2.0863573e-11 -3.7095795e-15 6.5829847e-10 2.44732e-10

feature_extraction_layer.2.running_var f4 [128]
000000 78 40 e4 0f 1e 3f 1f 27 04 00 00 00 07 a3 9b 02
       2.2507368e-29 2.2099899e-15 6e-45 2.2868776e-37
000010 04 00 00 00 dc ad 08 13 91 90 1c 31 ef 15 fe 32
       6e-45 1.7251333e-27 2.2783164e-09 2.9579466e-08
000020 60 a8 ab 08 33 3e 3b 26 7b d2 73 40 e3 68 07 11
       1.0331273e-33 6.4962954e-16 3.8097217 1.0681943e-28
000030 34 6e 73 0c e4 f7 9e 2b c4 43 42 0f 57 a2 c3 11
       1.8753202e-31 1.1295379e-12 9.57799e-30 3.0865625e-28
000040 39 b1 43 09 49 82 4b 12 5a 71 64 36 76 b4 97 07
       2.35556e-33 6.4216094e-28 3.4040627e-06 2.282602e-34
000050 81 5c 97 17 76 0d 37 18 bc 1a c7 0b a0 9c 0b 2a
       9.781498e-25 2.3658992e-24 7.669224e-32 1.240002e-13
000060 42 0b 4f 06 28 e0 00 00 f3 86 01 14 61 a4 28 24
       3.8940644e-35 8.0412e-41 6.53945e-27 3.6568427e-17
000070 78 60 6f 1e 4c 31 22 31 b2 1e cf 18 85 70 e8 06
       1.2672504e-20 2.3602125e-09 5.353924e-24 8.7434033e-35
000080 71 7e 14 06 d8 40 81 07 15 f5 2e 16 3e ce 89 1d
       2.79286e-35 1.9447874e-34 1.4132942e-25 3.6476847e-21
000090 ec e1 99 1a 04 00 00 00 0c e2 bf 1e e1 7d f8 26
       6.3644313e-23 6e-45 2.0316402e-20 1.7242576e-15
0000a0 04 00 00 00 33 49 4c 41 c4 a6 17 34 15 d7 31 16
       6e-45 12.767871 1.412364e-07 1.4365814e-25
0000b0 04 00 00 00 aa 46 67 19 ff 29 c5 19 04 00 00 00
       6e-45 1.19566906e-23 2.0386285e-23 6e-45
0000c0 b5 2b 61 06 3c 92 01 00 22 ce 58 0e 6d 5d a4 1f
       4.2349907e-35 1.44295e-40 2.6723305e-30 6.961126e-20
0000d0 5f 0d 62 10 d5 bc 52 1c 64 69 c5 25 3e 5b 81 2b
       4.4580942e-29 6.972723e-22 3.4245468e-16 9.191326e-13
0000e0 d3 e5 d7 17 1b a9 33 11 dd 82 e1 07 b6 7c 8c 0c
       1.3952065e-24 1.417272e-28 3.3931152e-34 2.1645473e-31
0000f0 75 c3 20 2b 67 6f 05 2e 70 20 39 13 ea 1d fe 40
       5.711467e-13 3.0339644e-11 2.3366276e-27 7.9411516
000100 04 00 00 00 32 9c 8d 0d a5 69 cc 04 e7 e7 92 22
       6e-45 8.727399e-31 4.805719e-36 3.9818915e-18
000110 96 d7 38 1e 09 ca 90 10 95 93 c6 29 26 6d 07 1f
       9.785461e-21 5.710927e-29 8.818568e-14 2.8677647e-20
000120 5e cb 13 1e db 07 ab 02 b6 cd 73 3b b7 af 8c 08
       7.8241706e-21 2.51307e-37 0.003720147 8.467254e-34
000130 a6 53 3c 3c df d6 22 0c 29 aa b3 14 0b 91 23 2e
       0.011494553 1.2544686e-31 1.8141497e-26 3.7190733e-11
000140 bf 54 85 1d 7e be 9c 08 44 93 87 0f 04 00 00 00
       3.5292432e-21 9.433693e-34 1.3368752e-29 6e-45
000150 0b 00 00 00 ec 04 1a 0e 7b 2b 9a 0c 28 b1 ef 1a
       1.5e-44 1.8984335e-30 2.3753626e-31 9.9134295e-23
000160 5c 21 bd 0f 00 74 b1 2b 04 00 00 00 92 3c 68 27
       1.8649688e-29 1.2608803e-12 6e-45 3.2229303e-15
000170 c3 5b 21 23 1f f7 ba 1a 30 a5 2e 1b 04 12 63 1e
       8.747259e-18 7.732704e-23 1.4446318e-22 1.20210055e-20
000180 62 cd 48 3d 5a 95 0f 0b 87 59 d6 40 50 ac 4b 2c
       0.049023993 2.7653158e-32 6.6984286 2.8943688e-12
000190 37 13 61 2d f8 57 c0 02 9d b4 d8 0d 04 00 00 00
       1.2794036e-11 2.8262356e-37 1.3355509e-30 6e-45
0001a0 3a 1b 05 10 b7 62 8f 0d 2a 7d 86 32 27 6e a5 30
       2.62506e-29 8.83682e-31 1.5656571e-08 1.2036637e-09
0001b0 17 a9 93 0d 3f 08 cd 0d 1c be 2a 1a 58 41 1d 00
       9.100281e-31 1.2636086e-30 3.5308745e-23 2.68667e-39
0001c0 f7 e2 a5 05 04 00 00 00 fd 02 fa 3c 04 00 00 00
       1.5599899e-35 6e-45 0.030519003 6e-45
0001d0 9e 83 3b 3d 4d fe 96 0b 4a 4e 21 00 47 ea f6 0c
       0.045779817 5.816053e-32 3.058656e-39 3.8043302e-31
0001e0 58 0a 38 07 07 c6 02 24 04 00 00 00 3a 75 38 10
       1.3845661e-34 2.8356992e-17 6e-45 3.637791e-29
0001f0 85 9f a8 1d b2 ab 2a 11 f2 48 8d 21 7b c9 b3 21
       4.463417e-21 1.3463543e-28 9.57384e-19 1.2182843e-18

dense_layers.0.1.weight f4 [64, 128]
000000 6a 88 35 3c e9 58 3a bc 6f 7e 83 38 6e 55 92 bc
       0.011079887 -0.011373737 6.270117e-05 -0.017863002
000010 a8 7f 5f 3b 9e 64 8d 3c ec 4a 7e bc 3c 28 b0 3c
       0.0034103189 0.017259892 -0.015520792 0.02150356
000020 31 10 59 3c 9d cc fe 3c d6 51 93 3e 07 ef 91 bb
       0.013248489 0.031103427 0.28773373 -0.004453543
000030 d0 8b 65 3d de a5 aa 3b 7d 6d 9d bb 34 f5 99 bb
       0.05604154 0.005207761 -0.004804312 -0.00469842
000040 1b 6c 03 bc 80 4d 0e bc 9d b2 ff 3d 19 33 15 bd
       -0.00802138 -0.00868547 0.1248524 -0.036425684
000050 e1 48 fe 3b 2a 89 d3 3c dd b0 7d ba f7 99 e6 3c
       0.0077601527 0.02582224 -0.0009677539 0.028149588
000060 99 93 3d bc 96 2a dd bc f7 e9 32 bd f0 53 87 3d
       -0.011570835 -0.026997846 -0.043680158 0.06607807
000070 16 a1 29 bd 38 04 0f 3c 98 7f 16 bd 01 44 23 3d
       -0.04141339 0.008729033 -0.036742777 0.039859775
000080 3d 2e 20 bc 6c ca 59 bb 2b 1d 3e bd 1a e5 09 3d
       -0.009776649 -0.0033232225 -0.046414535 0.033665754
000090 04 64 c6 bb ce 0c 24 3c b1 5a 33 3d 79 08 53 3c
       -0.0060544033 0.0100128185 0.043787662 0.012880438
0000a0 a2 cd b9 3a 2d 68 86 40 6f bf 05 bd 06 a8 a5 3c
       0.0014175663 4.200217 -0.03265327 0.020221721
0000b0 e8 25 cf bb 24 fe 90 3c e3 76 6b 3d 66 5b 85 3b
       -0.0063216574 0.017699309 0.057486426 0.0040697334
0000c0 3f d8 37 3c 1a 67 42 3d 08 74 ca bb ad 66 1a bc
       0.011220991 0.047461607 -0.006178383 -0.009423894
0000d0 53 6c 83 3c 7f 5d 24 bd 20 cb 87 bc df 30 87 3d
       0.016042864 -0.040128227 -0.01657635 0.06601118
0000e0 79 24 15 bc ed 89 0d bc 16 87 24 bc 4e 7c 6d 3b
       -0.009102934 -0.008638841 -0.010041973 0.0036237421
0000f0 96 b1 46 bc 8d a0 0a 3c 8e 57 30 3c a9 8e 02 3e
       -0.012127301 0.00846113 0.010763062 0.12749733
000100 33 75 ec bb aa 4c d4 bc 2a 28 d0 bc d3 2b 26 bc
       -0.0072161197 -0.025915463 -0.025409777 -0.010142284
000110 10 d1 a1 bc 59 95 ec bc 1a 50 06 3d 17 05 10 bc
       -0.01975301 -0.028879808 0.032791235 -0.008790276
000120 9e d3 bd 3b e8 b7 2c bc 43 00 21 3d bb d0 b2 bb
       0.005793049 -0.010541894 0.03930689 -0.0054570115
000130 a3 df d5 bd 96 8b ab 3c 19 25 d5 3c 79 42 2f bd
       -0.10443046 0.020940583 0.026018666 -0.042788003
000140 13 34 b3 bc 4b 56 69 bd ab d2 cb bb 3b 18 90 bb
       -0.021875417 -0.05696706 -0.006220182 -0.0043974197
000150 b3 c2 2a 3c 0f eb 89 bc 43 0e a6 bd 39 1c a5 3c
       0.0104223965 -0.016835717 -0.08108189 0.02015506
000160 ef d3 94 bb 68 0b 1f bc b0 ca b2 3c 82 1c 0e bd
       -0.004541866 -0.009707309 0.021825165 -0.034695156
000170 55 60 6b bb a7 d3 b4 bc d4 79 09 bb 43 4d b8 3c
       -0.0035915573 -0.02207358 -0.0020977156 0.022497779
000180 45 8d ab 3e df 5f 0f bd 51 4b 90 bf bf 90 3e bc
       0.33506218 -0.03500354 -1.1272985 -0.01163119
000190 f3 f8 37 3d 45 d0 57 3b 54 cf 8b bc 72 cb 8a 3c
       0.04491515 0.0032930535 -0.017066635 0.016942713
0001a0 db 47 9b 3c 11 9e c1 bc c2 a6 63 3c e7 66 b1 3b
       0.018955162 -0.023634942 0.013894739 0.0054138782
0001b0 c7 f0 72 3c 54 1c dc bb 32 7b d8 ba c3 85 08 bd
       0.014827914 -0.006717244 -0.0016516207 -0.03333069
0001c0 d1 df 8e 3c 2a 30 27 ba 17 2a 0c 3d 92 8f 6b 3c
       0.017440708 -0.00063777214 0.034219828 0.014377492
0001d0 56 9e 25 3d 2c 5d 9a 3b 7e f5 a8 bc 0d 30 f9 bb
       0.040434204 0.004710814 -0.020624872 -0.007604605
0001e0 eb 61 2f bb f0 83 c4 3c 3e 7a 3d 3c fa a1 79 bc
       -0.0026761245 0.023988694 0.011564789 -0.015236372
0001f0 2e 38 49 3c 36 a8 fa 3c 7b fd 33 3c 73 07 c3 bc
       0.012281461 0.030597787 0.010985727 -0.023807263
000200 ec ad fa 31 66 e1 b7 32 f6 a0 90 a5 36 24 33 b3
       7.2957302e-09 2.1406503e-08 -2.508909e-16 -4.170962e-08
000210 eb f9 72 b3 4e ce b7 33 d2 53 a5 33 c5 b1 f6 b2
       -5.6572315e-08 8.559128e-08 7.698658e-08 -2.871901e-08
000220 38 e7 d1 2f 99 ef 9c b5 c0 76 c3 38 e8 c0 a0 34
       3.818117e-10 -1.1692638e-06 9.3204435e-05 2.994268e-07
000230 85 2f ac 35 16 2c cf 33 71 6c 00 b4 39 aa 27 2f
       1.2828829e-06 9.647208e-08 -1.196038e-07 1.5249037e-10
000240 c7 17 81 a9 b5 d5 17 b1 5c 33 1e 34 1a ce 99 b5
       -5.7328755e-14 -2.209487e-09 1.4733581e-07 -1.1459372e-06
000250 fe c1 11 32 da a1 0e 37 9a 02 e0 33 47 2f 81 b5
       8.4842195e-09 8.501544e-06 1.0431286e-07 -9.625008e-07
000260 30 a8 78 32 88 07 88 ad 73 02 ba 33 a8 24 12 b4
       1.4473741e-08 -1.5464754e-11 8.6617455e-08 -1.3610645e-07
000270 47 d7 8a b3 3c df d1 27 dc 1f 90 b6 0d 4c 00 34
       -6.4652845e-08 5.8251184e-15 -4.2952433e-06 1.1948596e-07
000280 e4 e7 89 b6 0e e2 f2 31 05 d4 bb 31 4e a3 91 b3
       -4.109914e-06 7.0688264e-09 5.46652e-09 -6.7817936e-08
000290 5d ea b9 2f fe 6a 7b 23 13 7e b9 34 18 4d 56 b4
       3.381783e-10 1.3629394e-17 3.4550666e-07 -1.995835e-07
0002a0 91 87 9c 26 d2 fd 6a 3a 1a 08 b8 b4 b6 ba e3 b3
       1.086142e-15 0.0008964214 -3.4278565e-07 -1.0604474e-07
0002b0 cf 91 49 33 c8 4e 96 2f 33 ce 82 b6 21 c5 34 29
       4.693157e-08 2.7340818e-10 -3.8983067e-06 4.013901e-14
0002c0 03 27 c2 b4 6f 6c d0 34 ba 44 5e b2 31 6b 5c 30
       -3.61637e-07 3.8821915e-07 -1.2937727e-08 8.018786e-10
0002d0 bc eb e5 b4 08 70 98 32 b4 e5 5a b3 e3 16 78 b8
       -4.2826093e-07 1.7746075e-08 -5.0965994e-08 -5.9149123e-05
0002e0 64 ee 83 35 b4 e8 28 31 54 07 d2 30 ea 7a b0 2a
       9.829641e-07 2.4579494e-09 1.5281594e-09 3.134917e-13
0002f0 d0 f5 c7 b3 6d 49 d7 30 9a 47 9d 36 fc 0e d4 ba
       -9.311373e-08 1.5664178e-09 4.6873e-06 -0.0016178782
000300 57 07 a7 ac a6 81 8c 35 2f c5 95 2e ba 75 44 b5
       -4.7472404e-12 1.0468545e-06 6.8107624e-11 -7.3187005e-07
000310 14 a6 02 32 7c dc 8f 32 d8 8d f6 b0 55 79 0c b4
       7.604758e-09 1.6747656e-08 -1.793917e-09 -1.3082656e-07
000320 bb 9a 47 b0 66 4d 86 aa e6 ff 6e b8 e6 77 05 34
       -7.2615663e-10 -2.3856888e-13 -5.6981946e-05 1.2430209e-07
000330 ac 01 42 36 a5 90 17 b2 79 46 9f 35 55 ea 16 b5
       2.8909226e-06 -8.822245e-09 1.1866933e-06 -5.622035e-07
000340 29 b6 d0 b6 85 70 89 33 a2 7e c8 34 6a bd 9f 34
       -6.2200893e-06 6.400027e-08 3.734504e-07 2.9753875e-07
000350 46 32 6e b2 51 b5 ca 34 52 e2 12 31 2a ad e0 aa
       -1.3864854e-08 3.7757357e-07 2.1374444e-09 -3.991055e-13
000360 6c 1c 1d b5 12 07 2d 31 48 1f cc 32 84 14 d1 35
       -5.8528417e-07 2.5178832e-09 2.376295e-08 1.5577684e-06
000370 a5 64 0e b6 e3 d8 0d 2c 37 e1 c4 ae 62 18 70 2d
       -2.1218232e-06 2.0157701e-12 -8.953054e-11 1.3647835e-11
000380 1e 68 f7 2f cd b5 68 31 18 f0 8f b6 e9 01 ac 36
       4.5003018e-10 3.3863785e-09 -4.2896827e-06 5.126222e-06
000390 6e 78 b4 31 34 00 99 ae 35 ef a3 31 0c 8d 50 27
       5.2523808e-09 -6.9576706e-11 4.771119e-09 2.894226e-15
0003a0 fe ce 3e 28 c0 75 71 b2 00 44 61 b4 f4 d9 7f 34
       1.0592003e-14 -1.40548195e-08 -2.0979496e-07 2.3828017e-07
0003b0 1d 4d 9f b0 57 a4 a8 2c 9e 2c 9b 33 fc 96 17 b6
       -1.159069e-09 4.7930926e-12 7.225866e-08 -2.2588638e-06
0003c0 47 04 29 32 1f 65 a1 b2 72 ce 33 35 c4 8a 77 2c
       9.838067e-09 -1.8788851e-08 6.6983114e-07 3.5177842e-12
0003d0 09 cb 5a 30 16 57 b8 33 3d ab d6 33 bb aa 85 aa
       7.959647e-10 8.5840085e-08 9.9962996e-08 -2.3744014e-13
0003e0 8c 66 f4 33 85 cb 31 32 8a 4e a1 31 fa 76 7e 35
       1.13807886e-07 1.0349031e-08 4.6946456e-09 9.479551e-07
0003f0 58 cd 0c 30 cf 62 4c 34 a1 f3 29 b5 62 e9 80 37
       5.1223514e-10 1.9034927e-07 -6.331193e-07 1.5367466e-05

dense_layers.0.1.bias f4 [64]
000000 50 1a 97 b8 08 b0 12 00 0d 6b 0b 38 68 79 28 b7
       -7.205142e-05 1.716187e-39 3.323988e-05 -1.0041847e-05
000010 14 78 3e 80 79 5b db 37 4e 88 2d 80 80 25 0c ad
       -5.736877e-39 2.614943e-05 -4.181494e-39 -7.966405e-12
000020 8a 0b 34 00 89 95 31 a4 62 40 27 80 e8 2a 04 00
       4.779585e-39 -3.8507418e-17 -3.60468e-39 3.82734e-40
000030 3b 08 36 00 0b c6 72 37 f3 3c 12 37 d4 5e 09 00
       4.96207e-39 1.44704345e-05 8.716469e-06 8.60537e-40
000040 51 1f e4 b8 5e 88 14 37 76 ef 39 80 5c f2 97 39
       -0.0001087772 8.853238e-06 -5.320526e-39 0.00028981536
000050 02 c2 b0 b8 17 ec 2b 37 35 79 5f b8 08 52 e8 27
       -8.428471e-05 1.0247363e-05 -5.3280226e-05 6.4481874e-15
000060 df 9a a9 37 69 ea 28 00 22 5f 3d 00 93 b1 dd 37
       2.0218487e-05 3.75751e-39 5.636092e-39 2.6427942e-05
000070 9a d6 a7 31 f6 39 37 00 56 9b 9d 02 6f 50 0c 38
       4.884737e-09 5.071745e-39 2.3158235e-37 3.345351e-05
000080 cd 07 35 00 7b b1 96 38 fd 3c 0b 37 4c ff 07 80
       4.87008e-39 7.185616e-05 8.299246e-06 -7.34432e-40
000090 29 a3 11 00 9e 9a 71 ab eb d7 89 16 ef 6c 1e 39
       1.619734e-39 -8.5834974e-13 2.2269807e-25 0.00015108635
0000a0 ce 20 04 ab d4 86 85 b7 00 49 06 00 cf 9b 05 37
       -4.6941346e-13 -1.591762e-05 5.772e-40 7.963695e-06
0000b0 fc 18 25 80 f3 34 24 2c 7c c5 23 80 bd 78 38 00
       -3.406876e-39 2.3335194e-12 -3.285086e-39 5.1861e-39
0000c0 c4 ee 75 a4 a3 e6 6d b9 2b dd 24 80 41 e1 0b 00
       -5.332815e-17 -0.00022688 -3.385418e-39 1.090996e-39
0000d0 2a cd 38 00 f6 d6 98 37 ef 56 d3 b6 4a 69 7a b7
       5.216387e-39 1.8219911e-05 -6.2984104e-06 -1.4925676e-05
0000e0 dc 1c 01 00 9d 69 f0 1a c7 de 9a 38 1b 8b 3a 00
       1.02188e-40 9.94323e-23 7.384788e-05 5.37636e-39
0000f0 01 25 25 80 d1 c3 8d a9 41 eb 1e 05 cd eb 0f 00
       -3.411188e-39 -6.2956266e-14 7.4723336e-36 1.462122e-39

dense_layers.0.2.weight f4 [64]
000000 4f 7f be 3f 13 80 9e bb 4a 7d 39 3f 2c 70 11 3f
       1.4882601 -0.004837045 0.724568 0.56811786
000010 6f 72 8b 3b 09 f0 fe 3e 08 5e 37 bb 92 60 44 bd
       0.004255585 0.49792507 -0.002797963 -0.04794366
000020 63 d8 b2 3b b7 2b 55 3e 3d 31 0f 3b 74 d4 02 38
       0.005457924 0.20817457 0.0021849417 3.1192278e-05
000030 d5 d6 50 3c 3f b1 fc 3e ba d9 5c 3e 2f f5 a5 b9
       0.012746532 0.49353978 0.21567431 -0.00031653928
000040 f8 34 2b 3f b2 ab 36 3f 22 17 14 3d d2 87 5b 3f
       0.668777 0.71355736 0.036154874 0.8575412
000050 d7 fb aa 3f 01 fd 58 3f 7e ff f1 3f 4b 6a 7c 3c
       1.3358105 0.84761053 1.8906095 0.015406202
000060 ec 02 25 3f 79 c3 9b b7 54 fb 51 3b 4b 19 51 3f
       0.64457583 -1.8568464e-05 0.0032040672 0.8167922
000070 d7 0a 80 3d 55 4e 82 3d 74 04 83 bb e2 ec 56 3f
       0.062520675 0.06362597 -0.0039983336 0.83955204
000080 b5 97 7b bd 66 e8 06 3f 5c ff 98 3f 0e c3 82 3c
       -0.061423976 0.5269836 1.195293 0.01596215
000090 47 43 1a 3a c1 3c 40 3c 4d 05 78 3c f1 4c 82 3f
       0.0005884659 0.011733235 0.015137983 1.0179731
0000a0 21 f0 ab 3d 05 fb 64 3f 77 5d 70 bb 2e 31 be 3e
       0.0839541 0.89445525 -0.0036676803 0.37146896
0000b0 15 50 9a bb 8e b6 97 3c 49 7d 9c 3d 79 73 a7 3b
       -0.0047092536 0.018519666 0.07641084 0.005110201
0000c0 9b d7 ad 3d 12 e2 ab 3f bd 66 8c 3c aa fb 7f 3b
       0.08488389 1.3428366 0.017138833 0.0039059916
0000d0 96 bc d3 3b fb 6e 82 3f d6 ea d1 3f 68 29 31 3f
       0.00646169 1.0190119 1.6399791 0.69203806
0000e0 8d 5b a4 39 50 8f d2 3b 65 ec 2b 3f 31 c4 88 ba
       0.00031348728 0.0064257756 0.67157584 -0.0010434446
0000f0 92 7f ed 3c c9 41 3a 3d 31 55 01 3e 68 fd 72 ba
       0.028991494 0.045472894 0.12630154 -0.0009269328

dense_layers.0.2.bias f4 [64]
000000 aa b2 1a 3e 9e 9d 0c bd f9 c5 83 3e f9 53 31 3e
       0.15107217 -0.034330003 0.2573698 0.1731719
000010 b3 9d 9e bb d6 0b 05 bf a9 c9 aa bc ef f3 a3 be
       -0.0048405766 -0.51971185 -0.020848112 -0.32022044
000020 1a a0 fe bb 43 78 c5 be 9c af 3c bb 0e 06 02 ba
       -0.0077705504 -0.38568315 -0.0028791195 -0.00049600087
000030 00 7c c3 bc 76 73 1e be 44 6a 9a 3e 6c 8d b2 bb
       -0.023862839 -0.15473732 0.301592 -0.0054489877
000040 1c 10 37 3d 46 37 04 bf 48 c0 53 bd a7 c8 7b 3e
       0.044693097 -0.5164684 -0.051697046 0.24588262
000050 ad a8 10 bf 41 2c d5 bd 70 60 9f be 46 c8 48 bd
       -0.5650738 -0.104088314 -0.31128263 -0.04901912
000060 14 eb 3d be a0 bc a4 b8 67 59 0c bc a4 cc 31 be
       -0.18546706 -7.8552635e-05 -0.008566237 -0.1736322
000070 3f 3f 8e be 07 ea 09 be a3 9b c9 be d8 ec 55 bf
       -0.27782628 -0.1346818 -0.39376554 -0.8356452
000080 1a a5 87 be 04 b5 88 bd 1f bd ba 3e 83 1e c9 bd
       -0.2649315 -0.06675151 0.36472413 -0.09820273
000090 4b 30 2d ba a3 89 63 bd b4 6c 0e bd 36 7d 57 be
       -0.00066066225 -0.055551182 -0.034771636 -0.21043858
0000a0 00 21 08 be 99 dd 09 bf 0d 3b a5 bc b6 14 22 bf
       -0.13293839 -0.53853756 -0.02016976 -0.6331285
0000b0 f0 e9 47 bd 98 41 21 bd 8c d3 19 be d1 39 2e bc
       -0.048807085 -0.039369196 -0.15022105 -0.010633902
0000c0 1c c0 dd bd 72 4b 29 bf 3a 72 a1 bc 2a ee 9d bb
       -0.108276576 -0.66130745 -0.019707788 -0.004819651
0000d0 a5 29 ae bb d7 c5 02 bf 4f fb 02 3f 4e 76 54 3e
       -0.005315023 -0.5108313 0.51164716 0.20748255
0000e0 af 5a 82 b9 21 9f d1 bc cc 1a b0 bd 11 a8 8d bc
       -0.00024863097 -0.025588574 -0.08598861 -0.017292054
0000f0 e1 e2 2d bd c1 e3 9c bd 39 cf 9e be fe c4 46 ba
       -0.042452697 -0.07660628 -0.31017473 -0.0007582455

dense_layers.0.2.running_mean f4 [64]
000000 12 05 bc 40 98 ef c3 bb b6 6e eb 40 03 e1 32 c0
       5.875619 -0.0059794895 7.3572645 -2.7949836
000010 c0 6b 4e 38 cb 5d 7a c0 91 86 f2 ba 1d ae 60 3f
       4.9214577e-05 -3.9119747 -0.0018503239 0.87765676
000020 e8 1b 41 38 6a fe cf 3f 1d 4c aa b7 97 3a c0 37
       4.6040775e-05 1.6249516 -2.0301022e-05 2.2915467e-05
000030 6f c1 0c 3b 39 47 e2 3f e7 64 93 bf 46 d4 fa 3b
       0.00214776 1.7677985 -1.1515168 0.0076546995
000040 9d 9d 70 3f 00 63 0a be ea fe 1c 3d 06 e1 4e c0
       0.939905 -0.13514328 0.038329042 -3.2324843
000050 a9 76 29 c0 15 7b 3e 40 a6 c0 74 c0 b2 77 3c 3d
       -2.6478674 2.9762623 -3.8242583 0.046012588
000060 1e 10 e2 3e be ae 98 38 f7 56 73 b9 81 97 01 40
       0.4415292 7.280473e-05 -0.00023206683 2.024872
000070 e2 52 54 bf 0c 01 22 3f 57 e7 2d 3f 3e bf 82 c0
       -0.8293897 0.6328285 0.6793112 -4.085845
000080 38 f7 ce 3e 54 8f 32 40 4f bb 1a 41 f3 26 a2 bd
       0.40422988 2.789998 9.67073 -0.07917585
000090 c4 3e 47 b5 01 70 26 be 45 c9 fb 3e 32 3b 0e 40
       -7.4224613e-07 -0.16253664 0.49176994 2.222363
0000a0 6d fe 30 bd 4f e0 4a 40 d0 df 2a 3e a8 51 b7 3f
       -0.04321139 3.1699407 0.1668694 1.4321795
0000b0 39 76 a9 bd 41 72 5f bf 64 7b a5 3d f6 0e 55 ba
       -0.08274502 -0.8728371 0.080801755 -0.00081275345
0000c0 20 4d 0b 3e 39 f7 17 c1 d7 ea dc 39 0b 11 7a b8
       0.1360364 -9.497857 0.0004213664 -5.9620517e-05
0000d0 2c 0b fa 3a 4b 27 fa 40 4d 56 37 41 5c f0 41 c0
       0.0019076816 7.8172965 11.45857 -3.0302954
0000e0 ba 01 34 36 59 89 f5 be 70 fd 45 40 05 1e 8e bc
       2.6823095e-06 -0.4795635 3.0935936 -0.017348299
0000f0 ac 6a 9c 3c 8c ce 46 3d e7 38 c8 3d 3b 7a 07 ba
       0.019093834 0.048536822 0.09776478 -0.0005168055

dense_layers.0.2.running_var f4 [64]
000000 89 38 b4 41 3c c3 83 37 9b 9a 5b 41 52 b8 da 40
       22.527605 1.570733e-05 13.725245 6.835
000010 dd 9a 07 32 22 32 3d 40 71 be 69 36 78 b3 21 3e
       7.893246e-09 2.9561849 3.4830557e-06 0.15791118
000020 86 a1 85 31 0c e4 3a 3f ec 3c 43 2f 7a eb 3c 31
       3.8891725e-09 0.7300422 1.775679e-10 2.7491454e-09
000030 37 cf 94 35 90 b8 35 40 33 50 1d 40 7c 79 87 39
       1.1087167e-06 2.8393898 2.45802 0.0002583972
000040 a9 09 ca 40 ae 35 05 40 fd a8 e1 39 f8 d6 1a 41
       6.313679 2.0814013 0.0004304125 9.677483
000050 d1 54 09 41 e5 5c cb 40 17 9e 8e 41 fb 9f 81 3a
       8.583207 6.3550897 17.827192 0.0009889597
000060 90 92 10 40 30 9c d1 30 ae 62 46 32 2c e0 a2 40
       2.2589455 1.5251143e-09 1.1547554e-08 5.0898647
000070 b7 7b 0f 3e 00 cc fc 3d a9 2a b4 3d f5 0b b4 40
       0.14012037 0.123435974 0.08797199 5.6264596
000080 da 3e 3d 3d 5e c4 9c 40 3a ae c2 41 67 8a 44 3b
       0.046202518 4.8989706 24.335072 0.002998972
000090 d4 1f bd 2a a7 9e 91 3c d5 f7 d5 3d 38 7b d7 40
       3.359523e-13 0.017775847 0.10447661 6.7337914
0000a0 a1 06 a9 3a 5d d4 5a 40 d6 80 7b 3c 17 28 2c 3f
       0.0012895652 3.4192116 0.015350541 0.6724867
0000b0 2f af d7 3a f2 ba 20 3f f5 41 1c 3b 72 e9 9a 34
       0.0016455407 0.62785256 0.0023843024 2.885459e-07
0000c0 21 c6 96 3b 96 bd a5 41 d9 97 29 34 b3 26 63 33
       0.0046012555 20.717571 1.5794593e-07 5.2887753e-08
0000d0 f2 b2 6e 35 e7 f4 63 41 b6 e1 08 42 4b a4 08 41
       8.892231e-07 14.247291 34.22042 8.540111
0000e0 33 e2 f2 2c 21 8d fa 3d c5 f3 c8 40 25 56 cb 38
       6.903167e-12 0.122339495 6.279757 9.69584e-05
0000f0 50 a2 3a 39 db 6b 87 3b 33 4e 03 3e ff 9d 6d 33
       0.00017798808 0.0041327304 0.128228 5.532456e-08

prediction_layer.weight f4 [13, 64]
000000 88 f3 eb 3e f2 ec 9f ba 72 76 a6 be 4e 44 ce be
       0.46084237 -0.0012201353 -0.32512242 -0.40286487
000010 0f 50 78 b9 dc 92 ea be 6f 39 95 bb d0 7e ac bb
       -0.00023680947 -0.4581517 -0.0045539658 -0.0052641407
000020 44 a0 81 ba a1 9c 83 bd 05 c8 a4 39 1d 06 a6 b9
       -0.0009889682 -0.06426359 0.00031429544 -0.00031666542
000030 da d2 b4 bb 54 e4 b4 be 4c 9e eb be f4 3d a2 bb
       -0.0055182995 -0.3533045 -0.46019208 -0.004951233
000040 68 ed d0 3d e6 7a 10 be 18 23 68 ba f2 5d c9 be
       0.10201532 -0.14109382 -0.0008855327 -0.39329487
000050 b3 78 71 3f ae 38 68 be ad 34 1f 3f 3e 62 06 3b
       0.943248 -0.22677872 0.6218975 0.0020505334
000060 6f df 3a 3f 3f 0a a2 b7 a8 42 76 3a fc 2c 00 bf
       0.7299718 -1.9316676e-05 0.0009394088 -0.5006864
000070 04 d5 bf bb 4b 39 0d 3c 03 ea 35 3c f8 db 2b bf
       -0.005854251 0.008619617 0.011103156 -0.6713252
000080 91 5e 8b bd 56 cc 0f be 9f 2a 01 bf d5 a5 da 3c
       -0.068051465 -0.14042792 -0.5045566 0.026690403
000090 9a 70 99 b9 c7 ed 48 3c 8c 73 24 bd bc bc 21 bf
       -0.0002926633 0.012263722 -0.040149257 -0.6317861
0000a0 d2 a3 5c 3c 2c 98 22 bf c1 2f 12 bd 02 0d 36 3d
       0.013466792 -0.63513446 -0.035690073 0.044446
0000b0 ad f7 ec bb 0c 02 22 be 0b ad 9a bb 24 2d a5 ba
       -0.0072316737 -0.15821093 -0.0047203354 -0.0012601954
0000c0 35 59 0a bc a1 a3 fe be 9c c5 59 ba d9 46 a4 39
       -0.00844412 -0.49734214 -0.0008307339 0.00031333303
0000d0 83 ea 07 ba 35 a6 9b 3e 59 1d 13 bf 6d 73 92 be
       -0.0005184786 0.30400243 -0.57466656 -0.28603688
0000e0 d7 90 15 b9 d6 4e 83 bc d5 54 78 be 60 e8 83 3b
       -0.00014263704 -0.016028803 -0.24251111 0.004025504
0000f0 38 ee a6 bb 64 4f 07 3b 99 e4 ff ba 85 ad 4f 39
       -0.005094316 0.0020646686 -0.0019523083 0.000198057
000100 ab 25 03 3f 93 a1 de b9 bb 59 c0 be bf d8 95 be
       0.5122935 -0.00042463522 -0.3756846 -0.29266927
000110 e6 96 bf ba 5a c9 97 be cc 73 d1 bb 9f b3 f4 3c
       -0.0014617115 -0.29645807 -0.006391978 0.029870806
000120 a0 fc 27 ba f2 09 04 bd c2 40 39 37 30 31 ba 39
       -0.00064081885 -0.032236047 1.1041937e-05 0.00035513332
000130 cc b9 43 bb 3c 9e 21 be b9 d1 19 bf 83 42 38 3b
       -0.0029865382 -0.15783018 -0.60085636 0.0028115816
000140 2b 0b 71 3d b7 fa df bc c0 ae 11 bb 1d 1c 09 be
       0.05884854 -0.02734123 -0.0022229403 -0.1338963
000150 a6 5d 97 3e 58 f4 f7 bd e9 66 2a 3f 12 c3 ba bb
       0.29563636 -0.12107152 0.6656328 -0.0056995237
000160 0c 2b 15 bf 4e 96 42 b9 af be 21 bb 80 be 76 be
       -0.5826881 -0.00018557275 -0.0024680307 -0.24096107
000170 21 03 15 3c 4d 87 d2 bd 82 7c 98 bd da dd f8 be
       0.009094984 -0.10279713 -0.07445623 -0.4860676
000180 a3 25 84 3d 4f cc 48 3a d6 51 04 bf a7 eb 55 bb
       0.06452491 0.0007659839 -0.5168737 -0.003264168
000190 ed 77 9d b9 4f 82 09 3c 56 7a 28 3c 4d 6b 9f be
       -0.00030034725 0.008392884 0.010283073 -0.31136551
0001a0 99 ba 1d 3c 56 61 36 be 25 0d 16 bd bb 59 0d bd
       0.009627008 -0.17810568 -0.03663363 -0.0345094
0001b0 a0 a3 a2 bb f7 4a a8 bd 0a 92 56 bb 2d 83 ba ba
       -0.0049633533 -0.082174234 -0.0032740855 -0.0014229767
0001c0 37 54 a1 3a 4d a0 0f bf 5f a9 d2 b9 c2 e8 ff 39
       0.0012308423 -0.56103975 -0.00040180513 0.00048810808
0001d0 22 40 40 b9 ac bb 03 3e 50 bc 36 bf f5 a8 f9 bd
       -0.00018334438 0.1286456 -0.7138109 -0.12190429
0001e0 3c f4 3d b9 0e 18 37 bd 80 ae 59 bd 98 b4 25 3c
       -0.00018115429 -0.044700675 -0.05314493 0.010113858
0001f0 02 9e ca bb ee 09 2e bc 58 81 6a bc 21 be 11 ba
       -0.006183387 -0.010622485 -0.0143130645 -0.00055596424
000200 f6 43 26 3f f1 fa 9d b3 62 58 93 bf e1 b1 4e 3e
       0.6494745 -7.356528e-08 -1.1511347 0.20185043
000210 f6 5a 9d b5 45 36 41 be 26 d2 80 b8 a1 62 ba 36
       -1.1723885e-06 -0.18868358 -6.142659e-05 5.554714e-06
000220 67 16 3b b4 98 01 86 bb 71 d6 6d 34 52 fb cf b3
       -1.7423882e-07 -0.0040895455 2.2150358e-07 -9.6849035e-08
000230 85 9c 47 b7 91 3f 4e be 5f 41 d5 3d 9c a5 33 ba
       -1.1897767e-05 -0.20141436 0.10412859 -0.0006852986
000240 91 77 f5 3d b3 f7 35 bf d3 a2 2f b8 63 6a 5b 3e
       0.11985696 -0.71081084 -4.1874893e-05 0.21427302
000250 e9 1a b6 3d c8 1a f8 be d0 42 24 3f dc 24 82 b7
       0.088918515 -0.48457932 0.6416445 -1.5514372e-05
000260 b3 6f 0e 3f 39 dc d1 b0 8d b9 9f b6 d6 be ad be
       0.5563919 -1.5269342e-09 -4.76017e-06 -0.3393466
000270 e7 c6 23 bb 59 22 11 3d 58 05 0e 3b 73 47 07 bf
       -0.0024990381 0.035433147 0.0021670666 -0.528434
000280 ad ae a6 bb af d8 b4 be 6d 82 c6 bf 14 76 96 3b
       -0.005086741 -0.35321566 -1.5508553 0.0045917127
000290 61 a2 bd b2 85 ee 84 39 a6 b4 af bd 2b 46 ce be
       -2.2076337e-08 0.00025354713 -0.08579378 -0.4028791
0002a0 07 07 0b ba 49 55 5c be 21 c5 92 3b 35 21 c7 3e
       -0.00053034764 -0.21516909 0.004479066 0.38892522
0002b0 e0 79 18 b9 a1 07 1c 3d c2 09 1c ba 16 59 e1 33
       -0.00014541252 0.038093213 -0.0005952382 1.04935836e-07
0002c0 d9 d3 7e b8 d4 64 c9 bf 9a 25 1a b3 bb 3d 90 b3
       -6.0755618e-05 -1.5733895 -3.5890118e-08 -6.716751e-08
0002d0 e0 38 39 b4 8f 5c 32 bd ca 75 ee bf 68 2e 31 3e
       -1.7250159e-07 -0.043545302 -1.8629696 0.17302859
0002e0 41 d4 9c b2 68 87 86 3c 98 ba e4 be 12 d7 7e b4
       -1.8257312e-08 0.016421989 -0.4467361 -2.3733836e-07
0002f0 77 6f 16 b5 d1 9c 15 38 c3 01 e4 bb 39 80 02 b2
       -5.604156e-07 3.5670415e-05 -0.006958218 -7.59615e-09
000300 e9 9c 25 3f ff 45 a0 3c bc 10 5b be 9e a3 09 bf
       0.6469255 0.019564627 -0.21393102 -0.53765285
000310 9b da b1 3a 36 f4 6d be 94 3c 06 bb 09 0c 20 bd
       0.0013569178 -0.2323769 -0.0020482885 -0.039073978
000320 82 e7 81 3b 85 87 92 bc 35 dd 90 bb d3 81 60 3a
       0.0039643655 -0.017886886 -0.004420901 0.0008564267
000330 d3 cf 49 3a 40 62 58 be c6 bf 8c be 2e cb 91 3b
       0.000769851 -0.2113123 -0.27490062 0.0044492697
000340 e6 41 92 3e df c2 c9 be c6 9d 42 bc 79 bb 3b bf
       0.28565902 -0.39406487 -0.011878436 -0.73332936
000350 ad 5f 8a 3f 8f 2d 27 bf e7 76 5d 3f 4f 86 c9 bb
       1.0810448 -0.6530389 0.86509556 -0.006150044
000360 bb be 24 bf 62 32 0a bb 15 54 d7 ba 9a fd d4 be
       -0.6435353 -0.002108716 -0.0016428257 -0.41599733
000370 19 62 14 bd 78 fc 5b bd 41 89 13 be 67 d3 0b bf
       -0.036226366 -0.05370757 -0.14407827 -0.5461945
000380 1b 62 27 3e da 9c cc be 8d 5f dc be 57 fe 39 bc
       0.16346018 -0.39963418 -0.4304165 -0.011352143
000390 53 da bd ba c8 f6 03 bb 88 d7 e7 bb 24 ef 1a bf
       -0.0014484621 -0.0020136107 -0.007075254 -0.6052115
0003a0 33 1d b2 bb f5 94 df be 6f bf a3 bd ed 75 98 be
       -0.0054356097 -0.43668333 -0.079954974 -0.2977747
0003b0 e3 6f c1 3b 7b ee bf bd b3 16 85 3b a2 d4 48 bc
       0.0059032305 -0.093716584 0.004061544 -0.012257727
0003c0 4f 6a c8 bb cc fa d0 be ae 5c b0 3b 04 44 9e bb
       -0.0061161886 -0.40816343 0.005382142 -0.0048298854
0003d0 37 a2 92 b9 0a 59 99 3e 1f e7 12 bf 57 24 25 bf
       -0.0002796815 0.29950744 -0.5738391 -0.64508575
0003e0 52 35 8c bb 9e 85 2e bd ba 03 fd be 34 f3 2b 3d
       -0.004278817 -0.042607896 -0.49416906 0.041979983
0003f0 45 36 16 3c be 49 2b bc 54 04 86 bd 0e ee 8c 3a
       0.009168212 -0.010454593 -0.06543794 0.0010752098

prediction_layer.bias f4 [13]
000000 01 4d 91 bf 53 d2 a9 bf 13 a2 62 3e 88 00 c9 be
       -1.1351625 -1.3267311 0.22132139 -0.39258218
000010 2d e2 6b be 50 83 3e be cf 05 82 bf d6 2c 50 3f
       -0.23035498 -0.18604779 -1.0158023 0.81318414
000020 9b ad bf bd 7e e7 55 3f 1c 44 27 bf 8e b9 0d bf
       -0.093592845 0.83556354 -0.653383 -0.5536126
000030 28 e3 9b be
       -0.30446744
