Julian/training_torch_simple_mask_copy_model_0c0d.pth (torch, 96245 bytes, 14 tensors)

feature_extraction_layer.1.weight f4 [128, 4, 25]
00000000: 5470 b73d 3271 70bd 9c20 2dbc 17b9 a93d
00000010: 641f 38be 0e54 753e ee5f ee3c e2b3 293e
00000020: 8205 903e eceb ca3c 117b 3ebf 320a 7d3e
00000030: b0a8 e9bd 47a2 a6be 04fb 5a3f 4eb7 18be
00000040: e93c d23e 76a0 3fbe 3e86 cd3e 2e95 5f3e
00000050: b5fa 3a3e d429 263e fa04 adbe 61f5 b13e
00000060: 827d 253e 68cc 5d3e e46c e53d cfc7 7a3e
00000070: 4d74 1e3e 935f ec3e ff98 f73c 4794 213d
00000080: e946 9e3d 2588 6fbd 1a12 9a3d dfb8 60be
00000090: 1e1b ac3d c638 813e cd9a bf3d 7858 0640
000000a0: e736 353c e5df 04c0 bd36 2c3d 1bcb c83b
000000b0: 1390 c0be c047 bcbd 5283 453d d04d eebc
000000c0: d051 afbe 7061 8abc 0b1b 8abd 912f b53d
000000d0: 19b7 fdbd 0853 163e 54f7 e3bc a748 78be
000000e0: dc53 3dbe a7c8 163f c297 8e3e 3269 263e
000000f0: 2add f23e ed63 ecbd cb4a 663c 22f1 523e
00000100: ec9d 7f3f 0f4c 273e d392 f23e 35ce 463d
00000110: d196 59bc 4558 433e 3643 c3bb c9f9 e83c
00000120: e39f 10be 828f 643d e669 913d 0633 8f3e
00000130: 1039 ffbd 5d6c 353e 1037 f6bd 3694 52be
00000140: 694b 723d 0f2c ca3e 302c d6be 3f5f d2be
00000150: 48ca f43d 5b6a f33c 81a1 9e3e 8929 90bd
00000160: 7529 813e b16d 31c0 8cd7 4c3e 6972 f63f
00000170: 538d 9c3d ffd1 4f3d 10fd 213e ac1b 633e
00000180: 88a8 cabd 75da b73e 8bef 803c f443 283e
00000190: 2822 393e 3b27 593e 29c7 e73a e2c7 693d
000001a0: 4ce8 473d 622b fd3d 3aed 163d a723 013e
000001b0: e64e 173e 2600 0a3e f10b 37bf 5a40 123d
000001c0: 1025 533e 9505 e93d fbf7 50bc fe4a 653e
000001d0: 9606 093e 7fee 0f3d f3be 843d 0852 31bf
000001e0: 1964 0d3e f6cb 37bf 3aad 9e3d b3a2 0f3e
000001f0: d78b 273e 0222 883c 0ce8 11bd f167 053e
00000200: b592 f7bb 98b1 493d bb59 b4bd a8dc 2dbf
00000210: 81c7 343e 2624 243d 3ab0 3bbf f61e 053d
00000220: 4faa ab3d ea93 31bf 0c30 f63d d2fe 013d
00000230: 75e7 27bf d005 3e3e d4ed 003e bc5a a8bc
00000240: 67d3 533e f143 d43c 8342 c3bb 9e4d d33d
00000250: 3608 853d 7d19 3abf eba8 29bf 4580 ccb9
00000260: f30b 8ebc 6a41 9abd 3886 4bbf 3ab3 083e
00000270: 31f5 bc3d a264 1abf 3e90 15bf 27ee a43d
00000280: 86f4 773d 4814 b6be 9e74 7c3d bf71 2f3d
00000290: f547 2cbf 6553 083d 19c7 14bf 3a41 31bf
000002a0: 04d3 673e b73c 0b3d 0a92 3a3e 3269 743e
000002b0: a244 283d b2cd 96be 34c6 913d 0d18 b53d
000002c0: 3f79 00bf 9c5e 2ebf bee1 77bc 5a49 453e
000002d0: 502b a33b f6c8 613d 4eac fe39 f35c 5a3e
000002e0: 4aa2 103d 5b0f de3d 589b 343e c9fe 123d
000002f0: 2260 cfbe 6440 c03e 72d5 b73d 7f4c 0ebf
00000300: e7f3 a73d 5cb8 d9be 079a 04bc 04ad 8bbd
00000310: 89d0 e33d 1063 763d 0781 f5be 18a5 4ebd
00000320: c59d c63d bbc0 d23d 9ed7 f73c 5aa7 6d3d
00000330: 96b3 803e 5d04 a4be 7ce4 993d f14b 4c3e
00000340: 9177 333e 767e fc3c 5b75 783e b448 183e
00000350: 6393 473e 201a 9a3e c052 e3b6 d929 72bd
00000360: f02a 6f3e 0bfa e6be c910 263d 7465 8fbd
00000370: 486a 413e b164 553c 5c68 ca3d 08a7 14bf
00000380: 06b0 ad3d 46d8 b4be ac61 03bf 2467 17bd
00000390: dd83 f43d b123 033f 1dcc a7be 4762 c7be
000003a0: ca80 4b3e bbde abbe 65e8 23be 26ea c4bd
000003b0: 6cd4 c5be 6ac2 703e e9a3 d1bc bc39 65be
000003c0: 5f03 56bd aeee 073d 76d4 633e 4846 a73b
000003d0: 363a ca3d d81c adbd 0311 013e cb5c 193d
000003e0: dd3c 61be fe58 69bd 2ae3 1b3c 2511 17be
000003f0: 0b0f 64bd b02c 613d 70ac 07bf 4d00 253f
0.08956972 -0.0587017 -0.010566857 0.08287256 -0.17980725 0.23957846 0.029098477 0.16572526
0.28129202 0.0247707 -0.74406534 0.2471092 -0.11409128 -0.32545683 0.8553927 -0.14913675
0.41062096 -0.18713555 0.4014148 0.21834251 0.182597 0.16226894 -0.3379286 0.34757522
0.16161159 0.21660006 0.1120241 0.24490283 0.15474053 0.46166667 0.030224321 0.03944805
0.07728369 -0.058479447 0.07522984 -0.21945523 0.0840361 0.25238627 0.09355698 2.0991497
0.011060453 -2.0761654 0.04204439 0.0061277277 -0.3760992 -0.09193373 0.04822094 -0.029089838
-0.34242105 -0.016892165 -0.06743439 0.08846963 -0.12388439 0.14680111 -0.027827896 -0.24246465
-0.18489021 0.5889992 0.27850157 0.16251066 0.4743436 -0.11542497 0.014055918 0.20599797
0.99850345 0.16337608 0.47377643 0.048536498 -0.013280586 0.19076641 -0.00595894 0.02843942
-0.14123492 0.055800922 0.07100277 0.27968615 -0.12462056 0.17717119 -0.12022221 -0.2056435
0.059153948 0.3948674 -0.41830587 -0.41088292 0.119526446 0.0297138 0.30982593 -0.07039172
0.25226942 -2.77232 0.200041 1.9253665 0.07644143 0.050737377 0.15819192 0.22178525
-0.09895426 0.35908857 0.015739223 0.16432172 0.18079436 0.21206371 0.0017683256 0.05707539
0.04880552 0.1236179 0.03684733 0.12611257 0.14776191 0.13476619 -0.71502596 0.0357059
0.20619607 0.11378018 -0.012754436 0.22391888 0.13381419 0.035139557 0.06481733 -0.69265795
0.13807715 -0.71795595 0.07747884 0.14026909 0.16361938 0.016617779 -0.035621688 0.13027932
-0.0075553306 0.049241632 -0.08806177 -0.6791482 0.1765423 0.040073536 -0.73315775 0.03250023
0.08382093 -0.69366324 0.12020883 0.031737156 -0.6558755 0.18556905 0.12590724 -0.020551078
0.20686112 0.025911303 -0.0059588565 0.10317539 0.06495707 -0.7269514 -0.66273373 -0.0003900548
-0.017339682 -0.07532008 -0.79501677 0.1334962 0.09226454 -0.60309803 -0.5842322 0.080532365
0.06053593 -0.35562348 0.061634652 0.042833086 -0.672973 0.033282656 -0.581163 -0.6924015
0.2263909 0.03399345 0.18219772 0.23868254 0.04108108 -0.29453808 0.07117882 0.08842478
-0.50185007 -0.6811311 -0.015129505 0.19266263 0.0049795285 0.055123292 0.00048575032 0.2132452
0.03531102 0.108427726 0.17637384 0.035887513 -0.4050303 0.37549126 0.08976258 -0.55585474
0.082008176 -0.42523468 -0.008093364 -0.068201095 0.11123759 0.060153067 -0.47950003 -0.050450414
0.09698061 0.10290667 0.030254181 0.058020927 0.25137013 -0.3203458 0.07514283 0.19950844
0.1752608 0.03082202 0.24263518 0.14871484 0.19489817 0.30098057 -6.7747605e-06 -0.05912194
0.23356223 -0.45112643 0.04054335 -0.070017725 0.188882 0.013024495 0.09883186 -0.5806737
0.084808394 -0.35321254 -0.5132091 -0.036963597 0.119392134 0.51226336 -0.32772914 -0.38942167
0.19873348 -0.33568367 -0.1600662 -0.09614973 -0.38638628 0.23511663 -0.025590854 -0.22385305
-0.05224931 0.033186607 0.22249016 0.0051048137 0.09874384 -0.08452767 0.12604146 0.03744201
-0.21995874 -0.056969635 0.009514609 -0.14752634 -0.05567841 0.054974258 -0.52997494 0.64453584

feature_extraction_layer.1.bias f4 [128]
00000000: 8123 a13c 5862 96bb 49c8 eb3c 5687 edbb
00000010: 3f54 b33e 91d6 71bd 64d9 93bd b9d5 d1bd
00000020: 04bd 863d 71ff bdbd d663 4d3d 7574 483b
00000030: 821e adbb 44fd b43c d4e8 9abd a9db 9a3c
00000040: f500 1e3c 10ca 77bd a604 06bd d7b1 56bc
00000050: 7c32 ca3c efdb 973d 9316 b6bd a474 8fbd
00000060: 2fdb adbd e62e 543c f3a3 7b3d c501 cabc
00000070: 8b09 f63c 6d16 98bd e460 573d 9798 6a3d
00000080: 2ae3 a63d 66b0 723d 48f7 8a3d a2f6 bc3d
00000090: 0240 c53d 9908 a5bd 31ac b43d 90f3 92bd
000000a0: f9be 8ebb 1a22 48bd d3fb 483d 3de3 873d
000000b0: 074d 7d3d 2e5d ae3c e86d 853d 0758 fd3c
000000c0: 0286 55bd 2db2 413d cbb3 acbd d9ba a8bd
000000d0: 2ab6 bd3d c767 8d3d d13f 35bd a551 203d
000000e0: cfb9 3ebd b9a7 a63d 6efe 6d3d fd4b 293d
000000f0: 06a9 8dbd e5c6 ff3c a9b3 5bbb 43d9 fdbd
00000100: 18d4 eb3d 7e2c 55bb b0eb 9e3d ba3b 75bd
00000110: e059 99bc daf1 013f cff3 e8bc c74f 21bd
00000120: edfb bdbc 582f 9abd 6c5a 763b d208 4dbd
00000130: 9961 9f3d e1b1 5dbd 4443 c43d dddc c6bd
00000140: a836 11bd 8722 98bd 9b5c 963c 7456 50bb
00000150: 9417 053c ba3a 11bc a192 a4bd 6432 c1bc
00000160: 9e6c 38bd 1fee 15bc 17df 393d 2028 a63a
00000170: fb19 06bd bb0b 0dbb a5c0 afbd 7d4b 723e
00000180: e571 a43b 5132 89bc c0a1 6bbd 51eb e8bc
00000190: 559e b7bd 38d3 e5bc b233 bfbd e041 b03d
000001a0: f36d bc3d 4d91 7bbd d972 36bd 268d c13d
000001b0: 7880 2cbc fd03 8d3c 08ef 8b3c 68f8 5cbc
000001c0: ec4c 65bd cac2 cf3d 57a1 6abd 3f6a 7fbc
000001d0: 1ec8 60bd 8ae8 5fbc 1b8f 873d 40d7 523d
000001e0: db70 ad3d e48d 0fbd 47fc 9a3d 5821 adbd
000001f0: 879c 553d 03d2 3a3d cc43 ff3c 72e4 1bbc
0.01967025 -0.00458936 0.028782027 -0.0072487993 0.35025212 -0.059042517 -0.07219198 -0.102458425
0.065790206 -0.09277237 0.05014404 0.0030586992 -0.005283178 0.022093423 -0.0756394 0.01890357
0.009643783 -0.060495436 -0.032719277 -0.013103924 0.024682276 0.07414996 -0.088910244 -0.07004669
-0.084890716 0.012950635 0.06143565 -0.024659047 0.030033847 -0.074261524 0.052582636 0.057274427
0.08148797 0.059250258 0.067854464 0.09226729 0.09631349 -0.080582805 0.088219054 -0.07175362
-0.004356262 -0.048860647 0.049068283 0.06635139 0.061841037 0.021284666 0.065151036 0.030925764
-0.052129753 0.047289062 -0.0843273 -0.08238763 0.09263261 0.069045596 -0.044250313 0.039140362
-0.04656392 0.08137459 0.05810397 0.041332234 -0.06917004 0.03122277 -0.0033523834 -0.12394955
0.11515063 -0.003252774 0.077597976 -0.059871413 -0.018719614 0.5075966 -0.02843657 -0.039382722
-0.023191417 -0.07528561 0.0037590517 -0.05005724 0.07782287 -0.054124717 0.095831424 -0.09710095
-0.035452515 -0.074284606 0.018354705 -0.0031789811 0.008123297 -0.008864099 -0.0803578 -0.023583598
-0.04502546 -0.009151011 0.04537877 0.0012676753 -0.03273962 -0.0021521884 -0.08581666 0.23661609
0.00501846 -0.016747626 -0.057527304 -0.02843252 -0.08965746 -0.028054819 -0.09336032 0.08606315
0.09200659 -0.061417866 -0.04454312 0.0945075 -0.010528676 0.017213816 0.017081752 -0.013486959
-0.05598156 0.10144575 -0.057282772 -0.015589296 -0.054878347 -0.0136662815 0.06619092 0.05147481
0.08468791 -0.035047427 0.07567649 -0.084536254 0.05215123 0.04561044 0.031160258 -0.009514915

feature_extraction_layer.2.weight f4 [128]
00000000: 84c4 4e3f 8214 5d3e 1e9c 573e 9189 a23e
00000010: 0742 e63f ecad b33e c8bb 883e fbe0 853e
00000020: 0512 b33e ad14 5b3e f91a a93e d26f 823e
00000030: 1a4e 3b3e 14b5 5e3e a83e 6a3e 778a 683e
00000040: 4885 833e be59 2b3e 12d8 4c3e 0afc 2c3e
00000050: 90d2 9f3e 6d1b d93e e7d3 b33e 174a 593e
00000060: c7e2 803e 541d 8e3e f5a5 8b3e 4387 8f3e
00000070: b865 a93e 83e6 103f 5a15 3d3f e869 8b3e
00000080: 77dd 883e b085 4a3e 7a9c a23e 1ffa b43e
00000090: 2fd3 863e c8b0 683e 4681 a23e baea 843d
000000a0: e4d7 8b3e a85e 563e 9d11 353e 1301 973f
000000b0: 10b5 443e 050c ca3e 4eb0 ad3e 3842 963e
000000c0: 9893 8f3e dbea 723e 4e2a 963e d7b3 5b3e
000000d0: 00d8 893e 4943 fe3e 1d5e 8f3e 0d0b 8b3e
000000e0: f6aa d53e 0940 9a3e a4e4 bd3e 3a47 993e
000000f0: 1105 863e 79c8 4a3e 4710 4e3e 8093 923f
00000100: 024b cc3f 652a 6a3e 988f 563e 4bd4 c83e
00000110: 1ad8 803e 77d7 0140 df79 5a3e 761e bf3e
00000120: 1a1e ac3e c1e5 6c3e bda6 573e 416c 9c3e
00000130: 5cbd 8b3e 4495 833e 3d65 ac3e b79d 973e
00000140: 5958 143e 2805 0b3e ffbb 3e3e c461 b33e
00000150: a760 493e c508 803e d19e 433e 49d2 8d3e
00000160: 7f5f 543e f604 903e 081f 663e 3cd0 963e
00000170: 6e83 d83e bb9d 2b3f 2e22 d43e 0886 973f
00000180: 532a 483e 12be a23e 52c7 aa3e 6bec 753e
00000190: 2bd0 353e 8edf 643e 589b 4e3e c597 c33e
000001a0: 0da4 1b3f 0808 4f3e f5c0 963e d266 4a3e
000001b0: 1627 8c3e 3128 723e c8b2 9c3e a4a6 353e
000001c0: 0959 833e f4aa 3f3e 638a 9d3e 7a96 6a3e
000001d0: b827 a83e 1ee2 953e c34f 783e c1c1 723e
000001e0: d7f4 583e 3de3 fc3e fc61 aa3e 2c6c cf3e
000001f0: 0c16 8b3e 5a65 cd3e 7ab5 863e 5771 aa3e
0.8076861 0.21589854 0.21055648 0.3174558 1.79889 0.3509363 0.26705766 0.2614821
0.34974685 0.21394606 0.3302839 0.25475937 0.18291512 0.21748763 0.22875464 0.2270907
0.25687623 0.16733453 0.200043 0.1689302 0.31215334 0.42403737 0.35122606 0.2121967
0.25173017 0.2775675 0.27275053 0.28032884 0.33085418 0.5660173 0.73860705 0.27229238
0.26731464 0.1977756 0.31760007 0.35347077 0.26332995 0.22723687 0.31739253 0.06490083
0.2731315 0.20934546 0.176825 1.1797203 0.19209695 0.39462295 0.33923572 0.29347396
0.28042293 0.23722403 0.2932915 0.21455322 0.26922607 0.4966071 0.2800149 0.2715687
0.41731995 0.3012698 0.370885 0.29937154 0.2617574 0.19803037 0.20123397 1.1451263
1.596039 0.22867735 0.20953214 0.39224467 0.25164872 2.028776 0.21335553 0.37327927
0.33616716 0.23134519 0.210597 0.3055134 0.27292907 0.25699818 0.3367099 0.29612514
0.14486827 0.13576186 0.18626402 0.35035527 0.19665776 0.2500669 0.19103552 0.27699497
0.20739554 0.28128785 0.22472775 0.29455745 0.42287773 0.6703755 0.41432327 1.1837778
0.19547395 0.31785637 0.33355194 0.24015968 0.17755191 0.22350904 0.20176446 0.38201728
0.60797197 0.20217907 0.2944409 0.19765785 0.2737357 0.23648144 0.3060515 0.1773935
0.25653866 0.18717557 0.30769643 0.22908965 0.32842803 0.29274076 0.24249177 0.23706724
0.21187149 0.4939212 0.3327788 0.40512216 0.27165258 0.40116388 0.2631033 0.33289596

feature_extraction_layer.2.bias f4 [128]
00000000: 7873 26c0 646e 48bf c8d3 4dbf 54b1 59bf
00000010: f69e 78c0 660d 66bf 9f4a 66bf 6842 3dbf
00000020: 3d34 86bf 30a2 1cbf bf8f 6cbf d121 5cbf
00000030: 7f87 43bf 0aef 53bf 070f 37bf b5c5 4dbf
00000040: 418d 58bf c9ea 31bf 33cc 32bf 512e 45bf
00000050: 1ea7 80bf 16ff 85bf 8a91 72bf 244a 38bf
00000060: 1514 58bf ae69 57bf fd9f 83bf c1f9 3fbf
00000070: d792 6bbf a3d4 07c0 6682 0cc0 4786 69bf
00000080: 5195 5abf 0ecb 3bbf ec0b 61bf f19b 6ebf
00000090: e403 6bbf afcb 60bf b97c 5cbf 2a64 6bbf
000000a0: 63e4 64bf df5d 31bf 70da 5fbf d072 72c0
000000b0: c358 4abf 56a5 77bf e941 d6bf 26b2 78bf
000000c0: c7e0 77bf 3486 58bf 9ea5 61bf bacc 34bf
000000d0: f4d7 43bf c4a3 d4bf 5ebc 76bf 22a6 3abf
000000e0: 389b 1ac0 3597 5dbf 1e56 7dbf c30c 5bbf
000000f0: 933c 66bf 8ee8 4dbf 4084 3dbf b62b 5bc0
00000100: 8700 93c0 9ef8 4dbf 7e7c 43bf e601 6ebf
00000110: 857d 5bbf a9b7 4cc0 e14c 83bf 83e7 e2bf
00000120: b1f3 64bf 50b4 5dbf d4d7 47bf 6ab4 66bf
00000130: 7ae2 66bf 619a 60bf f778 5ebf 4956 5cbf
00000140: 0823 36bf bb0b 42bf fb55 5bbf f24b 62bf
00000150: d1cb 46bf 6623 5fbf d355 54bf b249 2ebf
00000160: 9eaf 35bf fd3b 36bf 24e5 4cbf 40ca 86bf
00000170: e284 8cbf c7d5 21c0 43a3 72bf c726 6ec0
00000180: 1720 3ebf d529 5bbf 5c32 68bf 8d38 54bf
00000190: 24d5 2ebf b468 55bf ef1e 52bf 4fc4 6cbf
000001a0: 4841 2bc0 da2e 3ebf e3fc 6cbf a9ca 4abf
000001b0: 87f8 54bf 5394 47bf 497f 82bf a484 25bf
000001c0: f564 4dbf ddff 45bf 36c2 66bf cca1 52bf
000001d0: 0f11 81bf d0e6 60bf df8f 47bf 5805 57bf
000001e0: 6c5d 62bf e093 8dbf b825 6dbf 4730 87bf
000001f0: db41 5bbf 932c 6bbf 9c30 7cbf fdef 83bf
-2.6007977 -0.7829344 -0.8040128 -0.85036206 -3.8847022 -0.89864194 -0.8995761 -0.7392945
-1.0484692 -0.6118498 -0.9240684 -0.859891 -0.76378626 -0.8278662 -0.71507305 -0.803798
-0.84590536 -0.6949888 -0.69842833 -0.770238 -1.0051 -1.0468471 -0.94753325 -0.7198813
-0.8440564 -0.8414563 -1.02832 -0.7499047 -0.92020935 -2.1223533 -2.195459 -0.91220516
-0.8538409 -0.7335671 -0.87908816 -0.932067 -0.9180281 -0.87810796 -0.8612781 -0.91949713
-0.8941099 -0.6928386 -0.87442684 -3.7882576 -0.7904169 -0.9673666 -1.6738864 -0.9714683
-0.9682736 -0.8457978 -0.88143337 -0.7062489 -0.76501393 -1.6612477 -0.96381176 -0.7290975
-2.4157238 -0.8655885 -0.9895953 -0.8556635 -0.8993618 -0.80432975 -0.7402992 -3.424543
-4.5938144 -0.80457485 -0.76361835 -0.92971647 -0.857384 -3.1987097 -1.0257837 -1.7726902
-0.89434344 -0.8660326 -0.780637 -0.9011904 -0.90189326 -0.87735564 -0.8690333 -0.8606916
-0.71147203 -0.7579915 -0.8567807 -0.88397133 -0.7765475 -0.8716339 -0.8294346 -0.680812
-0.70971096 -0.71185285 -0.8003714 -1.0530472 -1.0978053 -2.528673 -0.9478037 -3.7211168
-0.74267715 -0.85610706 -0.9070184 -0.8289879 -0.68293977 -0.8336289 -0.8207845 -0.92487043
-2.6758595 -0.7429024 -0.92573375 -0.79215485 -0.8319172 -0.779607 -1.0195094 -0.6465552
-0.80232173 -0.7734354 -0.9014009 -0.8227813 -1.0083331 -0.8785219 -0.77953905 -0.8399253
-0.884238 -1.1060753 -0.9263568 -1.0561608 -0.8564736 -0.9186489 -0.9851167 -1.0307614

feature_extraction_layer.2.running_mean f4 [128]
00000000: 2995 da3f dc5b 10c0 fb3d 063e ce2c 15bf
00000010: 5a25 f140 87ef 483e 503d d3be f5ea 0abf
00000020: c7fe 22bf c32e cfbf d8bf b83d 3946 4f3e
00000030: 71ac 9fbf 7294 a4bf 2423 bcbf cdd1 51be
00000040: 0eb6 b6be a3b4 82bf 836e 88bf 0f8e 5cbe
00000050: e9e5 b2be 19f1 b3bd a8b2 0ebe 6032 25bf
00000060: f797 033f e882 3abe aafb 0dbe f74b 0f3e
00000070: 82f9 9cbe 859e f83f 2397 0b40 6a13 79bf
00000080: f2cf a43e 9b6c 34bf 863f f03e b4e1 f23d
00000090: 2b76 15be 0108 853e 0138 e3be 8228 9d3c
000000a0: 2978 eebe e04b a0bf ec4b 77be e5eb 7c3f
000000b0: fa2f 9cbf c842 fcbe 4e27 0740 3910 b03b
000000c0: 14da 08be 34db c9be c5fa e4be c148 85be
000000d0: 572e 4b3d 4dac 2340 5e1f 1bbf 0836 843d
000000e0: 9088 7c40 9aba 3a3e 69ca f6be c807 d8bd
000000f0: 2794 713f 8b8e 47bf 17f0 2dbf 7e87 b7be
00000100: 1d39 9ebe 0c87 2abf 6151 b4bf 8696 ce3e
00000110: 9c0b 58bf b54d 1640 c09c 83bf 446f 6a3f
00000120: 9694 79bf 4507 113f 9a9b ba3e ceb8 a2be
00000130: 84eb f73c ae32 28be a581 7abf 3de4 4bbf
00000140: bdb7 f4bf fa63 cebf 4940 25bf cb4e cf3c
00000150: 1955 503e 1226 743d ecf7 e23e 12c7 04bf
00000160: 94f8 f4be ccf7 f1be ebb1 b1be f8e0 143f
00000170: e1f4 b9bd 5867 4640 3eb0 8b3f b808 fd3f
00000180: 98d9 adbf 9302 d1bd f267 003f 6767 90bf
00000190: a969 83bf 2439 713d ea29 cb3e a695 1b40
000001a0: 7dd0 6340 662a b03d 6fda f0be 31a6 12bf
000001b0: 5fc6 aabe c2c3 cebe d114 a93e 2162 02c0
000001c0: 85d9 58be 67f2 c0be 0988 d9be 317e 03bf
000001d0: d380 b4be ab5a 0abf 9c14 13bf dea7 eabd
000001e0: bfb5 a0bf 9f00 a03f 2e81 cabe cf55 3dbe
000001f0: f995 773f ada2 853f f9b9 0e3f 6c93 753f
1.707677 -2.2556067 0.13109581 -0.5827149 7.5358095 0.19622622 -0.41257715 -0.54264766
-0.6367001 -1.6186146 0.09020966 0.20241632 -1.24745 -1.2857802 -1.4698224 -0.20490189
-0.35685772 -1.0211376 -1.0658726 -0.21538566 -0.34941033 -0.0878622 -0.1393534 -0.6452999
0.51403755 -0.18214 -0.13865533 0.13993822 -0.3065911 1.9423376 2.1810997 -0.9729525
0.321899 -0.7047822 0.46923465 0.11859456 -0.14595859 0.2598267 -0.44378665 0.019184355
-0.4657605 -1.2523155 -0.24150056 0.98797446 -1.2202141 -0.492697 2.111774 0.0053730276
-0.1336444 -0.3942505 -0.44722572 -0.2603207 0.04960474 2.5573914 -0.6059474 0.06455618
3.945835 0.18235245 -0.48201302 -0.10548359 0.9436669 -0.7795188 -0.67944473 -0.3584556
-0.3090295 -0.66612315 -1.4087335 0.40349215 -0.84392715 2.3484929 -1.0282211 0.9157603
-0.9749235 0.5665172 0.3644684 -0.3178162 0.03026367 -0.16425583 -0.9785407 -0.7964514
-1.9118572 -1.612426 -0.64551216 0.025306126 0.20344962 0.05960662 0.44329774 -0.5186626
-0.478459 -0.47259367 -0.34706053 0.58155775 -0.0907991 3.1000576 1.091316 1.9768286
-1.3582029 -0.10205569 0.5015861 -1.1281556 -1.026662 0.058892384 0.39680415 2.4310088
3.5596 0.08601837 -0.47041652 -0.5728484 -0.3335447 -0.40383726 0.33023694 -2.0372393
-0.21176727 -0.37684938 -0.424866 -0.5136443 -0.35254535 -0.540446 -0.5745332 -0.114577994
-1.2555465 1.250019 -0.3955168 -0.18489765 0.96713215 1.044027 0.5575252 0.9592807

feature_extraction_layer.2.running_var f4 [128]
00000000: 92db b040 c20a 1f40 2287 c13f 446e 9e40
00000010: 3606 6841 e0bc a440 fbd3 5540 c5fc 6540
00000020: 5c16 5d40 9f0c 9d40 a360 5d40 e369 0040
00000030: ba72 5840 d011 1440 8ede 2940 d947 1a40
00000040: fe26 0940 8d3a 8f40 987c 2540 34ab 4640
00000050: 36db 8040 c608 c040 a62b 7540 d9fd 0840
00000060: 70b8 0d40 ec45 e23f 394a 2c40 bb0b 9a3f
00000070: 0317 0d40 2ff5 4440 1556 1741 77d7 9f40
00000080: ec90 2d40 d4bc 1840 fd26 5b40 ec6d 2240
00000090: 6735 b040 0c04 c73f f4b5 fb3f 3da2 5740
000000a0: 33a7 ad40 0c7a 2740 e2b7 0c40 1eba 8240
000000b0: 3292 5140 0861 9f40 9108 3a40 f2b3 3a40
000000c0: 0bf4 7d40 aaef f63f ab0e 5840 53ae b13f
000000d0: 7394 3840 d4c0 8040 96f3 8c40 0b82 ad3f
000000e0: ae4b 1941 125e 4c40 c0bf d540 2533 4940
000000f0: 1e13 2640 cd29 f43f dd4b 2140 aff3 5941
00000100: c4cd 5c41 8d5f 2940 0d22 3640 991b 0140
00000110: d589 d73f c3cd e940 57ca 6a40 93f8 3040
00000120: a987 b140 7a7d 0b40 b47b e73f 71de 7b40
00000130: 6432 1540 a3bc f33f 022e ae40 8788 a240
00000140: cb48 bc40 9807 6040 797e b63f 800f 5240
00000150: dfba 2340 a29d 0540 09ad dc3f 6053 0940
00000160: 79e6 9340 1368 f23f 9e0f 2540 ecdf cf3f
00000170: db53 f240 1886 ab40 761c a13f 3eea 5441
00000180: 7f1d 5740 115c 6040 c0b2 7040 15ec f73f
00000190: 2dae 5340 c853 0d40 5e63 1c40 93a8 0c40
000001a0: 06bc d740 4b39 9740 153c b240 47d8 1340
000001b0: c68a 0c40 1a5a 4040 041b 6640 4964 8a40
000001c0: 985f 3940 73b3 1b40 59e6 8040 972e cc3f
000001d0: ddab ef40 ab31 a140 771a c63f 8ae1 5f40
000001e0: 293b f13f 22d5 4f40 1395 4d40 8df0 f440
000001f0: 8455 2f40 ffd2 8340 fa6d c23f 3b5c 3040
5.526803 2.4850316 1.5119364 4.95096 14.501516 5.148056 3.3410633 3.5935528
3.4544897 4.9077907 3.4590232 2.0064628 3.3820024 2.3135872 2.6542087 2.4106352
2.143005 4.4758973 2.5857296 3.1041994 4.026759 6.001071 3.830789 2.1404936
2.2143822 1.7677588 2.6920302 1.203483 2.2045295 3.0774648 9.458516 4.995052
2.7119703 2.3865252 3.4242547 2.537959 5.506519 1.554811 1.9664903 3.3692772
5.42666 2.6168242 2.1987233 4.0852194 3.274548 4.9805946 2.9067729 2.917233
3.9680202 1.929189 3.3758953 1.3881325 2.8840606 4.0235386 4.4047346 1.3555311
9.5809765 3.1932416 6.679657 3.1437466 2.5949168 1.9075257 2.5202553 13.621993
13.800236 2.646457 2.8458283 2.0173094 1.6838938 7.3063674 3.6685998 2.7651718
5.54781 2.1795335 1.8084626 3.9354517 2.3312006 1.9041942 5.443116 5.079166
5.883886 3.5004635 1.4257346 3.282196 2.5582807 2.0877461 1.7240306 2.1457138
4.621884 1.8938011 2.5790782 1.624021 7.5727363 5.360119 1.258681 13.307188
3.3611753 3.5056193 3.76091 1.9368922 3.3075058 2.2082386 2.443565 2.197789
6.741702 4.725744 5.569834 2.3100755 2.19597 3.0054994 3.595399 4.324742
2.8964596 2.4328277 4.0281186 1.5951718 7.4897294 5.037313 1.5476826 3.4981408
1.8846179 3.2473836 3.2122238 7.654364 2.7395945 4.1195064 1.5189812 2.7556293

dense_layers.0.1.weight f4 [64, 128]
00000000: 68ce 413e e537 e73d 6c4c ccbd be42 a53e
00000010: 4508 643b 2ff9 9fbe 1540 39be f630 873e
00000020: 8f6d 70be 6c51 afbd aa3a 4f3e af79 39be
00000030: 1d28 613d 66bb d73c 602c b2bc dc05 0b3e
00000040: dcdc 853d e3ce 533e 5784 64be b082 c33e
00000050: 51aa 763e e5aa 333e da26 0ebe 0758 81be
00000060: e497 bbbd 08bf babd 86ff 69be 8dc9 5cbc
00000070: 9385 c33d 9c22 51be ce71 f0be 5f45 afbd
00000080: bffc e6bd c9e5 a33d 3114 003d 6256 043e
00000090: d86f 413e 3a94 aaba e206 4fbe 11c5 aebd
000000a0: 717a c23e 5e59 e23d 6464 893e 945e 88bf
000000b0: 22c9 69be e294 d33c 8dfd 053e dc17 b93d
000000c0: 1eea e43e e94c 54bd c4c9 4fbe 455d 1b3e
000000d0: 9b2e 4c3e 0609 a9be 53da a63d 75d4 12be
000000e0: ac13 593e 7bef 8fbe d4e1 32be f87e 77be
000000f0: dcfa 033e b7d7 d4be 8967 773e e067 d73f
00000100: 84c0 dfbc 48d8 b1bb 82dd 5ebe 6d58 4abe
00000110: 68a7 96be aad6 e6be c70f a9be 7ae6 8e3e
00000120: 5897 443e b522 32bd b566 f23d b6d5 98be
00000130: e136 e03d f9a4 ebbd f736 f93c 3b88 d8bb
00000140: eb38 833d 2782 cc3c cc6a 1cbd 430e 4f3d
00000150: 9c5e 8bbe 6e1d fbbc 5e7c 663e afe2 ea3c
00000160: 6230 773e dff7 c2bc 27fd ce3c ed8e 1e3e
00000170: fa75 cebe 2d43 dc3e c9c1 f5bb 9f22 18bf
00000180: 5e24 0b3e db70 053d 629f ac3c b8e6 5cbd
00000190: 12d0 c93e f19a 633e 336f 80be 548a 17be
000001a0: 5a08 833e b8c2 63bd 7281 41be 6845 53be
000001b0: 8c9c 9a3d 89e3 0ebe f0a1 8abd 6b23 e6bd
000001c0: a183 a8bc bee0 223e 6842 28be 78b5 713d
000001d0: 28aa 8f3e 5665 bc3c d93c 09bc b553 21bd
000001e0: c118 b53d 1c28 153e a8ab e43c 156d cfbd
000001f0: 8633 dfbd 2399 813e a0ab a8ba 1da3 c93e
00000200: ad97 883f 111e 80bd 852c 263e 21d2 553d
00000210: ebc7 07bd 00d4 b33d 2410 d33d c2d0 c0bd
00000220: d95a ad3e 8c04 423d 4670 883c c434 383e
00000230: 1ba3 9fbe c816 c4bc 6220 443d 8a85 f3bd
00000240: 4017 14be 1d53 6f3e 632b 53be 3a2a 603d
00000250: 9ffa 94bd 96b0 80bd 34a2 afbd e292 cf3d
00000260: 18d1 a83e 4902 293e 3877 053e f1a3 853c
00000270: a518 2a3e 1e6e 673f 16c7 c33e 3993 673e
00000280: 572d 7f3e f886 8abb 605c 22be 5de2 75bd
00000290: 6cda f2bd 922e 19bd 9fcc d73d 316b 22be
000002a0: fc17 2a3c d8b8 05bf 3630 72be 95eb a03b
000002b0: 4fd4 933d 50ca 42be 35b2 c83e 7c66 263e
000002c0: fec1 6f3e 3c89 8c3e 05e2 0a3e 735c c13c
000002d0: 6ec8 25be d9f1 da3e 1134 533e 60d1 7ebc
000002e0: fde3 403f 3d10 24be 397a 9cbd f896 773d
000002f0: 1b5c 163d 1bc1 88bd c1c9 34bd 6cd9 aebf
00000300: 1efe 663e f4b1 d0bd 007b 28be 1b6c 1a3e
00000310: 5987 13be 07b1 0b40 2fb8 453e 1e73 683e
00000320: 2fde 55be d1ed bebd 232c 91bd 832c 9cbd
00000330: 2aff 293e a15a da3c 5376 c23d c050 813e
00000340: 1812 613d aec1 5f3e d0b3 313c 76ea b9bd
00000350: 1600 e8bc 9ca5 243e 0d89 b73e 6954 e7bd
00000360: 580e a33c 5e04 db3d 8c89 0c3e 7ae9 6fbd
00000370: 8c4d 59bd 79c6 f73e bb91 4abe 47ab 303f
00000380: 479f eb3d 940e 3b3d 463d e93c 9022 85bd
00000390: 3d5a d13e 18e0 02bc 7269 22bd c0d4 993e
000003a0: 1f02 353f 6398 64be 9631 083e 881d 623e
000003b0: 89a0 fd3d 0f79 98bb adbd 72be 4284 d5bd
000003c0: 812f 273e 68ff 43be 1b85 5b3e 9e6b 02be
000003d0: a1fc afbe 1a04 943e edf9 a6bd 14e7 c4bc
000003e0: 7f84 0d3d 250e b3bd 0dc3 a53e b40f a33d
000003f0: 7c09 ae3e 9915 663e 4e9e 183d e690 f4bc
0.18926394 0.11289958 -0.09975514 0.32277483 0.0034794968 -0.312448 -0.18090852 0.26404542
-0.23479293 -0.08560452 0.20237222 -0.18112825 0.054969896 0.026334476 -0.021749675 0.13576454
0.06536266 0.2068439 -0.22316109 0.38185644 0.24088408 0.1754566 -0.13882008 -0.25262472
-0.0915983 -0.091184676 -0.2285138 -0.013475788 0.09546962 -0.20423359 -0.46961826 -0.08558153
-0.11278676 0.080028124 0.031269256 0.12923577 0.18890321 -0.0013014146 -0.2021747 -0.08533681
0.3798404 0.11052202 0.26834404 -1.0653863 -0.22830632 0.025827829 0.13085003 0.09037754
0.44709867 -0.05183116 -0.20291811 0.15172298 0.19939654 -0.33014697 0.08147111 -0.14338858
0.2119891 -0.28112397 -0.17468959 -0.24169528 0.12888664 -0.41570827 0.2416059 1.6828575
-0.027313478 -0.005427394 -0.21764186 -0.19760294 -0.29424596 -0.4508565 -0.3301985 0.27910215
0.19198358 -0.04349013 0.11835996 -0.29850549 0.10947967 -0.115060754 0.030421717 -0.006608037
0.064073406 0.024964405 -0.038187787 0.05055071 -0.2722062 -0.030653682 0.2250838 0.028672544
0.2413955 -0.023799835 0.025267197 0.1548421 -0.40324384 0.4302 -0.0074999076 -0.5942783
0.13588092 0.03257833 0.021072093 -0.053930968 0.39416558 0.22227074 -0.25084838 -0.14798862
0.2559231 -0.05560562 -0.18897036 -0.20631945 0.0754939 -0.13953985 -0.067691684 -0.11237224
-0.020570578 0.15906045 -0.16431582 0.059010953 0.28059506 0.02299754 -0.008376324 -0.03938647
0.08842612 0.14566082 0.027913883 -0.101282276 -0.10898499 0.25312147 -0.0012868531 0.39382258
1.0671288 -0.06255735 0.1622792 0.052202348 -0.03314964 0.0878067 0.10305813 -0.094148174
0.33858374 0.047367617 0.016655099 0.17988878 -0.31179127 -0.023936644 0.047882445 -0.11890705
-0.14461994 0.23371549 -0.2062202 0.05472777 -0.07274365 -0.06283681 -0.0857586 0.101354375
0.32972026 0.16504778 0.1303376 0.016313525 0.16610964 0.904024 0.38237828 0.22614755
0.2491964 -0.0042275153 -0.15855551 -0.06003033 -0.11858067 -0.03739793 0.10537075 -0.15861203
0.010381695 -0.52235174 -0.23651204 0.004910896 0.07218229 -0.19022489 0.3919846 0.16250032
0.23413846 0.27448452 0.13562782 0.023603654 -0.16189739 0.4276264 0.2062533 -0.015552849
0.7534788 -0.1602182 -0.076404996 0.06044671 0.036708932 -0.06677457 -0.04413772 -1.3660102
0.22557876 -0.10190192 -0.16453171 0.15080301 -0.144071 2.18268 0.19308542 0.22700164
-0.20885538 -0.09322704 -0.070884965 -0.076256774 0.16601244 0.026654543 0.09495225 0.2525692
0.054948896 0.21851227 0.010846093 -0.09077923 -0.028320353 0.160788 0.3584675 -0.11295397
0.0199043 0.10694192 0.13724345 -0.05857227 -0.05305247 0.4839361 -0.19782154 0.6901135
0.11504989 0.0456682 0.0284716 -0.06500733 0.4088916 -0.007987998 -0.03965134 0.30045128
0.7070636 -0.22323756 0.13300166 0.22081578 0.12384135 -0.004653103 -0.23705168 -0.10425617
0.16326715 -0.19140399 0.21437494 -0.12736365 -0.34372428 0.2890938 -0.08153138 -0.024035968
0.034550186 -0.08742932 0.32375374 0.079619795 0.3399161 0.22469176 0.037260346 -0.02985425

dense_layers.0.1.bias f4 [64]
00000000: ce3b d0bc 6622 64bc 48bb 76bd 9b98 b13d
00000010: 8d23 403d 897c 2a3d 3efb 4f3c 9c63 c03b
00000020: cbc4 b23d 8619 9ebd fa08 96bd 980f 9bbd
00000030: 1d54 88bd bf80 32bd d0dc 273d a649 5cbd
00000040: 45ee a5ba 3f1b b3bd bba8 f0bc 440a 53bd
00000050: c73a 6f3d 343e 99bd 642e 843d 7b13 51bd
00000060: 8d65 6e3d af96 2bbd 945a e03d f28f 4ebb
00000070: b1ec 033d e202 5e3d e8ee 78bd 2bfc 78bd
00000080: 2588 39bd 5243 a53d c64c 133b 17de 76bd
00000090: 4f5b a53d 9f6f b1bc 55ce 313d 07c9 003d
000000a0: e2f0 cfbd 96a6 2dbd 9c46 1bbd 87a4 20bd
000000b0: 03d3 ac3d 73d1 33bd 1b5b 123d 15a7 f63c
000000c0: 7a41 a73c 979b adbd 494f 9d3d 61e8 74bc
000000d0: 32ff 82bd 0234 04bd 3ddb 233b 1d51 3cbc
000000e0: 0185 1d3d 9546 b3bd 9918 77bd b00a 993d
000000f0: 9cc5 95bd 1a7f efbc 5456 373c a2f2 80bd
-0.025419142 -0.013924217 -0.0602372 0.08671685 0.046908904 0.041622672 0.012694178 0.0058712494
0.087289415 -0.07719712 -0.07325931 -0.07571334 -0.06656668 -0.043579813 0.040982068 -0.053781174
-0.0012659511 -0.08745431 -0.029377332 -0.051523462 0.058405664 -0.074825674 0.06454161 -0.05104397
0.058202315 -0.04189175 0.109547764 -0.0031518904 0.03220815 0.054201968 -0.060774714 -0.06078736
-0.045295853 0.08069481 0.002247618 -0.060270395 0.08074056 -0.02165967 0.043409664 0.031441715
-0.101533666 -0.042395197 -0.037909135 -0.039219406 0.08438685 -0.04390092 0.035731416 0.030108968
0.020416964 -0.08476942 0.07681138 -0.014947982 -0.06396331 -0.03227616 0.0025002502 -0.011493948
0.03845692 -0.08753697 -0.060326193 0.074727416 -0.073130816 -0.029235411 0.011190016 -0.062962785

dense_layers.0.2.weight f4 [64]
00000000: d2ea a83e 7f48 7e3f f3bb 433e b89f 633f
00000010: 5847 143f 040b f03e 0c58 9f3e fbe7 f33e
00000020: ea85 213e 9e24 433e 6171 d83d b780 ac3d
00000030: 4092 1a3e 9e8e 373f f618 5d3f cf40 183f
00000040: 33e3 1a3e 5bd6 e23e 30d3 b13f 8f32 e03d
00000050: f575 f03f 4d73 c33d 7658 2d3e 5f9e a33f
00000060: 53de 173e 8de1 c13d ecde 5d3f fd29 223f
00000070: 4758 203f 5c84 e13e 0d8b 763e 9189 433f
00000080: de55 503e f7bd 0c3e 8f37 6a3e b2ab 493d
00000090: 409d d93e 9785 423f bc93 e33e a4a4 ad3f
000000a0: b602 0d3f a735 d33c c8cd a63f a3f6 b93f
000000b0: bcbb 7b3f 7749 e03d c2fa 203f 7c95 4b3f
000000c0: a0ef f53d 2c1f b23d f56e 073e 547b 7f3e
000000d0: bd51 013f 9a87 a43f a921 6f3f 968f 803e
000000e0: 341f bb3f 8271 01be 9a9b 043e fde1 933d
000000f0: b282 0c3f a254 9a3f 0f73 773e 404e fb3c
0.32991654 0.9932937 0.19114666 0.88915586 0.5792136 0.46883404 0.31121862 0.47637925
0.1577374 0.19056937 0.105685 0.08422988 0.15094852 0.7170199 0.8636621 0.5947389
0.15125732 0.44304165 1.3892574 0.10947143 1.8785998 0.09543476 0.16928276 1.2782706
0.14830904 0.094668485 0.86668277 0.6334532 0.626347 0.44046295 0.24076481 0.76381785
0.20345256 0.13744341 0.22872756 0.049236007 0.42502785 0.7598509 0.4444865 1.3565869
0.5508226 0.02578242 1.303155 1.4528393 0.98333335 0.10951512 0.62882626 0.7952497
0.120085955 0.08697352 0.1322592 0.2494939 0.5051535 1.2853882 0.93410736 0.25109547
1.4618897 -0.12640956 0.12949982 0.07220838 0.54886925 1.2057078 0.24164985 0.030676961

dense_layers.0.2.bias f4 [64]
00000000: 3eca 16bf 3cd5 abbf 3e78 31bf 1e60 6b3e
00000010: 83ac 82bf 5257 09bf 4882 fcbe 80b3 b4bf
00000020: 62ca 8fbe 4a59 f2be 4508 16bf 3340 33bf
00000030: 28ff bebe 13fa 403e 3fe9 7dbe 8b5c 28bf
00000040: e271 15bf 5d37 f8be 824f c1be 0b8c 75be
00000050: f4a0 ca3e 9b01 b3be 8337 13bf 294c e2be
00000060: 0aba 5fbe 2985 04be 570b 563f c963 18bf
00000070: 4a8e aebe bb50 31bf ccae 3abf 69e9 89bf
00000080: 19b9 8bbe ae80 8dbe 64ed eebe 79da bfbd
00000090: 79d8 543e 6c51 d2be 758f 90be fbe9 a53e
000000a0: 2166 bcbe 4426 7cbd bd02 50bf 6e14 203e
000000b0: ecbf e43c 01ae debe b9ee 92be a328 6ebf
000000c0: 8ea4 f8be 7c08 1ebe 36ed 11bf 80ff 0f3f
000000d0: b492 c7bd 69f5 4dbf 4a63 3c3b 4f4d 19bf
000000e0: bff2 85be 82ef 32bf adf7 e1be fafe c8be
000000f0: d703 edbe 97d1 1ebf 6952 f7be 9a72 21bd
-0.5890235 -1.3424449 -0.693241 0.22985885 -1.0208896 -0.53648865 -0.49318147 -1.4117279
-0.28084093 -0.47333747 -0.5860637 -0.70019835 -0.37304044 0.18845396 -0.24796008 -0.6576621
-0.58376896 -0.4847974 -0.37755972 -0.23979203 0.39575922 -0.34962162 -0.5750658 -0.4419873
-0.21848312 -0.12941422 0.83611053 -0.5952726 -0.34092933 -0.6926381 -0.7292297 -1.0774356
-0.27289656 -0.27637237 -0.4666549 -0.09367842 0.20785703 -0.41077745 -0.2823445 0.32405075
-0.36796668 -0.06155993 -0.8125418 0.15632793 0.027923547 -0.4349213 -0.28697756 -0.93030757
-0.48563045 -0.15432924 -0.5700258 0.5624924 -0.09744778 -0.8045259 0.0028745704 -0.5988359
-0.26161763 -0.6989671 -0.44134274 -0.39257032 -0.46291992 -0.6203856 -0.4830506 -0.039415933

dense_layers.0.2.running_mean f4 [64]
00000000: 2724 febc f77f 0141 8940 9b3f 7d5e 8c41
00000010: 0af0 a140 78f4 5b40 e9ad eb3f 65f4 7b3f
00000020: b15c c640 b562 0c40 9ad9 a93f 92b4 3dc0
00000030: 7d9d 6f40 e423 9041 f282 5c41 5f1f e240
00000040: 13f5 bf3d 9e3e 3f40 f385 b141 4d91 0640
00000050: 0981 9b41 e348 233f 1080 17be cba6 6f41
00000060: 16f0 0a40 8f1c 0a41 bdc7 17c0 c105 0e40
00000070: 2dde 60c1 7ba4 2d41 8c0e c63f 695a 1941
00000080: 3ce5 ca3f 194d 3040 1198 c23f 2cdd 7d40
00000090: 3534 1ebf 0b32 55c1 ff9b dcc0 5433 a241
000000a0: 8d90 db3f f405 4440 5939 3cc0 e282 7041
000000b0: c01f 1041 f78a d7bc 7991 53c0 e444 0ec1
000000c0: 12b9 c940 fa53 8f40 a1c9 8c3e 560f 0b41
000000d0: aa9f 8a3f e1a3 8241 a98c c140 599f 4d3f
000000e0: 9e0a a441 70ae fe3e 8ea5 0940 3383 8cbf
000000f0: a838 8240 a836 06c1 dd87 0640 85d7 dd40
-0.031023098 8.093741 1.212907 17.546137 5.0605516 3.4367962 1.8412448 0.9841979
6.198815 2.1935246 1.3269532 -2.9641461 3.7439873 18.017525 13.781969 7.0663295
0.09372916 2.9881968 22.190405 2.1026185 19.438005 0.6378309 -0.14794946 14.978221
2.1709037 8.631972 -2.371566 2.2191012 -14.054242 10.852656 1.5473189 9.584573
1.5851207 2.7547057 1.5202657 3.9666243 -0.6179841 -13.3247175 -6.8940425 20.275063
1.7153488 3.0628633 -2.9410002 15.031954 9.007751 -0.02631138 -3.305754 -8.891819
6.3038416 4.479001 0.2749758 8.691244 1.0829976 16.330019 6.0484204 0.8032127
20.505184 0.4974246 2.1507297 -1.0977539 4.069416 -8.388344 2.1020424 6.9325585

dense_layers.0.2.running_var f4 [64]
00000000: 02f8 1941 2e83 3642 bb5a a63f 4a25 a142
00000010: 37b6 7341 d8d9 6b41 fc10 8f3f 19ac 8640
00000020: 690d ad40 7736 9240 8c7b 2440 d15c e540
00000030: 1aeb a240 beb4 a342 c47f 6c42 78d2 3b41
00000040: b735 1340 4409 4941 0bee 8e42 2902 1640
00000050: 3c64 fe42 bc41 903f c4e1 983e 401d cc42
00000060: 0f13 ad3f 4f7c 3a41 4495 3142 cdc4 b841
00000070: 1edc 4342 9f3e 8a41 5fac 5740 2cf6 2042
00000080: ea84 8d40 6a26 6040 26a5 ca3f 7e85 2841
00000090: 5f75 d540 1e65 3042 7ee3 7741 451e e242
000000a0: fd36 4c40 97d0 e73f b87b eb41 9e93 9942
000000b0: 88d5 2042 66eb a33f 88c9 ba40 5e96 6d41
000000c0: 345b 0941 34cf aa40 aaef 083f e4c9 3b41
000000d0: 2b99 4341 e2fb 2942 38c4 b941 bca1 5f3f
000000e0: 1e1a 1343 d4b3 d63e 60a1 4440 26d2 6a3f
000000f0: b9ac 9741 f10f ba41 ee5d 1a3f 094e 4f41
9.623049 45.628105 1.2996439 80.57283 15.231986 14.7406845 1.1177058 4.208508
5.407887 4.5691485 2.5700407 7.16758 5.091199 81.85301 59.12477 11.738884
2.3001535 12.564762 71.46493 2.3438818 127.19577 1.127006 0.29859746 102.05713
1.3521441 11.655349 44.395767 23.096094 48.96496 17.280577 3.3698957 40.240402
4.422475 3.5023446 1.5831649 10.532591 6.6705775 44.098747 15.49304 113.05912
3.1908562 1.8110532 29.43541 76.788315 40.208527 1.2806213 5.837101 14.849211
8.584766 5.3377934 0.534907 11.73679 12.224895 42.49598 23.22081 0.8735616
147.10202 0.41934073 3.0723495 0.9172691 18.959337 23.257784 0.60299575 12.956552

prediction_layer.weight f4 [13, 64]
00000000: 0c9a b83d 1ef5 70be 5d90 a93d a2d3 e0be
00000010: 8d3e ff3b 1f7b a5be 48df c5bd d9f4 aa3d
00000020: e5bc f1bd f0a6 253e 8299 003b 14ec 9abd
00000030: 5e1a fbbe 5ed8 8cbe 0749 23bf 7082 e2be
00000040: b78a 00bd b2d0 0abe 40d0 5fbf d1f9 91bd
00000050: 4ff9 183c aef7 e1bd 2aa8 2dbe 6440 4f3d
00000060: aca0 9bbd a5bc edbd 310b 8a3e 3677 df3e
00000070: ba5c d2be be89 cabe 5f73 ab3d b3f1 32be
00000080: 6480 99be af0b e8bd d63e a4bd 51c6 9dbd
00000090: 699f e33e 3610 adbe a95a c8be 8c4c cbbe
000000a0: 9f6c 95bd 0f6c ea3c ebcd 0abf 7370 78bf
000000b0: 273b 21bf 04b1 103c c5b2 58be 587e 743e
000000c0: fb10 8f3d faf2 afbc 29ad e33b ca02 df3d
000000d0: 990a 803d cc95 2f3f 2356 03bf df08 263d
000000e0: 8c8a af3e ece3 4ebd 3ab4 e4bd 8cad f43b
000000f0: cf59 d2be 2178 03be e961 05bd e728 9abd
00000100: 9d3b 753d a988 63be 71fd 3abe bd12 cbbe
00000110: fa8a 7ebe ddc6 b9be ab4e e6bd 4768 f2bd
00000120: f32c ffbd 8633 72bb 5a66 83bd ef2c 51be
00000130: d8a6 51be 2870 b9be 2cbb 0dbf cd69 953e
00000140: e137 f2bc cee2 22bf bf8c dbbe 1a67 49bd
00000150: 167e 91be 9007 59bd 296f f8bd f00e 4c3c
00000160: f595 25ba 21b4 36bd 6d54 3a3e 32b4 323f
00000170: 9437 3dbe 605d af3d 70e3 553d c751 23be
00000180: f54e 8bbe 29a7 46bd fa68 2ebd a8d9 b83d
00000190: 6a77 e03e c465 c2be 020c 86be d46d 29bf
000001a0: b172 96bf acd6 a5bc da7c e4be 82bb 33bf
000001b0: 0a17 39be dde4 18bd 23c2 d9be f226 59bc
000001c0: e3a6 063e 3c24 2cbd 2f3e f93c d399 e23d
000001d0: 6597 b03c 4a36 7f3f 3429 d4be 73da e73d
000001e0: 288c 733e fed0 cebd d81d 42be 64e4 22bd
000001f0: a03f 5bbe fa18 e2bd 9835 553d 3b8f 01be
00000200: c855 a2be 07c2 273e 1799 493b dc1e 04c0
00000210: 6cf3 11bf 2e42 5bbe bb81 99bc dbf6 13bf
00000220: 2c8a 89be 8783 c8bd 09ff 1abe 2191 6bbe
00000230: 31dd d3be 6934 00c0 cdbb 353f d3ef 37be
00000240: e20a edbd 3786 fd3e 6e12 0cc0 a63d aabd
00000250: 08e8 9cbe d13e 46be a410 db3c 26f5 373e
00000260: 6799 a43c 4455 d0be 3a45 0d3f 511e ae3e
00000270: 0b47 b5bf d423 9ebe b5ff 74be 37eb 8abd
00000280: 34a3 98be 304f 0fbe aeb1 4ebe 9303 883e
00000290: 00f9 493f 3af3 83bf 3952 3abf 5a7f e4bf
000002a0: 31a7 c93b 160f 18be 6c0a 3abf c46a e2be
000002b0: 8253 fcbe a90e 63be dbd5 58bf 6d7c a8bd
000002c0: 94a0 efbd 3268 98be e879 3cbd 1da0 523f
000002d0: 7abd 533e 79a5 4dbd d068 15bf fb90 773d
000002e0: 6e63 953e 02ca 06be 86e9 91bd 7bf1 263d
000002f0: 8cab a7be 5ea7 96bd d69e f03d 7bdc 07bf
00000300: a7a9 a83d 9cc9 58bf 8e7d 363d 0c64 8dbe
00000310: 320b e2bd 86d0 ebbd 423e 83bb abd1 68bf
00000320: 268d 133d a0b2 e63c 1621 bb3d ee17 cebd
00000330: 1dce 753e 194c 87be f882 1cbf 1453 d4be
00000340: fe20 8ebd e28d be3c 5b83 2bbf 9156 c53c
00000350: 5bbb 13bf cdf4 a5bc 736f a13d ebe2 083f
00000360: 42d0 203c 6df3 963d b7fb 3f3f 9b4c fc3d
00000370: 3e0e 37be 18ab 78bd 6a35 52be c32b f0be
00000380: 3e9b d6bd 3c6c 1cbe 1c02 48bd 06ec 4ebe
00000390: abac 373e 35fd 88be 3b1c 19be 9ca5 e0be
000003a0: 0d36 1cbe db7d 8ebc 7e62 5abf 55b4 6ebf
000003b0: eea9 17bf 2a03 b23c e7d6 01bf c608 a33e
000003c0: 9bb4 203d 670d 27bd fe3a a03d a0c9 4d3e
000003d0: 64ec 313e dc22 543f e04c 26bf fdc8 3fbd
000003e0: 4f9c 373f e773 beba e408 063d daa9 f9ba
000003f0: 9ecb b1be 1006 12bf d3cd 243d 48e6 f4bd
0.09013757 -0.23531005 0.08279488 -0.43911463 0.007789439 -0.32320496 -0.09661728 0.08347482
-0.11803607 0.16176963 0.0019622748 -0.075645596 -0.49043554 -0.27508825 -0.63783306 -0.4424014
-0.03138229 -0.13556173 -0.8742714 -0.07127727 0.009336784 -0.11033569 -0.16958681 0.050598517
-0.07599005 -0.11608247 0.26961663 0.43645638 -0.4108637 -0.39558214 0.08371615 -0.17475013
-0.29980767 -0.113303535 -0.080197975 -0.077038415 0.44457558 -0.3380143 -0.39131668 -0.39706838
-0.072961085 0.02861598 -0.54220456 -0.97046584 -0.62980884 0.008831266 -0.21161945 0.23876321
0.06985661 -0.021478165 0.0069481325 0.10889204 0.06252021 0.68587947 -0.5130331 0.040535804
0.3428539 -0.050510332 -0.11167188 0.0074669775 -0.41084144 -0.12838794 -0.032564078 -0.07527333
0.059871305 -0.222201 -0.18260743 -0.39662734 -0.24857703 -0.36284533 -0.112454735 -0.118362956
-0.12459745 -0.003695698 -0.064160064 -0.20427297 -0.20473802 -0.3621838 -0.55363727 0.29182282
-0.02956766 -0.63627326 -0.42880818 -0.04917059 -0.28416508 -0.052985728 -0.12130577 0.012454733
-0.0006316596 -0.044605378 0.18196268 0.69806206 -0.18478233 0.08562732 0.052218854 -0.15949164
-0.27208677 -0.04849926 -0.042580582 0.0902589 0.43841106 -0.37968266 -0.26181036 -0.6618321
-1.1753751 -0.020243965 -0.44626504 -0.7020799 -0.18075195 -0.037327636 -0.42530927 -0.013253914
0.131496 -0.042026743 0.03042516 0.11064496 0.021556566 0.99692214 -0.41437685 0.11320963
0.23783934 -0.10098456 -0.18956697 -0.03976859 -0.2141099 -0.1103992 0.052053064 -0.12652294
-0.3170607 0.1638261 0.0030761415 -2.0643835 -0.5701206 -0.21411964 -0.018738618 -0.57798547
-0.2686323 -0.09790712 -0.1513635 -0.23004581 -0.41379693 -2.0031989 0.70989686 -0.1796258
-0.11574341 0.4951646 -2.1886249 -0.0831254 -0.30645776 -0.193599 0.026741333 0.1796461
0.02009268 -0.40690053 0.55183756 0.34007505 -1.4162306 -0.3088671 -0.2392567 -0.06783145
-0.29812014 -0.13995051 -0.20184967 0.26565227 0.7889557 -1.0308602 -0.7278171 -1.7851365
0.006153964 -0.14849505 -0.7267215 -0.4422208 -0.4928246 -0.22173561 -0.8470132 -0.08226857
-0.1170055 -0.29766995 -0.046014696 0.82275563 0.20677748 -0.050206635 -0.58363056 0.060441
0.2917742 -0.13162997 -0.07124619 0.040757637 -0.32748067 -0.073561415 0.117490456 -0.530708
0.082354836 -0.8468263 0.044553332 -0.27615392 -0.110372916 -0.11514382 -0.0040052244 -0.9094493
0.03602328 0.028161347 0.0913717 -0.10063158 0.24004407 -0.26425245 -0.6113734 -0.41469634
-0.069398865 0.023261014 -0.6699731 0.02408913 -0.57707757 -0.020258332 0.078825854 0.5347125
0.0098152775 0.073706485 0.7499346 0.12319299 -0.17876527 -0.060710043 -0.20528188 -0.46908388
-0.10478829 -0.15275663 -0.048830137 -0.20207223 0.17936961 -0.26755682 -0.14952175 -0.4387635
-0.15254994 -0.017393997 -0.8530654 -0.93243915 -0.5924367 0.021730024 -0.5071854 0.3184263
0.03923474 -0.040784266 0.07823752 0.20096445 0.17375332 0.8286569 -0.6496105 -0.046822537
0.71722883 -0.0014530391 0.032723323 -0.0019047812 -0.3472566 -0.570405 0.04023535 -0.11957985

prediction_layer.bias f4 [13]
00000000: 5c25 f0be fbc6 01bf e701 853f 49a6 40be
00000010: 8b8f d33e c3a7 063f 7b83 06bf 5950 603f
00000020: 1acb 6abb 9ecf 913f d976 b4be d114 9b3f
00000030: bf3a c1be
-0.46903503 -0.50694245 1.0391206 -0.18813433 0.41320452 0.52599734 -0.52544373 0.876226
-0.0035826624 1.1391485 -0.35246924 1.2115728 -0.37740132
