Julian/training_torch_simple_mask_copy_model_0c2d.pth (torch, 116064 bytes, 20 tensors)

feature_extraction_layer.1.weight f4 [128, 4, 25]
0.061930183 -0.0038082418 0.15534 0.13070032 0.17796034 0.07827833 0.07015396 0.016373016
0.1584023 0.06083656 -0.21513334 0.21283059 0.04751298 -0.6984827 0.13632447 -0.20122485
-0.22013183 0.048355184 0.06486719 -0.610768 0.06653448 -0.22652517 -0.49658442 0.1293246
-0.058696397 0.2137826 0.30847454 0.14215508 0.12630022 -1.1076261 0.11474488 0.0044023586
0.16694249 -0.3187234 0.43694204 0.04021761 -0.49443215 0.18263964 0.40130132 0.09525416
0.15087943 0.09080271 0.11830355 0.24647191 0.13399637 0.17983101 0.24005279 0.07401491
0.0288008 0.0068268655 -0.81630456 0.24734308 -0.86791825 -0.020596942 0.27557525 0.078054234
0.041349847 0.023487935 0.2241206 -0.61497515 0.041852143 0.29257005 -0.00091092655 0.42510325
-0.07732128 -0.08770541 -0.0148875965 -0.007787074 -0.27939808 0.24332021 -0.11515657 -0.033131383
0.024873974 -0.49901193 0.028528411 0.16237822 -0.5755396 0.2890842 -0.07436426 0.21029207
0.14292948 0.042613976 0.08911342 0.24107413 0.19365478 0.15175459 0.23084156 0.06562982
-0.64056396 0.13339543 0.1894729 0.119959 -0.20373923 0.13432549 -0.10008733 0.006981522
0.19681208 0.05146 0.15271309 0.10845161 -0.063125774 0.02262219 0.039698776 -1.0522215
0.28265214 0.32071763 -0.3901806 0.30760485 -0.039715413 -0.18552317 0.17912255 0.076757655
0.30426472 0.15858677 0.069818005 0.134108 0.44044575 0.0363499 -0.7778631 0.039996143
0.0792869 0.45404208 -0.20941979 0.030916525 -0.92875296 0.26456493 -0.23158062 0.030663848
0.26140878 0.3592953 0.1540017 0.65319264 -0.12842546 -0.0524112 0.08781926 0.3867684
0.30921805 0.050083425 0.33810917 0.2023998 0.20034051 -0.12378637 0.017006226 -0.20147528
-0.2687824 0.07986377 -0.8593654 0.2203027 0.066938356 0.6896666 -0.062037587 0.112720996
-0.09659664 0.348044 -0.22400339 -0.046419483 -0.052521247 0.11792408 -0.030235706 7.942708e-06
-0.17877173 -0.12750527 0.05605665 -0.400784 -0.05085283 -0.008762431 -0.5922897 0.12656802
0.1969608 0.425806 -0.23343094 0.14043282 0.06548526 -0.061384358 0.9322563 0.10254092
0.40936074 0.43841788 0.35577846 -0.24498485 0.08944863 -0.19572617 -0.74313396 0.2981531
0.1523099 -0.443666 -0.20868647 -0.17885162 -0.3362629 -0.00818292 -0.35469398 0.18166322
0.08999477 0.3186532 -0.31674266 0.2552234 -0.35380882 -0.16819735 0.31871778 -0.72944003
0.32549158 0.119730756 -0.079737514 -0.066599816 0.16039453 0.29431537 0.08038792 0.13922484
-0.27930072 -0.48106974 0.46161208 0.5549651 -0.6284349 0.017273864 -0.060884207 -0.35484174
-0.15950906 -0.26531038 0.1681529 -0.06497607 -0.1467032 0.09946701 0.008317989 0.34712803
0.2905512 -0.2947102 0.33940947 0.48341095 -0.14549105 -0.09756549 0.20848474 0.18881662
-0.27958637 0.07083362 -0.3295049 -0.30387414 -0.13539973 0.18838567 -0.23900524 0.3374833
-0.041278917 0.21159953 0.28878555 0.05678613 -0.24476899 -0.4792381 -0.0037111787 -0.26185182
-0.11606398 -0.03047887 -0.15782596 -0.14271732 -0.10626849 0.33813748 0.046428297 -0.44392058
00000000: 81aa 7d3d b293 79bb 7311 1f3e 4ed6 053e
00000010: 3c3b 363e 6450 a03d e1ac 8f3d b420 863c
00000020: 3634 223e c22f 793d ea4b 5cbe 43f0 593e
00000030: f89c 423d c3cf 32bf a498 0b3e e30d 4ebe
00000040: 3d6a 61be 1610 463d 17d9 843d 4b5b 1cbf
00000050: 3b43 883d 37f6 67be 5040 febe ab6d 043e
00000060: a26b 70bd d3e9 5a3e 60f0 9d3e 1a91 113e
00000070: d854 013e b1c6 8dbf 5dff ea3d a941 903b
00000080: f9f2 2a3e b72f a3be deb6 df3e 38bb 243d
00000090: 3626 fdbe e305 3b3e 5e77 cd3e 9d14 c33d
000000a0: 2380 1a3e c5f6 b93d 2249 f23d 2263 7c3e
000000b0: 5836 093e 9f25 383e 66d0 753e 2195 973d
000000c0: a8ef eb3c e6b3 df3b 56f9 50bf 8147 7d3e
000000d0: e42f 5ebf ebba a8bc 3318 8d3e e6da 9f3d
000000e0: 755e 293d c569 c03c df7f 653e 036f 1dbf
000000f0: 276d 2b3d becb 953e 3fcb 6eba 22a7 d93e
00000100: 9f5a 9ebd e59e b3bd 1beb 73bc b62a ffbb
00000110: 440d 8fbe ef28 793e 35d7 ebbd c6b4 07bd
00000120: 81c4 cb3c 7e7e ffbe 6ab4 e93c 7a46 263e
00000130: 9056 13bf d802 943e 4a4c 98bd ce56 573e
00000140: 1b5c 123e fe8b 2e3d 1981 b63d 23dc 763e
00000150: 704d 463e 8e65 1b3e bb61 6c3e ed68 863d
00000160: 00fc 23bf d098 083e 2f05 423e 10ad f53d
00000170: 04a1 50be 9f8c 093e 96fa ccbd 40c5 e43b
00000180: 1b89 493e b9c7 523d d260 1c3e e11b de3d
00000190: 1648 81bd 2c52 b93c 2f9b 223d 32af 86bf
000001a0: c8b7 903e 1a35 a43e c0c5 c7be 627e 9d3e
000001b0: a1ac 22bd c9f9 3dbe e76b 373e 1e33 9d3d
000001c0: 96c8 9b3e 9264 223e befc 8e3d 9c53 093e
000001d0: 1b82 e13e a2e3 143d 0922 47bf ffd2 233d
000001e0: 2c61 a23d 3478 e83e 2472 56be a744 fd3c
000001f0: c1c2 6dbf 0e75 873e 7823 6dbe c032 fb3c
00000200: 5fd7 853e 8ef5 b73e 9fb2 1d3e a237 273f
00000210: f781 03be 20ad 56bd 96da b33d 8206 c63e
00000220: d451 9e3e 4724 4d3d a51c ad3e e541 4f3e
00000230: 1026 4d3e b583 fdbd a450 8b3c 894f 4ebe
00000240: d99d 89be 9e8f a33d 5fff 5bbf 0897 613e
00000250: fa16 893d fe8d 303f 201b 7ebd 44da e63d
00000260: 76d4 c5bd d332 b23e 2561 65be 5b22 3ebd
00000270: 8520 57bd 2e82 f13d dfb0 f7bc ac41 0537
00000280: f00f 37be be90 02be a89b 653d 8f33 cdbe
00000290: 0f4b 50bd 4d90 0fbc 4ca0 17bf 0c9b 013e
000002a0: 18b0 493e 3e03 da3e 8508 6fbe 9fcd 0f3e
000002b0: 231d 863d 2a6e 7bbd 59a8 6e3f f900 d23d
000002c0: bb97 d13e 4f78 e03e 9828 b63e 4fdd 7abe
000002d0: d830 b73d 716c 48be 073e 3ebf 86a7 983e
000002e0: 20f7 1b3e 3128 e3be e8b1 55be e124 37be
000002f0: a72a acbe a711 06bc 739a b5be ec05 3a3e
00000300: 2e4f b83d 8326 a33e 182c a2be a4ac 823e
00000310: 6e26 b5be ed3b 2cbe fa2e a33e 95bc 3abf
00000320: d5a6 a63e 6635 f53d 6c4d a3bd 7c65 88bd
00000330: 773e 243e 81b0 963e 6ca2 a43d f590 0e3e
00000340: 8100 8fbe c64e f6be 6b58 ec3e 3112 0e3f
00000350: 1ce1 20bf eb81 8d3c b861 79bd d1ad b5be
00000360: 5856 23be c3d6 87be 4630 2c3e 2c12 85bd
00000370: 5d39 16be 5cb5 cb3d 2d48 083c c4ba b13e
00000380: 20c3 943e 41e4 96be 14c7 ad3e a481 f73e
00000390: 9bfb 14be 6ad0 c7bd 067d 553e 2559 413e
000003a0: f225 8fbe 3811 913d deb4 a8be 6495 9bbe
000003b0: 3aa6 0abe 2ce8 403e cabd 74be 9cca ac3e
000003c0: 1514 29bd 8cad 583e b3db 933e 9398 683d
000003d0: b9a4 7abe b25e f5be 3f37 73bb 7111 86be
000003e0: f4b2 edbd d3ae f9bc 219d 21be 7d24 12be
000003f0: 4ba3 d9bd 5b20 ad3e 992b 3e3d 8f49 e3be

feature_extraction_layer.1.bias f4 [128]
0.05276431 -0.059236974 0.0127606485 0.09814825 -0.09773205 0.08100808 -0.081252635 0.03257383
-0.053134967 0.018158715 0.1015306 0.024699911 0.024060065 0.07310298 -0.062451705 0.092430346
0.061479308 0.096889034 0.04909571 0.050779957 0.04792104 0.008392194 -0.065228716 -0.07449883
-0.07479337 -0.009841801 -0.089782506 0.087907955 0.034177467 -0.06768993 -0.075846456 -0.048428368
-0.08855619 0.046957348 -0.08629109 0.030739175 0.08225711 -0.07053282 -0.07392337 0.08487079
-0.06540979 -0.035378095 0.04621982 -0.06873201 -0.036335047 -0.04533953 -0.066908926 0.037802856
-0.09199349 0.0013082062 -0.057945464 -0.045537848 0.101754606 -0.02521137 -0.055265933 -0.0913176
0.026375761 -0.11748981 0.016225535 0.067913525 0.017775562 -0.07655498 -0.028690035 0.092728764
0.07833854 0.029112507 0.013914186 -0.09055532 -0.025553951 0.06563959 0.013892875 0.016723812
-0.046451923 -0.04466035 -0.0045427154 -0.09830511 -0.018863272 0.039085496 -0.005621205 -0.06134456
-0.036881447 0.051548194 0.014594703 -0.08748113 -0.045626488 -0.0075054793 -0.09265072 0.0036707087
0.011783002 -0.011043405 -0.017660273 0.0686921 0.036843266 -0.034835096 0.051514603 0.05012227
0.08181475 -0.064896174 -0.06561985 0.08638701 0.09820675 -0.050457064 0.07047759 -0.04258982
-0.028051743 -0.071321815 0.061181765 0.018153833 0.05106149 0.03985297 0.018188568 0.05085593
0.02099083 -0.02160989 -0.0454914 0.016457537 0.0018514832 0.02301024 -0.011303328 -0.03125945
-0.08653077 -0.06835867 -0.0617776 -0.0945838 0.06692933 -0.02650242 -0.07421996 0.09237869
00000000: 641f 583d 78a2 72bd 0a12 513c f301 c93d
00000010: be27 c8bd 90e7 a53d c867 a6bd 236c 053d
00000020: 0da4 59bd 96c1 943c 46ef cf3d 7857 ca3c
00000030: 9d19 c53c 04b7 953d 5ccd 7fbd 1f4c bd3d
00000040: bad1 7b3d c26d c63d 9518 493d a5fe 4f3d
00000050: da48 443d 6a7f 093c a296 85bd d892 98bd
00000060: 442d 99bd 813f 21bc e4df b7bd 1609 b43d
00000070: acfd 0b3d 05a1 8abd 6355 9bbd d35c 46bd
00000080: f35c b5bd 5956 403d 62b9 b0bd b9d0 fb3c
00000090: 6a76 a83d 8373 90bd 2365 97bd bdd0 ad3d
000000a0: 91f5 85bd 9fe8 10bd fe50 3d3d 5ec3 8cbd
000000b0: 0fd4 14bd f1b5 39bd 8c07 89bd 2bd7 1a3d
000000c0: 1567 bcbd 1e78 ab3a 3958 6dbd e585 3abd
000000d0: b864 d03d 1388 cebc 885e 62bd b904 bbbd
000000e0: fb11 d83c 7f9e f0bd 6aeb 843c 3f16 8b3d
000000f0: 0e9e 913c dbc8 9cbd 5d07 ebbc 94e8 bd3d
00000100: f56f a03d 5a7d ee3c 53f8 633c 1175 b9bd
00000110: 8556 d1bc 0d6e 863d f19e 633c 6000 893c
00000120: 5f44 3ebd c5ed 36bd 0fdb 94bb 3154 c9bd
00000130: 2687 9abc 1d18 203d 1632 b8bb 6f44 7bbd
00000140: 0011 17bd 3324 533d 9f1e 6f3c 4f29 b3bd
00000150: d7e2 3abd 86f0 f5bb a9bf bdbd 4690 703b
00000160: 7e0d 413c 66ef 34bc 47ac 90bc 72ae 8c3d
00000170: f7e8 163d 3faf 0ebd fa00 533d 024d 4d3d
00000180: 7e8e a73d 49e8 84bd b363 86bd aceb b03d
00000190: 9f20 c93d 11ac 4ebd 8e56 903d aa72 2ebd
000001a0: c5cc e5bc 2c11 92bd bb99 7a3d 59b7 943c
000001b0: da25 513d de3c 233d 3100 953c 4f4e 503d
000001c0: f6f4 ab3c 3907 b1bc 3155 3abd f5d1 863c
000001d0: 78ad f23a f97f bc3c 9831 39bc e909 00bd
000001e0: 0b37 b1bd a1ff 8bbd 820a 7dbd 27b5 c1bd
000001f0: 3f12 893d 9a1b d9bc a200 98bd 0a31 bd3d

feature_extraction_layer.2.weight f4 [128]
0.19646905 0.13316236 0.036350485 0.14056815 0.21471831 0.19465746 0.16116661 0.16527566
0.6527333 0.11643801 0.53281957 0.22643226 0.32686028 0.18129979 0.28826457 0.3193255
0.13639367 0.15149774 0.16879126 0.20349535 0.15457477 0.905364 0.17528827 0.14274845
0.13379595 0.39273018 0.22943409 0.29456267 0.27703872 0.21728636 0.19567834 0.87572
0.11737176 0.11996763 0.13175994 0.14618239 0.2644161 0.33676812 0.34686482 0.35221648
0.16577232 0.14170071 0.13306342 0.29805425 0.20149095 0.2128091 0.11241517 0.19350688
0.21739312 0.16296479 0.29836613 0.11693876 0.31568936 0.27153003 0.24838418 0.27042997
0.2359562 3.079208 0.18751413 0.16188441 0.2813156 0.3589731 0.19652219 0.12532832
0.17822754 0.089253426 0.3516836 0.40625784 0.24184111 0.24089396 0.14888763 0.24039878
0.15921794 0.13907863 0.078535 0.14407264 0.23621501 0.23959777 0.41066152 0.18448687
0.13968237 0.004584818 0.078807876 0.1556243 0.18211013 0.16729392 0.14674063 0.20574537
0.28007007 0.22996448 0.182826 0.20906845 0.25061145 0.1957665 0.21426329 0.20658489
0.3570789 0.24781781 0.15717751 0.1624725 0.15050901 0.16644812 0.18712218 0.29293126
5.0208282 0.13054527 0.23425661 0.29326463 0.21469681 0.1737161 1.9876691 0.21812564
0.3417992 0.9324075 0.19328332 0.31165063 0.16348925 0.17004918 0.21734267 0.16198799
0.1314874 0.1491019 0.26068816 0.16403173 0.258775 0.39529967 0.27961275 0.2353992
00000000: 2f2f 493e b75b 083e 3fe4 143d 19f1 0f3e
00000010: 1edf 5b3e 4954 473e dc08 253e 063e 293e
00000020: 8819 273f 0d77 ee3d dd66 083f dcdd 673e
00000030: 3b5a a73e a7a6 393e 6a97 933e a27e a33e
00000040: c8aa 0b3e 3922 1b3e 9ed7 2c3e 1661 503e
00000050: d948 1e3e efc5 673f c57e 333e a62c 123e
00000060: ce01 093e ee13 c93e c5f0 6a3e ebd0 963e
00000070: 05d8 8d3e 5180 5e3e e75f 483e 302f 603f
00000080: 9b60 f03d 97b1 f53d 14ec 063e d6b0 153e
00000090: 8c61 873e df6c ac3e 4498 b13e b855 b43e
000000a0: 38c0 293e fe19 113e c741 083e 919a 983e
000000b0: a553 4e3e a1ea 593e ed39 e63d ab26 463e
000000c0: 4d9c 5e3e 3ee0 263e 72c3 983e 977d ef3d
000000d0: 09a2 a13e fc05 8b3e 6c58 7e3e cc75 8a3e
000000e0: 819e 713e be11 4540 b403 403e 07c5 253e
000000f0: 9908 903e 52cb b73e 1d3d 493e 1156 003e
00000100: 4881 363e 80ca b63d df0f b43e 0701 d03e
00000110: 32a5 773e e8ac 763e 0076 183e 192b 763e
00000120: 070a 233e a16a 0e3e f5d6 a03d c787 133e
00000130: 59e2 713e 1e59 753e 3a42 d23e 20ea 3c3e
00000140: e508 0f3e 3e3c 963b 0666 a13d fa5b 1f3e
00000150: 147b 3a3e 194f 2b3e 2d43 163e eaae 523e
00000160: 5865 8f3e cf7b 6b3e bd36 3b3e 0a16 563e
00000170: 2550 803e 0377 483e d667 5b3e fd8a 533e
00000180: 0cd3 b63e f4c3 7d3e 24f3 203e 315f 263e
00000190: 091f 1a3e 6071 2a3e f59c 3f3e 16fb 953e
000001a0: a0aa a040 a9ad 053e f7e0 6f3e c826 963e
000001b0: 7bd9 5b3e a2e2 313e f16b fe3f 545c 5f3e
000001c0: 4e00 af3e 42b2 6e3f 10ec 453e ac90 9f3e
000001d0: ba69 273e 5f21 2e3e 148f 5e3e 2ee0 253e
000001e0: a2a4 063e 2bae 183e eb78 853e eff7 273e
000001f0: 287e 843e b864 ca3e 6729 8f3e 7d0c 713e

feature_extraction_layer.2.bias f4 [128]
-0.8178462 -0.7557 -0.84169644 -0.8602485 -0.8166501 -0.8843077 -0.70649356 -0.6660712
-1.893634 -0.73052967 -1.4307942 -0.81252885 -1.0954068 -0.7640478 -0.9547691 -0.8869994
-0.82027036 -0.86773837 -0.81897587 -0.84823775 -0.79505324 -2.5488381 -0.81202674 -0.85588354
-0.87391436 -1.0299132 -0.7485019 -0.9508411 -0.8883029 -0.93597513 -0.825182 -2.4269466
-0.86227375 -0.75346315 -0.87709117 -0.83261883 -1.1449777 -0.8962403 -1.1461318 -0.9995885
-0.8995242 -0.89914286 -0.74525887 -1.0124457 -0.871684 -0.94231635 -0.76442766 -0.91069037
-0.8868944 -0.8689707 -0.8516651 -0.75824 -0.74560505 -0.79898775 -0.8811015 -0.9447651
-0.8860631 -7.3512936 -0.8750737 -0.91429347 -1.0913376 -1.1339285 -0.8233344 -0.6902494
-0.7037855 -0.8455357 -0.941047 -1.0833173 -0.85002726 -0.9382784 -0.8556023 -0.79726046
-0.80719906 -0.7936488 -0.7330619 -0.85252964 -0.87891185 -1.0333109 -1.0660491 -0.9177898
-0.79434395 -0.8720391 -0.871803 -0.84417415 -0.7369662 -0.8507991 -0.81374216 -0.83616966
-0.9994767 -0.65773505 -0.82897705 -0.88839847 -0.8904691 -0.86441386 -0.83637965 -0.7330609
-1.127751 -0.761261 -0.75479525 -0.6659306 -0.8323271 -0.67431045 -0.70846045 -0.98029995
-4.35837 -0.82514644 -0.79926974 -0.9586636 -0.799203 -0.676562 -6.573113 -0.94090396
-1.0611478 -2.3366497 -0.70593655 -0.9780597 -0.9718316 -0.8321361 -0.7765212 -0.678807
-0.67584664 -0.7999721 -0.7956737 -1.0207179 -0.7986261 -1.1240044 -0.94821477 -0.78189313
00000000: 5e5e 51bf 8e75 41bf 6b79 57bf 3f39 5cbf
00000010: fb0f 51bf fd61 62bf c3dc 34bf a483 2abf
00000020: 9962 f2bf fe03 3bbf 4424 b7bf e401 50bf
00000030: 4a36 8cbf a398 43bf bf6b 74bf 6512 63bf
00000040: 3dfd 51bf 1a24 5ebf 67a8 51bf 1c26 59bf
00000050: 9c88 4bbf 2a20 23c0 fce0 4fbf 2f1b 5bbf
00000060: dab8 5fbf 32d4 83bf d29d 3fbf 536a 73bf
00000070: d267 63bf 119c 6fbf 213f 53bf 1853 1bc0
00000080: f9bd 5cbf f6e2 40bf 0c89 60bf 8226 55bf
00000090: a18e 92bf 0170 65bf 72b4 92bf 08e5 7fbf
000000a0: 3847 66bf 3a2e 66bf 49c9 3ebf d297 81bf
000000b0: af26 5fbf a53b 71bf 88b1 43bf 0123 69bf
000000c0: 830b 63bf dd74 5ebf b906 5abf 041c 42bf
000000d0: f9df 3ebf 768a 4cbf de8f 61bf 20dc 71bf
000000e0: 08d5 62bf cc3d ebc0 d404 60bf 230f 6abf
000000f0: f3b0 8bbf 9224 91bf 0bc6 52bf 2fb4 30bf
00000100: 492b 34bf 0775 58bf 75e8 70bf 24aa 8abf
00000110: 639b 59bf 0333 70bf c108 5bbf 4319 4cbf
00000120: 99a4 4ebf 912c 4bbf f2a9 3bbf 623f 5abf
00000130: 5e00 61bf 8843 84bf 4c74 88bf 46f4 6abf
00000140: 205a 4bbf f43d 5fbf 7b2e 5fbf cc1b 58bf
00000150: d1a9 3cbf f8cd 59bf 6851 50bf 370f 56bf
00000160: b4dd 7fbf 5361 28bf d737 54bf 156e 63bf
00000170: c8f5 63bf 3a4a 5dbf fa1c 56bf e1a9 3bbf
00000180: 255a 90bf 00e2 42bf 433a 41bf 6e7a 2abf
00000190: 6413 55bf 9c9f 2cbf aa5d 35bf f0f4 7abf
000001a0: c477 8bc0 cc3c 53bf f19c 4cbf fa6a 75bf
000001b0: 9198 4cbf 2b33 2dbf f156 d2c0 15df 70bf
000001c0: b1d3 87bf ab8b 15c0 42b8 34bf 1f62 7abf
000001d0: f5c9 78bf df06 55bf 18ca 46bf 4cc6 2dbf
000001e0: 4904 2dbf f9ca 4cbf 46b1 4bbf e2a6 82bf
000001f0: c372 4cbf 60df 8fbf 34be 72bf 262a 48bf

feature_extraction_layer.2.running_mean f4 [128]
0.1025896 0.52270234 -0.24680649 1.3962361 -1.2249061 1.0784621 -0.5764544 -1.323011
1.9217303 -0.05652552 3.3635995 -0.044100422 0.6620692 1.4341798 -0.28270966 -0.6174385
1.2071004 0.42797333 -0.27462092 -1.0012257 -0.82094705 4.3109365 -0.6345144 0.7450614
-0.7170874 -0.18618912 -1.8209124 -0.5803756 -0.26443744 -0.91185445 -0.96941197 3.7399766
1.8996335 -1.4550722 -0.06453052 -0.4741589 0.3449842 -0.067586266 -0.23441203 -0.6663097
-1.5273086 -1.0093188 -0.43968648 0.03852827 0.7798447 0.8480618 -0.3804115 1.3868483
0.0764774 1.4976948 0.566414 -1.4061558 -0.2654075 0.24861798 0.74346554 -0.48778975
-1.3148192 5.3040476 -0.3263621 0.32392436 0.68264455 -1.0156355 -1.307338 0.5964692
0.16143624 -0.12045964 0.35253465 -0.14236507 -0.6952295 0.18679415 -1.1280736 -0.70032424
0.5592003 -0.63557047 0.15652086 -0.6446987 1.0337437 -0.21638823 -0.45486516 0.6206807
0.41903368 -1.0791389 -0.60409635 -1.1686231 -0.7588927 -0.7519528 -0.5227533 1.9187775
-0.6594651 -0.728351 -0.8862712 -0.3798749 -1.0527967 -0.67064714 -0.6625602 -0.13992077
-0.5403601 -0.60979056 -1.9908941 -0.58891076 0.29882443 -0.5470125 0.5462108 -0.83759564
6.8106475 0.0627963 -0.7715101 -0.6017064 0.11664285 -1.0419769 3.591971 0.00839496
-0.19531539 4.9514737 0.021214534 -0.2741511 0.45606878 -0.7692217 -0.8997833 -0.14232981
0.16093226 0.051939066 0.6283688 0.8502133 -0.239084 2.4820566 -0.32522398 -0.32918897
00000000: 7f1a d23d d2cf 053f d7ba 7cbe ddb7 b23f
00000010: b9c9 9cbf 0c0b 8a3f 8492 13bf 6d58 a9bf
00000020: 42fb f53f 4e87 67bd 3745 5740 a5a2 34bd
00000030: 5e7d 293f 3493 b73f 52bf 90be 7310 1ebf
00000040: 4482 9a3f 521f db3e 1d9b 8cbe 2a28 80bf
00000050: 9629 52bf 31f3 8940 896f 22bf 58bc 3e3f
00000060: 0a93 37bf 5ca8 3ebe a813 e9bf 7f93 14bf
00000070: 5864 87be 4b6f 69bf 622b 78bf c75b 6f40
00000080: 3127 f33f ce3f babf 9428 84bd f5c4 f2be
00000090: c5a1 b03e ab6a 8abd b509 70be 4693 2abf
000000a0: d97e c3bf 5c31 81bf 961e e1be d2cf 1d3d
000000b0: e7a3 473f 941a 593f 4cc5 c2be 3f84 b13f
000000c0: 2fa0 9c3d 77b4 bf3f 8200 113f eafc b3bf
000000d0: 7ee3 87be b695 7e3e c253 3e3f 94bf f9be
000000e0: ff4b a8bf c2ba a940 ef18 a7be 6ad9 a53e
000000f0: cbc1 2e3f 5800 82bf da56 a7bf 35b2 183f
00000100: 8b4f 253e 8bb3 f6bd 6c7f b43e 26c8 11be
00000110: 8ffa 31bf f746 3f3e b764 90bf 7348 33bf
00000120: c027 0f3f bfb4 22bf 0147 203e f90a 25bf
00000130: b751 843f e094 5dbe 16e4 e8be eee4 1e3f
00000140: 958b d63e 3921 8abf 0fa6 1abf 7195 95bf
00000150: cb46 42bf fb7f 40bf 29d3 05bf 809a f53f
00000160: b4d2 28bf 3675 3abf abe2 62bf f77e c2be
00000170: 0bc2 86bf 88af 2bbf 8c9d 29bf 6447 0fbe
00000180: 0a55 0abf 3c1b 1cbf 9ed5 febf dbc2 16bf
00000190: 84ff 983e 0309 0cbf 79d4 0b3f ab6c 56bf
000001a0: d3f0 d940 599b 803d b081 45bf 6e09 1abf
000001b0: 72e2 ee3d 805f 85bf dae2 6540 048b 093c
000001c0: c200 48be 7972 9e40 1aca ad3c 885d 8cbe
000001d0: d981 e93e b7eb 44bf 3358 66bf e8be 11be
000001e0: 6dcb 243e 0fbe 543d c7dc 203f 94a7 593f
000001f0: 70d2 74be 04da 1e40 c283 a6be 758b a8be

feature_extraction_layer.2.running_var f4 [128]
2.2611494 2.7210941 1.9678928 8.369094 2.897047 4.708887 2.1264386 7.9424276
3.4847798 4.2249393 2.5378346 3.9646294 5.117017 3.9704232 5.6751494 7.1548557
3.9339209 1.6786027 5.426189 2.7316995 3.4671273 11.250951 5.951388 3.135617
7.18878 8.696969 3.9870708 5.750798 8.17516 3.7028751 6.7300873 9.480917
6.3699327 3.577642 3.1279955 3.555078 2.9944775 12.412508 8.0696535 8.4924345
2.7184455 2.015783 4.294396 4.274309 1.4771296 3.3253946 3.1243792 2.8180754
3.5297697 1.751515 1.9308094 2.3036613 1.1693337 2.5775158 4.267301 8.655939
2.9152725 14.188284 1.8288475 2.4629993 5.772029 10.189639 9.790474 2.6304772
5.4442525 1.9058825 4.291401 4.4903717 2.1445975 2.016194 5.0995917 10.913009
3.0918138 4.4964166 3.4847517 1.9920119 5.688253 6.284049 8.943828 4.551539
2.712372 4.333934 3.5861151 1.8932155 4.61178 5.8234344 2.6471913 2.6405509
8.679206 8.978801 4.4388013 1.443236 2.6439698 2.2134557 3.0635195 1.8067111
14.658094 1.3667241 2.8811483 4.1039114 4.144922 2.5967426 1.3455346 13.831751
15.258883 2.1934798 13.304547 4.1890182 2.8055103 6.4884796 14.57661 2.9764585
4.362007 10.366229 6.615313 7.621051 4.5065336 5.7675185 8.610362 2.471896
4.9770865 1.4293724 1.0897634 3.8444662 7.1230817 3.6851306 5.172376 7.0097895
00000000: acb6 1040 6826 2e40 e9e3 fb3f cfe7 0541
00000010: 3869 3940 34af 9640 9217 0840 5e28 fe40
00000020: a206 5f40 b432 8740 e26b 2240 7dbc 7d40
00000030: 9abe a340 6a1b 7e40 d39a b540 94f4 e440
00000040: 5cc5 7b40 74dc d63f 57a3 ad40 2ad4 2e40
00000050: 6ae5 5d40 e503 3441 c571 be40 f3ad 4840
00000060: 7c0a e640 c926 0b41 2b2c 7f40 8a06 b840
00000070: 75cd 0241 e8fb 6c40 e05c d740 d6b1 1741
00000080: 7dd6 cb40 16f8 6440 1431 4840 6686 6340
00000090: 85a5 3f40 a299 4641 4d1d 0141 03e1 0741
000000a0: 03fb 2d40 9702 0140 b16b 8940 24c7 8840
000000b0: 9512 bd3f 44d3 5440 d4f5 4740 595b 3440
000000c0: bfe7 6140 a531 e03f c324 f73f 306f 1340
000000d0: baac 953f 05f6 2440 bb8d 8840 ba7e 0a41
000000e0: d393 3a40 3603 6341 ad17 ea3f c8a1 1d40
000000f0: 76b4 b840 c308 2341 c8a5 1c41 bd59 2840
00000100: 5137 ae40 f5f3 f33f 2853 8940 20b1 8f40
00000110: 1641 0940 5309 0140 db2f a340 af9b 2e41
00000120: 47e0 4540 a5e2 8f40 2c06 5f40 3ffa fe3f
00000130: 2b06 b640 ee16 c940 eb19 0f41 35a6 9140
00000140: 8197 2d40 96af 8a40 e982 6540 e354 f23f
00000150: b493 9340 9359 ba40 956b 2940 c9fe 2840
00000160: 07de 0a41 2ba9 0f41 a90a 8e40 f5bb b83f
00000170: cd36 2940 42a9 0d40 b410 4440 4f42 e73f
00000180: 8e87 6a41 d1f0 ae3f bc64 3840 3e53 8340
00000190: 33a3 8440 0831 2640 7a3a ac3f da4e 5d41
000001a0: 6324 7441 f961 0c40 6ddf 5441 700c 8640
000001b0: 7b8d 3340 a0a1 cf40 cb39 6941 4c7e 3e40
000001c0: 9095 8b40 13dc 2541 a5b0 d340 a6df f340
000001d0: 8635 9040 838f b840 0bc4 0941 8b33 1e40
000001e0: 4b44 9f40 adf5 b63f 5e7d 8b3f bc0b 7640
000001f0: 49f0 e340 2ed9 6b40 1b84 a540 3250 e040

dense_layers.0.1.weight f4 [64, 128]
-0.028612947 0.0945425 -0.17657378 -0.1621851 -0.11648784 0.10694753 -0.0049204067 -0.06227077
-0.10837887 -0.1954132 0.14511763 -0.2204114 0.20095488 -0.07332421 0.5512383 0.18231305
-0.3101993 -0.07538105 0.16159722 0.050536454 0.03680462 0.23598662 0.18600011 -0.2792549
0.07448919 -0.25551605 -0.011017939 -0.18188289 0.16553625 -0.03990598 0.19300997 -0.23963447
0.041322954 -0.008001513 0.07085925 -0.08365212 -0.06689411 -0.06424238 0.5316516 -0.010791216
0.021794941 0.07927173 0.03557335 0.13501611 0.17984694 -0.15570328 -0.011506057 -0.06782631
0.070848994 0.056903496 -0.043759987 -0.12669091 0.19613728 -0.1639196 -0.009396163 0.06765687
-0.04872593 -0.13187099 -0.043302223 0.12566668 -0.058422428 -0.08226859 -0.12143093 0.07708926
-0.24304368 0.17261128 -0.09217104 -0.12768823 -0.08028777 0.063309856 -0.17337386 -0.2817129
0.19084875 -0.04021279 0.05607938 -0.16608456 -0.12208402 -0.075802684 -0.07949055 -0.058102857
-0.2231978 -0.14027959 0.03981996 -0.35258645 -0.037973832 -0.06383047 -0.15089399 0.28002414
-0.063563295 0.04739289 0.029343829 -0.14980291 -0.45977548 0.0015434785 -0.1626845 0.15888911
0.14302123 0.023393242 0.080342524 0.20356789 -0.028972032 0.09437103 -0.21147771 0.19625027
0.5003859 0.032596063 0.12341055 0.16050723 -0.1612205 -0.13367434 0.052103836 -0.008929236
0.11817762 -0.010637558 0.26363683 0.055996038 0.06325229 0.2104492 0.27146786 0.35540965
0.04964604 -0.08502579 -0.018223865 -0.028186372 -0.38952637 0.61244524 0.20944439 -0.21819107
0.16886587 0.06476545 0.11576304 0.030362306 -0.094789766 0.16919354 0.21003452 -0.5416096
-0.6201777 0.47908738 0.19026814 -0.018011726 0.1681575 -0.066513024 -0.34440398 0.097138174
0.0616917 0.15985423 0.38515496 -0.10259844 0.61410105 1.1019058 0.18967706 0.16217549
-0.09053414 0.20857395 -0.0028938933 0.12941071 -0.21908468 0.0586809 -0.03844619 -1.1561512
-0.10374097 -0.45310196 0.11022613 0.21843286 0.07386395 -0.24895899 -0.2551422 -0.24845266
0.034172047 0.011423579 -0.47833124 -0.3992093 -0.17357455 0.054448426 0.20964845 -0.060846552
0.3523208 -0.45439693 -0.114227965 -0.21091574 0.024849843 0.1338642 0.07754745 -0.010828515
0.10866513 -0.576787 -0.09265433 -0.23373461 0.46846274 -0.07587087 0.3304636 0.18853098
0.8361655 -0.057519447 -0.22408473 -0.2317664 -0.03544566 0.05331077 0.20927885 -0.37696669
-0.10860239 -0.16551146 0.027446572 -0.07826105 0.20669745 -0.24929893 0.17415176 -0.64364994
0.046813663 0.22637817 0.24730429 -0.03534355 -0.058197193 0.29169947 -0.2828628 0.25844032
-0.3219285 -0.37888238 -0.20492454 0.05887906 -0.1784131 -0.094051465 -0.15481319 -0.113727465
0.20115668 0.0882659 0.045532364 0.023481444 0.011838866 0.4935723 0.012622767 0.07236309
-0.78641826 -0.43661615 -0.27642128 0.17468043 0.12836039 -0.019913608 -2.8408418 0.1874566
0.18420146 0.81680685 -0.66031903 0.036168907 0.0071608955 -0.07527673 0.41240472 -0.022542318
0.47031972 0.099587396 -0.14031911 0.1618397 0.16365834 0.3459138 0.23967554 -0.28306878
00000000: b365 eabc 809f c13d c2cf 34be da13 26be
00000010: 2d91 eebd 4e07 db3d 5d3b a1bb a30f 7fbd
00000020: bef5 ddbd 661a 48be b799 143e 87b3 61be
00000030: 1ec7 4d3e 012b 96bd f41d 0d3f 46b0 3a3e
00000040: 71d2 9ebe 6161 9abd be79 253e 50ff 4e3d
00000050: 71c0 163d 7aa6 713e d076 3e3e 80fa 8ebe
00000060: ca8d 983d 00d3 82be 9684 34bc 823f 3abe
00000070: 5682 293e 7474 23bd 68a4 453e bd62 75be
00000080: 4242 293d c718 03bc a81e 913d cd51 abbd
00000090: c7ff 88bd 8291 83bd 521a 083f a4cd 30bc
000000a0: 4e8b b23c 3759 a23d 5cb5 113d aa41 0a3e
000000b0: cc29 383e ae70 1fbe e783 3cbc 85e8 8abd
000000c0: 4719 913d a413 693d ac3d 33bd 43bb 01be
000000d0: 36d8 483e 8ada 27be 5df2 19bc af8f 8a3d
000000e0: d794 47bd 3009 07be ac5d 31bd c4ae 003e
000000f0: 5b4c 6fbd 6f7c a8bd c8b0 f8bd f9e0 9d3d
00000100: 71e0 78be 03c1 303e 2cc4 bcbd b4c0 02be
00000110: ea6d a4bd 99a8 813d eb88 31be ac3c 90be
00000120: db6d 433e 2bb6 24bd 7eb3 653d 1212 2abe
00000130: 3007 fabd 703e 9bbd f1cb a2bd 43fd 6dbd
00000140: f78d 64be 74a5 0fbe 411a 233d 3686 b4be
00000150: 738a 1bbd 8db9 82bd f483 1abe 535f 8f3e
00000160: 792d 82bd 0c1f 423d 7862 f03c ef65 19be
00000170: b167 ebbe 8b4e ca3a c496 26be d4b3 223e
00000180: 2874 123e 2fa3 bf3c 9f8a a43d 1a74 503e
00000190: c156 edbc 9945 c13d 9d8d 58be d5f5 483e
000001a0: 4a19 003f 7383 053d acbe fc3d 025c 243e
000001b0: fd16 25be ede1 08be d56a 553d ee4b 12bc
000001c0: 1c07 f23d 2749 2ebc 68fb 863e 1a5c 653d
000001d0: 6b8a 813d ff7f 573e d6fd 8a3e 41f8 b53e
000001e0: a559 4b3d 0022 aebd 374a 95bc 1be7 e6bc
000001f0: 0070 c7be 36c9 1c3f 9778 563e 7b6d 5fbe
00000200: 2deb 2c3e c0a3 843d 2c15 ed3d 5fba f83c
00000210: 2321 c2bd 1241 2d3e 4a13 573e eda6 0abf
00000220: f7c3 1ebf f14a f53e a7d5 423e 548d 93bc
00000230: 7b31 2c3e fb37 88bd b855 b0be 61f0 c63d
00000240: 70b0 7c3d d4b0 233e 0833 c53e 221f d2bd
00000250: ba35 1d3f 400b 8d3f b43a 423e 5511 263e
00000260: f769 b9bd 6994 553e 79a7 3dbb 3e84 043e
00000270: bc57 60be 625b 703d c179 1dbd c3fc 93bf
00000280: 2576 d4bd fbfc e7be 3dbe e13d ddac 5f3e
00000290: fc45 973d 1bef 7ebe 00a2 82be 606a 7ebe
000002a0: fdf7 0b3d f729 3b3c d5e7 f4be 2965 ccbe
000002b0: 87bd 31be 5005 5f3d 15ae 563e 3c3a 79bd
000002c0: 6463 b43e b7a6 e8be 5af0 e9bd 4cfa 57be
000002d0: e691 cb3c b213 093e 33d1 9e3d 156a 31bc
000002e0: d38b de3d 50a8 13bf 8ec1 bdbd 2058 6fbe
000002f0: 59da ef3e 3062 9bbd 8632 a93e 440e 413e
00000300: f10e 563f 8399 6bbd 7876 65be 2c54 6dbe
00000310: 782f 11bd 655c 5a3d 324d 563e c701 c1be
00000320: ee6a debd d67b 29be a2d7 e03c 5447 a0bd
00000330: 7fa8 533e 3848 7fbe d754 323e 3ec6 24bf
00000340: afbf 3f3d aecf 673e 563d 7d3e 66c4 10bd
00000350: 2e60 6ebd a259 953e 65d3 90be 4a52 843e
00000360: d0d3 a4be dffc c1be bdd7 51be 2b2b 713d
00000370: ecb1 36be 0e9e c0bd 5987 1ebe f2e9 e8bd
00000380: 04fc 4d3e c1c4 b43d 2580 3a3d 285c c03c
00000390: cef7 413c 82b5 fc3e b9cf 4e3c 1a33 943d
000003a0: b552 49bf 278c dfbe 1787 8dbe 6ddf 323e
000003b0: e870 033e dd21 a3bc 5ad0 35c0 9ff4 3f3e
000003c0: 4f9f 3c3e 411a 513f ab0a 29bf d925 143d
000003d0: f2a5 ea3b b02a 9abd b626 d33e abaa b8bc
000003e0: bfcd f03e 7af4 cb3d d0af 0fbe 4eb9 253e
000003f0: 0d96 273e 9d1b b13e 816d 753e 64ee 90be

dense_layers.0.1.bias f4 [64]
0.046022635 0.06495538 0.05817696 0.038242277 0.07276884 -0.051214963 0.015969222 0.043398593
0.082576975 0.027100809 -0.03125017 -0.06584654 -0.08607322 -0.033310592 -0.056289498 -0.047076564
-0.009327468 0.0699436 0.03810839 0.019865867 -0.06250309 -0.029071523 0.05051648 -0.07059802
0.08461607 -0.011051356 -0.030178549 -0.009087688 0.029297577 0.02819904 0.08693079 -0.012882984
-0.042625602 0.077126354 -0.0009370306 0.06849129 0.0014150977 -0.0039788717 0.08693914 0.057019085
-0.055518806 -0.070510544 -0.052803293 0.0051303157 -0.034384258 0.0922116 -0.059719775 -0.014535141
-0.045936204 0.015814265 -0.063787475 0.025075171 -0.08160896 0.0027698153 -0.07888938 -0.029759368
-0.05853926 0.08891813 -0.0632784 -0.05251945 0.073514715 0.03586215 -0.019531112 0.04187466
00000000: 3b82 3c3d 5407 853d f74a 6e3d efa3 1c3d
00000010: d407 953d c8c6 51bd e3d1 823c b9c2 313d
00000020: 1e1e a93d 8402 de3c 2e00 00bd 8dda 86bd
00000030: 2847 b0bd b070 08bd d18f 66bd 5bd3 40bd
00000040: 3dd2 18bc 973e 8f3d 8b17 1c3d bebd a23c
00000050: 9f01 80bd 6727 eebc 5eea 4e3d b295 90bd
00000060: 314b ad3d bf10 35bc 0139 f7bc 87e4 14bc
00000070: 7901 f03c ac01 e73c c508 b23d 2713 53bc
00000080: 2f98 2ebd 6cf4 9d3d 0fa3 75ba 2945 8c3d
00000090: cd7a b93a 3261 82bb 260d b23d d88c 693d
000000a0: b067 63bd d567 90bd 4448 58bd 351c a83b
000000b0: 82d6 0cbd 6fd9 bc3d b99c 74bd cd24 6ebc
000000c0: 9a27 3cbd eb8c 813c 02a3 82bd 726a cd3c
000000d0: 9922 a7bd ca85 353b c190 a1bd ebc9 f3bc
000000e0: ddc6 6fbd b51a b63d 1b98 81bd a31e 57bd
000000f0: e28e 963d 31e4 123d b6ff 9fbc c384 2b3d

dense_layers.0.2.weight f4 [64]
0.39382777 1.1098655 1.6094935 1.1212685 2.095739 1.8162826 0.97459596 0.5314481
2.0725572 0.4937976 1.4006146 1.799105 2.5234199 1.2922449 1.4249281 1.7190287
1.1058265 0.2828691 0.9892428 1.5992178 1.4223483 2.4163373 0.5738337 1.1868955
1.5170103 1.0643188 2.576448 1.8772675 1.4911933 0.80263036 0.94929546 1.0876212
1.3068124 1.5819567 0.88465804 1.3297564 1.1957479 1.1351533 1.4466826 1.607696
0.99845284 1.3720504 1.6003044 0.56215876 1.4549334 0.8716471 1.3462762 0.98599344
1.3523039 1.1639034 1.7192205 1.0778021 1.7789572 1.5541868 1.1884109 1.4971595
1.707225 1.5260966 0.9042974 1.9838307 1.8696032 1.3365324 1.9128112 1.1864578
00000000: cba3 c93e 1310 8e3f e203 ce3f ba85 8f3f
00000010: 9620 0640 f37b e83f 1f7f 793f fc0c 083f
00000020: c7a4 0440 0ad3 fc3e 5747 b33f 1349 e63f
00000030: b67f 2140 4868 a53f 0b64 b63f 2209 dc3f
00000040: b98b 8d3f 38d4 903e 043f 7d3f 2bb3 cc3f
00000050: 820f b63f 45a5 1a40 c4e6 123f 31ec 973f
00000060: 652d c23f 993b 883f 86e4 2440 4d4a f03f
00000070: 6cdf be3f 2f79 4d3f 0705 733f 2c37 8b3f
00000080: a145 a73f 8f7d ca3f f378 623f 7535 aa3f
00000090: 440e 993f b44c 913f e52c b93f fcc8 cd3f
000000a0: 9b9a 7f3f 599f af3f c6d6 cc3f a3e9 0f3f
000000b0: 423b ba3f 4424 5f3f c752 ac3f 116a 7c3f
000000c0: 4b18 ad3f c9fa 943f 6b0f dc3f 6bf5 893f
000000d0: dfb4 e33f 98ef c63f d91d 983f eca2 bf3f
000000e0: 5986 da3f 2257 c33f 0980 673f 2aee fd3f
000000f0: 284f ef3f 7e13 ab3f ffd6 f43f d9dd 973f

dense_layers.0.2.bias f4 [64]
-0.6291144 -0.69486576 -0.13138351 -0.6822792 -1.0668368 -0.12826706 -0.8294631 0.83219475
-0.19303203 -0.59441626 0.08430262 -0.22596608 -1.1324633 -1.1191685 0.09031383 -0.28343865
-0.42736423 -0.52163756 -0.88405865 -0.84167904 -0.749908 -1.5296829 -0.5556975 -0.8804076
-1.282719 0.14239231 -1.3313739 -0.13447599 0.16520266 -0.7317761 -0.6843627 -0.62438834
-0.930533 -0.16803046 -0.5831766 0.7495523 -1.003736 -1.0928963 -0.17188802 -0.09359688
-0.4254798 -0.78186035 -0.124024644 -0.59510046 0.32285395 -0.63512135 0.21133141 0.102594785
-1.0184212 -1.080055 -0.23746747 0.12314048 -0.26806954 -0.19412638 -0.92051315 0.0058006938
-0.8898326 -0.4080969 -0.87182164 -1.3296125 -0.3456145 0.1269571 -1.3152711 -0.2093872
00000000: a40d 21bf b9e2 31bf 6689 06be daa9 2ebf
00000010: 1c8e 88bf 7158 03be b257 54bf b70a 553f
00000020: 30aa 45be aa2b 18bf daa6 ac3d a763 67be
00000030: 8ff4 90bf ea40 8fbf 75f6 b83d df1e 91be
00000040: 7ccf dabe 0a8a 05bf ab51 62bf 4778 57bf
00000050: f8f9 3fbf a6cc c3bf 3142 0ebf 6462 61bf
00000060: 2330 a4bf 4acf 113e 766a aabf 13b4 09be
00000070: e32a 293e ae55 3bbf 6532 2fbf ead7 1fbf
00000080: 6937 6ebf 2d10 2cbe 104b 15bf a9e2 3f3f
00000090: 6c7a 80bf 07e4 8bbf 6a03 30be b9af bfbd
000000a0: 7dd8 d9be 0028 48bf a200 febd 8158 18bf
000000b0: 1d4d a53e 5097 22bf 4367 583e 371d d23d
000000c0: a05b 82bf 3e3f 8abf ac2a 73be 1331 fc3d
000000d0: 6940 89be 11c9 46be c0a6 6bbf bf13 be3b
000000e0: 12cc 63bf 14f2 d0be b42f 5fbf be30 aabf
000000f0: 62f4 b0be 0b01 023e ce5a a8bf 9969 56be

dense_layers.0.2.running_mean f4 [64]
6.4913397 -12.330085 10.94449 -15.023584 19.506258 21.087883 -12.348315 -9.945345
15.3249235 5.845776 36.36584 21.698057 -10.0248165 -14.719996 39.75484 7.2438316
-0.84335387 4.2312 -12.473025 1.1445719 0.30427006 -8.9039545 8.510248 -13.565195
-12.322326 45.50259 -9.782003 21.520777 37.329365 -12.071397 -9.128221 -13.621285
-11.41573 17.97835 -14.7792845 -19.592442 -14.457557 -15.232456 19.259117 20.338005
-19.581747 -7.739782 20.815722 7.7355046 -21.243084 -9.1321535 -20.97006 34.910217
-10.255039 -12.97084 25.378792 36.488564 6.336969 18.381758 -8.39417 21.981014
8.265179 -1.2652488 -14.438801 -9.807789 19.820631 34.0569 6.6699657 23.256958
00000000: 0eb9 cf40 0748 45c1 a21c 2f41 9a60 70c1
00000010: d10c 9c41 fcb3 a841 b392 45c1 2220 1fc1
00000020: e332 7541 9910 bb40 9f76 1142 9f95 ad41
00000030: a665 20c1 1b85 6bc1 f504 1f42 78cd e740
00000040: 0ae6 57bf fe65 8740 8391 47c1 5581 923f
00000050: 49c9 9b3e 9976 0ec1 fa29 0841 0a0b 59c1
00000060: 3f28 45c1 a702 3642 1683 1cc1 8d2a ac41
00000070: 4551 1542 7124 41c1 310d 12c1 c9f0 59c1
00000080: d5a6 36c1 a9d3 8f41 f377 6cc1 52bd 9cc1
00000090: 2752 67c1 24b8 73c1 ac12 9a41 3cb4 a241
000000a0: 6ba7 9cc1 4bac f7c0 9986 a641 4189 f740
000000b0: d6f1 a9c1 4d1d 12c1 afc2 a7c1 10a4 0b42
000000c0: a414 24c1 9088 4fc1 c407 cb41 4af4 1142
000000d0: 73c8 ca40 d70d 9341 854e 06c1 1ed9 af41
000000e0: 2c3e 0441 acf3 a1bf 5405 67c1 b4ec 1cc1
000000f0: a790 9e41 443a 0842 5c70 d540 400e ba41

dense_layers.0.2.running_var f4 [64]
13.021023 41.79881 52.158485 60.71706 84.794235 228.24721 33.649166 37.561478
138.29265 8.019468 357.65955 253.62213 141.94151 50.027588 420.45114 36.66225
18.708052 4.1133275 39.799007 36.40235 10.412293 63.6296 21.268175 45.645676
35.303036 577.01807 117.55999 224.33762 418.88788 33.433826 24.047298 45.36565
31.560066 163.5671 55.50382 113.2355 49.72758 50.256786 178.10966 196.0056
93.65132 19.070692 226.50636 16.200523 148.83545 23.45382 143.79156 350.67935
24.675224 40.871277 310.7594 372.83777 34.372974 173.533 21.991928 183.39603
40.98854 10.009677 48.979107 72.748924 194.18604 292.45715 156.24374 262.61655
00000000: 1c56 5041 fb31 2742 4aa2 5042 45de 7242
00000010: a696 a942 493f 6443 bf98 0642 f43e 1642
00000020: eb4a 0a43 be4f 0041 6cd4 b243 449f 7d43
00000030: 07f1 0d43 401c 4842 bf39 d243 25a6 1242
00000040: 17aa 9541 61a0 8340 2f32 1f42 029c 1142
00000050: c198 2641 b684 7e42 3925 aa41 2c95 3642
00000060: 4f36 0d42 2841 1044 b71e eb42 6e56 6043
00000070: a671 d143 3dbc 0542 de60 c041 6d76 3542
00000080: 047b fc41 2d91 2343 e903 5e42 9378 e242
00000090: 0be9 4642 f306 4942 131c 3243 6f01 4443
000000a0: 7a4d bb42 c790 9841 a181 6243 ac9a 8141
000000b0: e0d5 1443 6ca1 bb41 a4ca 0f43 f556 af43
000000c0: dc66 c541 307c 2342 3461 9b43 3c6b ba43
000000d0: ed7d 0942 7388 2d43 78ef af41 6265 3743
000000e0: 44f4 2342 a327 2041 9bea 4342 737f 9142
000000f0: a02f 4243 843a 9243 663e 1c43 eb4e 8343

dense_layers.1.1.weight f4 [64, 64]
-0.30284664 -0.17816849 0.003798985 0.020517645 -0.15175839 -0.26287842 -0.0763141 -0.14673264
-0.014484446 -0.117547475 -0.07177371 0.07447016 0.14773265 -0.34024438 -0.09463899 0.07838912
0.0035776752 0.13117762 -0.072357066 0.14561738 -0.13968584 0.043222956 -0.17516428 0.025820384
-0.0008211575 -0.05344865 -0.008649497 -0.24201779 -0.23414809 0.21344864 -0.080899775 0.099562325
0.006206979 0.09182794 -0.4650062 -0.4623681 -0.15264614 -0.049767524 0.100895844 -0.16247493
-0.12336665 0.15177819 0.20529486 -0.43209812 -0.3257541 0.05813463 0.27479148 0.06587325
-0.36374956 0.049143355 0.2379773 -0.28676015 0.060229752 0.25412175 0.04382524 -0.20035657
0.24686448 0.0827897 -0.2783038 -0.21091262 -0.008846911 -0.016820341 -0.006765878 -0.17479187
-0.26765832 -0.53309387 0.1721281 -0.15808609 -0.15997747 0.01604901 -0.26035717 0.024479067
0.62788165 0.08453363 0.25005665 -0.07527662 0.19751514 0.13789512 0.39541882 0.10729801
-0.30695432 -0.17366576 -0.37404346 -0.3386464 -0.02898464 -0.16342647 0.11040755 -0.40076473
0.14400259 0.39424896 -0.1589881 -0.06137013 0.4321084 -0.23000306 -0.15917216 -0.14551716
-0.20173068 0.16556872 -0.19049779 -0.32176125 -0.30148914 -0.21862613 0.064538166 -0.17699212
0.096812546 -0.23626268 -0.24110751 0.23442675 0.18224698 -0.27173766 -0.24543157 0.102465205
0.19396615 0.0025797624 0.14293735 -0.12487382 -0.3097549 -0.08430485 -0.045784716 -0.032276403
-0.05005898 -0.27585733 0.029647492 -0.36270255 0.2795163 -0.102026984 0.082478434 0.3555649
-0.043297756 -0.26185694 -0.013966203 -0.0090811 0.35794774 0.018944535 0.08453976 0.022091568
0.36660096 -0.15665467 0.15861307 -0.4422279 0.04092901 -0.18876186 -0.07534153 -0.33115205
-0.15073207 0.16238995 -0.16847636 -0.26684186 -0.32278952 0.11482851 -0.12825054 -0.02512803
0.3131512 0.046343066 -0.10722473 -0.31573147 -0.014066443 -0.79790986 0.29915157 -0.0799991
0.02447991 -0.079196006 0.09403154 -0.027025426 -0.37261295 0.15898772 0.2768104 -0.1563547
0.19830187 -0.20680906 0.30296698 0.19005169 -0.044709112 0.0039520497 -0.05850221 0.1525969
-0.094952196 0.05053712 0.1883213 0.11148468 -0.1480711 -0.28456223 -0.2121356 -0.20816395
-0.10592285 -0.022467807 -0.27147305 -0.03982877 -0.19051254 -0.21890174 0.124630116 0.13729152
0.018407932 0.36008182 0.13741387 0.27647892 0.065083705 0.28733918 0.11029593 0.009308397
-0.12545341 -0.12040685 -0.11794863 0.023057865 -0.10719632 0.12498526 -0.27547508 0.22445326
0.18301043 0.0023116455 -0.15355708 0.01574817 0.0391303 -0.22939672 -0.13407768 0.32920268
-0.39465606 -0.021747638 0.15736088 -0.09815196 0.008734843 -0.20475829 -0.2363517 -0.10241252
-0.17109962 0.07186797 0.21217039 -0.32596472 0.16449511 0.08875852 0.0064699226 -0.02663636
-0.09054857 0.18873437 0.44368196 -0.10295665 0.060989115 -0.12557091 0.06072817 0.017074455
-0.02957067 0.016525596 0.031514574 -0.43140838 0.13308768 0.53706926 0.12220662 -0.023785517
-0.011034823 -0.17289098 -0.0060576573 -0.02183805 -0.4340755 -0.08147137 0.0031332613 0.012414948
00000000: b70e 9bbe cd71 36be 64f8 783b 9f14 a83c
00000010: 8d66 1bbe 0098 86be 914a 9cbd 1541 16be
00000020: 2b50 6dbc bbbc f0bd 18fe 92bd d083 983d
00000030: 3a47 173e 8334 aebe 16d2 c1bd 7a8a a03d
00000040: 6e77 6a3b 6d53 063e f12f 94bd b91c 153e
00000050: ce09 0fbe 8e0a 313d 445e 33be 4585 d33c
00000060: f242 57ba f9ec 5abd 9fb6 0dbc 83d3 77be
00000070: 84c4 6fbe 4892 5a3e c8ae a5bd 55e7 cb3d
00000080: ea63 cb3b 4910 bc3d 4b15 eebe 83bb ecbe
00000090: 454f 1cbe 08d9 4bbd 7ba2 ce3d d45f 26be
000000a0: a7a7 fcbd be6b 1b3e d138 523e f73b ddbe
000000b0: 3ec9 a6be 941e 6e3d 78b1 8c3e 8ee8 863d
000000c0: 623d babe 8b4a 493d 52b0 733e 3ad2 92be
000000d0: 79b3 763d 3f1c 823e 1882 333d 462a 4dbe
000000e0: 0bca 7c3e a58d a93d d67d 8ebe 7af9 57be
000000f0: a2f2 10bc d0ca 89bc 4cb4 ddbb a4fc 32be
00000100: 830a 89be d778 08bf 5942 303e 52e1 21be
00000110: 22d1 23be 3779 833c 894d 85be 5388 c83c
00000120: dabc 203f f81f ad3d 6d07 803e a12a 9abd
00000130: 6941 4a3e 6134 0d3e 5674 ca3e 0fbf db3d
00000140: 1e29 9dbe 70d5 31be a082 bfbe 1063 adbe
00000150: 3271 edbc 4559 27be 5b1d e23d 0931 cdbe
00000160: 6a75 133e 00db c93e c7cd 22be 3f5f 7bbd
00000170: 503d dd3e ec85 6bbe 07fe 22be 7302 15be
00000180: 7d92 4ebe d98a 293e da11 43be e4bd a4be
00000190: c95c 9abe 87df 5fbe 962c 843d 6c3d 35be
000001a0: a845 c63d d8ee 71be e3e4 76be 910d 703e
000001b0: f49e 3a3e 3321 8bbe 6a52 7bbe 47d9 d13d
000001c0: 109f 463e 3b11 293b 2b5e 123e d8bd ffbd
000001d0: 3298 9ebe 05a8 acbd c188 3bbd 4334 04bd
000001e0: a50a 4dbd 2c3d 8dbe 4cdf f23c 26b4 b9be
000001f0: c31c 8f3e 86f3 d0bd 74ea a83d 9a0c b63e
00000200: fd58 31bd 1d12 86be 80d2 64bc e5c8 14bc
00000210: ed44 b73e 9231 9b3c 2f23 ad3d 60f9 b43c
00000220: 1fb3 bb3e 156a 20be 776b 223e b26b e2be
00000230: 2da5 273d ca4a 41be a94c 9abd c38c a9be
00000240: 8259 1abe 8d49 263e 1185 2cbe 7f9f 88be
00000250: ab44 a5be 362b eb3d 1c54 03be 4cd9 cdbc
00000260: 5b55 a03e 3ad2 3d3d a498 dbbd 8ea7 a1be
00000270: f076 66bc d243 4cbf 652a 993e 91d6 a3bd
00000280: 188a c83c 8431 a2bd 9c93 c03d 6d64 ddbc
00000290: 20c7 bebe adcd 223e 18ba 8d3e 721b 20be
000002a0: a50f 4b3e c1c5 53be 7d1e 9b3e e99c 423e
000002b0: e720 37bd 3280 813b 03a0 6fbd 5d42 1c3e
000002c0: 4c76 c2bd 0300 4f3d 4dd7 403e 1452 e43d
000002d0: f39f 17be 24b2 91be 133a 59be ee28 55be
000002e0: 14ee d8bd 680e b8bc 84fe 8abe 7e23 23bd
000002f0: b815 43be c727 60be 133e ff3d 2696 0c3e
00000300: 3bcc 963c a55c b83e 39b6 0c3e a58e 8d3e
00000310: 9b4a 853d 1f1e 933e d5e2 e13d 3f82 183c
00000320: dc76 00be de97 f6bd 0d8f f1bd d9e3 bc3c
00000330: bf89 dbbd 46f8 ff3d 120b 8dbe 13d7 653e
00000340: 1667 3b3e fa7e 173b 113e 1dbe 4e02 813c
00000350: 1847 203d f9e6 6abe a94b 09be 418d a83e
00000360: 5c10 cabe 1a28 b2bc 3623 213e e503 c9bd
00000370: 961c 0f3c 28ac 51be 2e06 72be a8bd d1bd
00000380: bd34 2fbe 842f 933d 3243 593e d9e4 a6be
00000390: 6871 283e 07c7 b53d a501 d43b 7f34 dabc
000003a0: 8771 b9bd 9543 413e 482a e33e f0da d2bd
000003b0: b9cf 793d a995 00be 1abe 783d badf 8b3c
000003c0: 313e f2bc b060 873c 6d15 013d 8fe1 dcbe
000003d0: 2348 083e 5f7d 093f 7747 fa3d d8d9 c2bc
000003e0: 67cb 34bc 550a 31be 507f c6bb b6e5 b2bc
000003f0: 253f debe 76da a6bd 6757 4d3b 1168 4b3c

dense_layers.1.1.bias f4 [64]
0.06837865 0.09865752 -0.1247931 -0.042767663 -0.038440365 -0.031413898 0.045743085 0.11974588
-0.061287083 0.014650968 0.11032754 -0.02651752 -0.089083 0.039420247 0.091337696 -0.09620827
-0.009212439 -0.09496008 0.08575796 -0.0003173019 0.116590284 0.07899402 -0.018375339 0.060760945
-0.108817674 -0.041111164 -0.04780952 0.092547804 -0.04482218 0.07604396 0.05737437 0.13903642
-0.090132445 0.09296776 0.10992041 0.06702665 -0.036668763 -0.09150327 -0.06366457 -0.06453043
0.06419114 0.009248336 -0.026491268 0.11407841 0.08665491 0.10160958 0.069325455 -0.02795898
-0.087729104 -0.035574153 -0.061377782 0.053394854 -0.054509163 -0.032142673 0.08267522 -0.033595104
0.059260566 0.027063638 0.0749819 -0.027074395 0.028158661 -0.07190195 -0.119590566 0.117353365
00000000: 1b0a 8c3d f40c ca3d 8693 ffbd 252d 2fbd
00000010: a573 1dbd dcab 00bd 1a5d 3b3d 543d f53d
00000020: 2a08 7bbd 9d0a 703c 68f3 e13d 453b d9bc
00000030: 2671 b6bd 2077 213d 420f bb3d d708 c5bd
00000040: c5ef 16bc 6e7a c2bd dfa1 af3d 8a5b a6b9
00000050: e3c6 ee3d 9ec7 a13d e187 96bc 78e0 783d
00000060: cddb debd 2e64 28bd ead3 43bd b489 bd3d
00000070: 7697 37bd f0bc 9b3d 6301 6b3d 905f 0e3e
00000080: 5c97 b8bd e265 be3d f41d e13d 4545 893d
00000090: fc31 16bd 1166 bbbd 9262 82bd 8828 84bd
000000a0: a576 833d 5586 173c 3704 d9bc f1a1 e93d
000000b0: 2178 b13d af18 d03d 81fa 8d3d 3b0a e5bc
000000c0: 51ab b3bd 34b6 11bd 4567 7bbd 90b4 5a3d
000000d0: 0045 5fbd 09a8 03bd a051 a93d 059b 09bd
000000e0: 35bb 723d 90b4 dd3c 1c90 993d 1fcb ddbc
000000f0: feac e63c 5441 93bd e6eb f4bd f656 f03d

dense_layers.1.2.weight f4 [64]
0.18028316 0.16806236 0.13813676 -0.01634664 0.13421687 0.62348646 0.11917654 0.10286118
0.009897049 0.11566106 1.3377992 0.10938017 0.015082463 0.108447514 0.106498875 0.089484304
0.029994909 -0.00090756285 0.047255438 0.037312645 -0.40109602 0.064678505 0.12461071 0.064645424
0.07505601 0.067212984 0.08624369 0.6008447 -1.3393018 0.070750475 0.15447746 1.4782634
0.051399153 0.015231064 0.09376701 0.10374236 0.108243585 0.14553605 0.02860678 0.11903777
0.00505547 1.1006655 0.028936556 0.07845624 0.0058471924 0.051104397 0.006725428 0.031813946
0.051461842 -0.47732392 0.14379145 0.07472957 0.039016165 -0.05728411 -0.011524541 0.044563867
0.0888553 0.11473635 0.09160967 0.02751806 0.14101437 0.02070432 0.027011218 0.025780981
00000000: 269c 383e 8a18 2c3e b973 0d3e 64e9 85bc
00000010: 2670 093e cf9c 1f3f d412 f43d e2a8 d23d
00000020: 3b27 223c b5df ec3d 013d ab3f b602 e03d
00000030: 6f1c 773c bb19 de3d 151c da3d 8c43 b73d
00000040: e2b7 f53c 83e9 6dba eb8e 413d 25d5 183d
00000050: 755c cdbe 2a76 843d e633 ff3d d264 843d
00000060: f7b6 993d f6a6 893d 88a0 b03d f5d0 193f
00000070: 3e6e abbf a0e5 903d 572f 1e3e bc37 bd3f
00000080: eb87 523d b68b 793c eb08 c03d e076 d43d
00000090: d0ae dd3d 6707 153e c458 ea3c 13ca f33d
000000a0: 5ba8 a53b 9be2 8c3f 5b0c ed3c aaad a03d
000000b0: ce99 bf3b d852 513d fb60 dc3b 574f 023d
000000c0: a7c9 523d cd63 f4be 113e 133e d10b 993d
000000d0: 6acf 1f3d bea2 6abd 6ed1 3cbc 9a88 363d
000000e0: c4f9 b53d e4fa ea3d da9d bb3d 8e6d e13c
000000f0: 1266 103e 1b9c a93c a146 dd3c a332 d33c

dense_layers.1.2.bias f4 [64]
-0.5941335 -0.6649193 -0.49754676 -0.25571638 -0.68784475 -0.17112584 -0.5329969 -0.7803378
-0.5586362 -0.675342 0.30614558 -0.5862609 -0.06354912 -0.56328475 -0.6030896 -0.5564735
-0.34900886 -0.16571064 -0.16364278 -0.2784748 -0.16716315 -0.36708516 -0.6378032 -0.6344408
-0.39449608 -0.48355722 -0.51748717 0.15709178 0.6328606 -0.4188382 -0.47004965 -0.46581957
-0.32150054 -0.15891153 -0.5855857 -0.59639794 -0.60273504 -0.692353 -0.18886475 -0.7621219
-0.6044561 0.119018495 -0.14507252 -0.48798457 -0.036861107 -0.63231486 -0.43052018 -0.22222342
-0.49733034 0.4252244 -0.6278948 -0.4069048 -0.5456395 -0.57708275 -0.058165174 -0.24617848
-0.37043047 -0.64642096 -0.4521106 -0.13916665 -0.56564516 -0.4877738 -0.33622494 -0.1961879
00000000: 2219 18bf 2738 2abf 73be febe 42ed 82be
00000010: 9816 30bf 9d3b 2fbe 7c72 08bf 38c4 47bf
00000020: c802 0fbf 37e3 2cbf 1dbf 9c3e 3215 16bf
00000030: 0b26 82bd 6e33 10bf 1464 1abf 0c75 0ebf
00000040: 4ab1 b2be 0db0 29be f991 27be 4094 8ebe
00000050: d12c 2bbe 96f2 bbbe 1247 23bf b66a 22bf
00000060: 64fb c9be d094 f7be 0a7a 04bf abdc 203e
00000070: 2703 223f f671 d6be 59aa f0be e77f eebe
00000080: b89b a4be b4b9 22be f2e8 15bf 89ad 18bf
00000090: d84c 1abf 0c3e 31bf c365 41be 6c1a 43bf
000000a0: a3bd 1abf f8bf f33d e48d 14be 1dd9 f9be
000000b0: acfb 16bd 63df 21bf 246d dcbe 898e 63be
000000c0: 15a2 febe 03b7 d93e b7bd 20bf d355 d0be
000000d0: 08af 0bbf b2bb 13bf 9b3e 6ebd 3616 7cbe
000000e0: 10a9 bdbe d87b 25bf 0a7b e7be b481 0ebe
000000f0: 1fce 10bf 7dbd f9be ad25 acbe 7be5 48be

dense_layers.1.2.running_mean f4 [64]
-1.0964707 0.20954713 -1.0126243 0.058809366 0.9764574 -2.2417474 0.32780823 0.1982386
-0.9118006 -0.499847 -5.837223 -1.458396 0.20305125 -0.2767148 -0.9283158 -1.3938222
-1.8499938 -1.0193702 -1.8408018 -0.3571825 2.591096 1.0698018 -1.2160493 -2.8565655
-1.2161589 -0.83899474 -1.1427208 8.3871155 -1.9105065 -1.3758813 -0.22768858 -18.191044
-0.12079424 -1.0704647 -0.71594113 -1.167949 0.14671843 1.9422383 -1.4851261 -1.972927
0.11564707 -2.1660814 -1.0837399 -0.3537242 0.84406227 -1.5421721 -1.1981443 -1.3251343
0.37486014 -9.348598 -1.4758099 -0.8008756 -1.2562929 -0.33565405 -1.0340229 0.16433686
-0.87947696 -1.4391398 -0.5131861 0.9029816 -0.7694453 -1.1894995 -1.3242612 1.1207222
00000000: 2759 8cbf 8693 563e ac9d 81bf 17e2 703d
00000010: 1df9 793f ca78 0fc0 7bd6 a73e 0fff 4a3e
00000020: c46b 69bf f2eb ffbe 88ca bac0 b8ac babf
00000030: abec 4f3e 90ad 8dbe 1ba6 6dbf c468 b2bf
00000040: 99cc ecbf b97a 82bf 659f ebbf a0e0 b6be
00000050: 84d4 2540 44ef 883f 81a7 9bbf f8d1 36c0
00000060: 18ab 9bbf 5cc8 56bf ad44 92bf a031 0641
00000070: 7a8b f4bf e11c b0bf 3227 69be 4287 91c1
00000080: f862 f7bd fd04 89bf eb47 37bf 5a7f 95bf
00000090: 5b3d 163e 449b f83f 9d18 bebf df88 fcbf
000000a0: 5fd8 ec3d 14a1 0ac0 fdb7 8abf 571b b5be
000000b0: 7714 583f e565 c5bf cb5c 99bf 009e a9bf
000000c0: abed bf3e db93 15c1 57e7 bcbf 2f06 4dbf
000000d0: 35ce a0bf d9da abbe dd5a 84bf ec47 283e
000000e0: 6725 61bf bc35 b8bf 2a60 03bf cd29 673f
000000f0: 5efa 44bf 8541 98bf 6481 a9bf d373 8f3f

dense_layers.1.2.running_var f4 [64]
1.8107089 7.9382806 0.7801834 0.5527162 1.1902575 70.66581 2.1857572 3.662805
1.0178938 3.680869 71.054214 0.775085 1.9398919 2.1556754 2.2788506 0.4757947
1.8427035 2.190035 0.68000126 0.9544402 40.336407 1.4768013 3.9830375 10.356142
2.6992407 1.8537132 0.52262807 61.119144 225.11539 1.6769358 1.2757825 113.984764
2.8674154 1.6224667 0.8922612 3.4341202 1.3210937 2.7434921 2.2181985 2.2611182
2.2638657 84.23647 3.3229735 0.83987546 0.52302974 1.5592554 1.5435277 0.80598855
0.97739375 36.730614 0.42964116 0.94000703 0.9641578 1.2658051 2.3116188 2.1942065
1.9991287 0.7145421 0.68306196 1.0920466 2.885262 0.99042684 0.9265242 1.4138554
00000000: 4fc5 e73f 6506 fe40 19ba 473f cf7e 0d3f
00000010: 5c5a 983f e554 8d42 72e3 0b40 666b 6a40
00000020: 584a 823f 5c93 6b40 c21b 8e42 f86b 463f
00000030: 614e f83f 96f6 0940 b0d8 1140 5d9b f33e
00000040: b5dd eb3f 8929 0c40 9014 2e3f 3156 743f
00000050: 7b58 2142 d307 bd3f 16ea 7e40 c2b2 2541
00000060: 5cc0 2c40 7946 ed3f f4ca 053f 017a 7442
00000070: 8a1d 6143 d5a5 d63f d74c a33f 33f8 e342
00000080: bc83 3740 fdac cf3f 3b6b 643f a0c8 5b40
00000090: 9919 a93f 6095 2f40 f7f6 0d40 29b6 1040
000000a0: 2de3 1040 1379 a842 99ab 5440 1402 573f
000000b0: 47e5 053f ae95 c73f 5192 c53f 4455 4e3f
000000c0: 7a36 7a3f 26ec 1242 edf9 db3e 4da4 703f
000000d0: 0cd3 763f e705 a23f 90f1 1340 e16d 0c40
000000e0: 73e3 ff3f 3bec 363f 26dd 2e3f 2fc8 8b3f
000000f0: 22a8 3840 9d8c 7d3f b130 6d3f 37f9 b43f
