Julian/training_torch_simple_mask_copy_model_0c0d32f32n.pth (torch, 24949 bytes, 14 tensors)

feature_extraction_layer.1.weight f4 [32, 4, 25]
00000000: f74f 743e 7abb c23c 4f31 eebd 94ca 103e
00000010: 758a f33d ed95 05bf 37ae 653d 5e24 263e
00000020: 398c 6fbe f4f8 ea3d f607 e23d 37de fdbc
00000030: fc83 2e3e 6bbd 833d d119 583d 1c9e 273e
00000040: ef1d 133e b5d2 14bf d778 cf3d 15d8 6abc
00000050: 4648 00bf 2d4f 013e be23 4f3b a64b 3ebe
00000060: 6f08 153d 3edb 88be 668b 37bb f214 a73e
00000070: c712 48be 8829 183e 9f0c b53e f901 36bf
00000080: 84d8 663e 86ea 053f a411 3dbe 7346 843e
00000090: 7fa0 663e 635c cebd 219a b63d 89dc 4d3e
000000a0: b2e9 bfbd 392c 9e3e 215e ed3e ace1 adbd
000000b0: 755d d73d 9e72 013f 5b0d 81be dfd3 a63d
000000c0: a89e b33e 4b4e 94be f254 4f3d ac0e 16be
000000d0: 8df4 a03e b9f6 883d 822e 84be c3b9 f93e
000000e0: bd09 e43d 0808 d4be 7280 d83e 9422 bf3d
000000f0: 03ed abbe cd2c 933e 88d9 2c3d ba31 f9bd
00000100: f0f7 193e 2723 b53d 7629 23be f011 aa3e
00000110: 9715 a03c 4cdb 45be 4cd7 0d3f 7103 1b3e
00000120: 08e0 8abd 31d3 9d3e 831c f53d 155a 8a3d
00000130: ec72 6a3e 577c 2dbf efc9 833e 49a8 b53c
00000140: d7d5 4fbf 9d4a 043e aaab 8c3e 7053 5dbf
00000150: d54b 183e 8811 663d 107c f3be d4d8 2a3e
00000160: b795 063e b482 03bf 8609 8f3d e33c 413e
00000170: 8c4f babd a4ad 353e f193 793e f287 4dbf
00000180: de2d 573e 777d d83d 215a 5abf 167b d4bd
00000190: f39b ef3e 8ef6 14be 4906 37bf c2d4 113e
000001a0: 7e88 db3d ffd4 793d 6bfc 35be 6b7f ca3e
000001b0: 5d78 5bbe 7cef 0f3e fe58 3f3f 3456 223f
000001c0: ae81 de3e 2d97 603f 19fb 0ebe efb6 313f
000001d0: d3e3 8cbe 6010 373f adee c0bd 807a d9bb
000001e0: 4e2b d3bf e1e3 eebd e73f bf3d 4750 49bd
000001f0: 9f3e a33e a80a 443d ecc4 d1be 1714 283e
00000200: ce6b 0d3f b92c aabc ac42 273f 9f0b 893d
00000210: 7d07 0dbe 7a7a d53e 5c86 41be 733a 0abe
00000220: 8a6c 513f 699f 9e3e 5fc8 d43f a20a 9cbd
00000230: 5534 8fbe 1ac5 94be fe09 bebe 78ea f53c
00000240: 0c3a d1bf 6d8f 6abf 6dad 1dbe 3471 5fbe
00000250: 8b94 99be 2738 a53e 695d b23d 83be 043f
00000260: 5df2 4d3e c188 24be 3efc e73e c540 d3be
00000270: eb5e c93e 010d c43e 9543 f63b f626 153f
00000280: e333 29bd ba86 cb3f e910 05bf a2fe 4e3f
00000290: 8cee c53e f4c8 82be b893 74be 0ae9 0bbc
000002a0: 2a49 c13e 9d9f f03e 9eca 6abf e947 3a3e
000002b0: a939 a63e 48f9 02be 5301 47be 6540 e63c
000002c0: c6a6 9f3d 05c0 a33e d7ef cd3d 284f f8bd
000002d0: e45e 1abe 0541 9d3d 7e49 623c ecec c13a
000002e0: d5f8 70be ae1b 78be ca33 0ec0 9ce0 d13d
000002f0: 45a6 05c0 0baa 393e 7383 743a 5e6b 293f
00000300: 27fa f03c 5a92 553e cc80 803f 08eb 2640
00000310: f25d af3e 4dfa 8b3e 94b0 303f 12ba 563e
00000320: 5135 753d 03a5 5d3f b2b6 9b3d da9d 2a3c
00000330: 52d1 14bd ad94 a7bb 36eb cc3c 391f 8a3d
00000340: 7d85 d03d b332 1e3d 5fd5 433d 58ef 9a3d
00000350: f56a b23c 04af 883d 49b3 c53c f31b 2a3d
00000360: 6158 f1bc 6904 b73c 3ac7 ac3d 920b 67bc
00000370: 070f 1bbd f070 c9bb d4fe e13d b7ff 713c
00000380: 6419 153d 8571 353d ee7c 92bf 9646 df3d
00000390: 0963 b43d 8c29 5dbd f854 55bd e9bb ae3d
000003a0: 7f35 ab3a b227 9b3d 1298 bb3d 3f45 873d
000003b0: d914 933d 26fd c53c e77e 2cbd b8c8 393c
000003c0: 3766 133e ef90 19bd e75e 63bb 6f46 b13c
000003d0: 0490 3c3d d841 8c3c 7cde 3d3c 808e c73a
000003e0: 4a28 883d 5f0e ca3d 7967 a83c 4b2b 6c3f
000003f0: 13b6 07bc 6cbb 873d 14b4 dabc af16 dabc
0.23858629 0.023771036 -0.116304986 0.14139777 0.11891643 -0.52181894 0.056074347 0.1622481
-0.23393334 0.11473265 0.11036675 -0.03098975 0.17042536 0.06432613 0.052758995 0.16368908
0.14366888 -0.58134013 0.1013047 -0.0143337445 -0.5011028 0.1262786 0.0031606997 -0.18583545
0.036384996 -0.2672977 -0.0028006672 0.32633168 -0.19538413 0.14859593 0.35361192 -0.7109676
0.22543532 0.5231098 -0.1846376 0.25834998 0.22522162 -0.10076215 0.089161165 0.20103659
-0.09370746 0.30893114 0.46360877 -0.08490309 0.105158724 0.50565517 -0.25205502 0.0814588
0.35081983 -0.28965983 0.05061812 -0.14654034 0.31436577 0.066876836 -0.25816733 0.48774537
0.1113467 -0.41412377 0.42285496 0.09332767 -0.33579263 0.28745118 0.04219964 -0.12167688
0.15035987 0.088445954 -0.15933785 0.3321681 0.019541545 -0.19321936 0.5540664 0.15138032
-0.06781012 0.3082519 0.11968329 0.06755463 0.22895402 -0.6776785 0.2574 0.022174971
-0.8118567 0.12919088 0.2747472 -0.8645544 0.14872678 0.056169063 -0.4755559 0.16684276
0.13143049 -0.5137131 0.06984238 0.18870883 -0.090972036 0.1774202 0.24372841 -0.8028556
0.2101359 0.105708055 -0.85293776 -0.10375039 0.46798667 -0.14547178 -0.71493965 0.14241317
0.10719393 0.060994145 -0.17772071 0.39550337 -0.21432634 0.140562 0.74745166 0.63412786
0.43458313 0.87730676 -0.13962974 0.6941976 -0.27517566 0.7150936 -0.09420524 -0.0066369176
-1.649759 -0.11664558 0.0933836 -0.049148824 0.31883714 0.047861725 -0.40970552 0.16413914
0.5524262 -0.020773279 0.6533611 0.0669167 -0.13772388 0.41695005 -0.1889891 -0.13498859
0.8180624 0.30980995 1.6623648 -0.076192155 -0.27969614 -0.29056627 -0.37116998 0.03001903
-1.634584 -0.916251 -0.15398188 -0.21820527 -0.29996142 0.32269403 0.08709223 0.518532
0.20111986 -0.16067792 0.45309633 -0.41260353 0.3933023 0.3829117 0.0075153806 0.58262575
-0.04130925 1.590049 -0.5197893 0.8085729 0.3865856 -0.2554394 -0.23884475 -0.008539448
0.37751132 0.46996775 -0.9171542 0.18191494 0.32465866 -0.12790406 -0.19434099 0.028106878
0.077954814 0.31982437 0.100555114 -0.12124473 -0.1507526 0.07678417 0.013811467 0.001479534
-0.23532422 -0.24229309 -2.221911 0.10247919 -2.0882733 0.18131272 0.0009327449 0.66179454
0.029416157 0.2085661 1.0039306 2.6080952 0.34251362 0.27339402 0.69019437 0.20969418
0.0598653 0.8657991 0.07603206 0.010413611 -0.036332436 -0.005114159 0.025014501 0.067442365
0.10181711 0.03862257 0.04781091 0.075651824 0.021779517 0.066740066 0.024133341 0.04153056
-0.029461088 0.02234097 0.08436437 -0.01410188 -0.037856128 -0.0061474964 0.11034933 0.01477044
0.036401168 0.044297714 -1.1444376 0.10902135 0.08807952 -0.0539947 -0.052082986 0.08531935
0.0013062208 0.07575931 0.091598645 0.066050045 0.07181711 0.024168562 -0.04211321 0.011339359
0.1439446 -0.037491735 -0.0034694017 0.02164003 0.04603578 0.01712124 0.011588689 0.0015224963
0.066483095 0.09866022 0.020557152 0.9225356 -0.008283156 0.06627545 -0.026697196 -0.026622145

feature_extraction_layer.1.bias f4 [32]
00000000: 5d04 bdbd c26f 233f e0f8 853d 81cd af3d
00000010: 0c7e b5bd 4320 a23d 162e dc3d 6f79 d63d
00000020: 9b21 d33e 371f 20bd c1ec 9f3d 4cc1 f63d
00000030: ca7c 1bbd d8fe 0e3d beec 9b3d cad8 983d
00000040: bf1f a03d aa74 8c3d 3c86 32bd 7055 d4b8
00000050: b3c4 06bd eafe 5e3d c119 653c 7bb1 b4bd
00000060: d5b0 57bc 3343 acbd 53a4 dcbd 7866 af3d
00000070: 40f0 4cbd 3679 463d 2f68 8abc 321e 06bd
-0.09229348 0.63842404 0.0654161 0.08584119 -0.08861932 0.0791631 0.10750978 0.1047238
0.41236576 -0.03909227 0.07808829 0.12048587 -0.037960805 0.034911007 0.07613514 0.07463224
0.07818555 0.068581894 -0.043585047 -0.00010124862 -0.03290243 0.054442324 0.013983191 -0.08822914
-0.013164719 -0.08411255 -0.1077353 0.08564466 -0.050033808 0.04845544 -0.016895382 -0.03274364

feature_extraction_layer.2.weight f4 [32]
00000000: 7f51 bf3e f461 ca3f 5d6e 2d3f 9b0c 883e
00000010: 8fc5 673e aba9 233e c64a 413e 8fa9 ae3e
00000020: a20e 923f 5bc5 723e 62f3 3b3e 5d4c ac3f
00000030: 54f0 983e 6410 d83e eff8 e43e 013f 8f3e
00000040: 19af a73e 807d 853e 7a51 e53e 57dd c73e
00000050: 8602 483e d8b5 663e bde5 933e dab0 7b3e
00000060: 9be7 513e cb5d 463e bbe5 a43e 5cb5 463e
00000070: f340 823e 3113 693e 45e1 7e3e 4055 c83e
0.37366864 1.5811143 0.67746526 0.26572117 0.22633956 0.15982692 0.1887618 0.34113738
1.1410716 0.23708098 0.18354562 1.3460804 0.29870856 0.42200005 0.4472117 0.27977756
0.32750776 0.2607231 0.44788724 0.39036056 0.19532213 0.22530305 0.28886214 0.24579182
0.20498507 0.19371717 0.3220652 0.1940512 0.25440177 0.22761227 0.24890621 0.3912754

feature_extraction_layer.2.bias f4 [32]
00000000: 2d61 8cbf 854d 2cc0 5e3f 7dbf 35a8 4cbf
00000010: b872 3ebf d3cd 6cbf 55e0 82bf 42d6 91bf
00000020: bfbb 50c0 67c4 47bf e361 73bf 3a5b 78c0
00000030: ae63 70bf 8c75 93bf 386f a1bf f6c8 97bf
00000040: a5d0 84bf 8a2d 57bf b18f 90bf 1adf e6bf
00000050: 918b 5bbf 0eb0 6cbf 8aec 85bf fb14 4ebf
00000060: 1bf0 55bf 3d93 39bf d6ee 80bf e8aa 6ebf
00000070: 4e20 79bf 2b6b 66bf 0860 4ebf 84d5 67bf
-1.0967156 -2.6922314 -0.98924816 -0.79944164 -0.74393797 -0.9250156 -1.0224711 -1.1393511
-3.261459 -0.7803406 -0.9507124 -3.880568 -0.939021 -1.1520247 -1.2612066 -1.1858203
-1.0376173 -0.8405386 -1.1293851 -1.8036835 -0.85759836 -0.9245614 -1.0462811 -0.80500764
-0.83569497 -0.7249029 -1.0072887 -0.9322953 -0.9731492 -0.90007275 -0.8061528 -0.90560174

feature_extraction_layer.2.running_mean f4 [32]
00000000: 24cf 213f 2f3e 2840 da6b 913f b003 13bf
00000010: 817a 1fbf 02ff 093f 89db bfbc 0d33 a9bd
00000020: 7c2d 7140 0a1f 17be 9eff e0be 2566 913f
00000030: d2c7 8d3e 3c1f 54be de10 363f 2046 913e
00000040: d4fa 893e 838a 2f3e ebf3 013f 341b c93f
00000050: 8384 e8be a52a a63e f95b 223f 2c60 003e
00000060: 0738 2c3f ff66 a1be b228 00bd 798b 76be
00000070: 9ffa c5bd 105a 2ebe 2ea3 a9be fe86 2f3f
0.63206697 2.6287954 1.1361039 -0.574275 -0.622963 0.53904736 -0.023420112 -0.0826169
3.7684011 -0.14757934 -0.4394502 1.1359297 0.27691513 -0.2071504 0.7111949 0.28373814
0.2694918 0.17142682 0.50762814 1.5711427 -0.45413598 0.3245441 0.6342159 0.12536687
0.6727299 -0.31523892 -0.03128881 -0.24076642 -0.09666943 -0.17026544 -0.3313231 0.68565357

feature_extraction_layer.2.running_var f4 [32]
00000000: bd76 7f40 3f40 0041 6a9e 733f 7f50 1d40
00000010: 2098 2540 bcdc 1440 259d f83f ef32 8240
00000020: 456b 3541 df9f 8c3f 0f2f bf3f c75c fe40
00000030: 0fba 8f3f 8d8e cb40 f72e 1440 1292 913f
00000040: 2430 d73f e37d da3f bfd4 b13f 4658 3640
00000050: 68bf c13f c80b a53f ec85 2040 bf6e a13f
00000060: 2dbd 9c3f dd75 1540 84e7 2740 75a1 5e40
00000070: 70f8 a93f 901f 9d3f d5a3 f33f 02d5 2540
3.9916222 8.015685 0.95163596 2.458038 2.58741 2.3259726 1.9422957 4.0687175
11.338689 1.0986289 1.4936236 7.9488254 1.1228656 6.361151 2.3153665 1.1372702
1.6811566 1.7069668 1.389305 2.8491378 1.5136538 1.289422 2.508174 1.2611922
1.2245232 2.3353188 2.6235056 3.4786046 1.3278942 1.2275257 1.9034373 2.591126

dense_layers.0.1.weight f4 [32, 32]
00000000: 6dc9 43bd 79f5 6e40 adb3 20be f7e6 4c3e
00000010: 113a 683e be85 8d3e 05d9 94bd 6ac9 52bd
00000020: ee72 bbbd 597d 3cbe 6b0e 35bc 00a6 e83d
00000030: 5963 d03d 3877 cabc 562e 3ebd e6d4 a5bd
00000040: a26f 5c3e 0c78 07b9 2817 f63d 8e01 b6bc
00000050: 5ea7 ca3d b645 d5bd 1984 a5bd 3ed5 03be
00000060: d61b fb3d 5fee 9b3b fab1 2d3c e649 da3d
00000070: 792c be3d 3638 a03d 38e1 21be db1d 8fbb
00000080: bd38 a1bd 5569 05be e040 293e 5a41 76be
00000090: 3640 c8bd d082 9a3e fa52 b0bd ad09 243e
000000a0: e692 04c0 1f6a 00bc b63b cbbd d89b a3bf
000000b0: 69f7 e8bc 6eb0 803e 9898 5fbd 55c6 473d
000000c0: 8890 5dbe 95b9 0b3e e49a 14be ac14 453f
000000d0: 7ab0 83be e576 56bc 08f7 05be e286 333e
000000e0: ebb6 bb3d 3498 d63d 7cef 36be e58b bbbd
000000f0: 9b98 953d 7fc9 bf3d 3228 50bd c966 043e
00000100: f630 36be 6635 b33e f1e0 3fb7 2dc0 19be
00000110: 3204 3bbd cbba 11be 607d cb3d 1c38 39be
00000120: f772 463e 6e26 8bbd 88eb 2abe acab bdbc
00000130: d78c 4dbd ed02 843e 3517 743e 4c36 c3be
00000140: 0f40 b43d fef2 d4bd fdc2 14bd 433b 27bc
00000150: b81d 1e3e dd25 6ebc 25dc 393d a8e1 64bd
00000160: 021e cf3d 46fd c83d e44b aebe 692c 9f3d
00000170: 5afa 29be 1794 f1bd c35e 95be bcf0 7fbd
00000180: 579e b33e 1bad fbbf 6e30 5b3e a43e 88bd
00000190: fc4a 13bd e570 46ba c1f3 02be bd04 ddbc
000001a0: 9310 93be 1e26 a7bd 6187 23be 2b90 88bd
000001b0: 499f 4e3e f68e 273d a19c ab3e a59e debd
000001c0: 7deb 8ebb 7144 533e 39c5 00be ea7b 94bd
000001d0: b3dd 40be 84f9 6fbc fd5f 063e af32 0fbe
000001e0: a6da b93c 00a7 573e 8469 88be 14ca 733e
000001f0: ff9a 003e 4f66 22bb eeac 74be ce07 0fbe
00000200: ed5d 92bd a814 b7bf b908 573c 5c3d f1bc
00000210: 761d 70bd 20c4 5d3d 614a d8bd 0923 bebe
00000220: 783c 44bf aaa0 bc3d 7fbc f83c f26d 853e
00000230: dabb 053e 5649 523d ae55 3f3e 7f9c df3d
00000240: 61b1 d13c 9685 473e dd0e 943e 53ca 1d3e
00000250: 156f 2b3b 05d7 0abe d49e 4abd 75a2 383d
00000260: ff82 2fbe 47a4 f73c 5542 64bd ecf0 dcbc
00000270: b3e3 0cbe 0c01 ba3d d877 26be 6b29 0d3d
00000280: 8505 973e c861 793e 2ae2 403e 6209 12bc
00000290: af8b 0c3e 6b42 603e 010c 853d e077 bb3e
000002a0: 0a6c 17be af1f c9bd debf ae3d 8da7 323e
000002b0: 0a9d bd3d 92ed fbbd 6144 e1bd 9ef8 33bd
000002c0: 9b75 9fbc b4ab 7dbc ecc0 15be 20ba 4dbe
000002d0: 516a 69bd 2844 57be dc3a 123d e673 be3e
000002e0: defd 983c a543 a6bd bfd6 f1bd fd56 88ba
000002f0: 01d7 e43e b590 1c3e 74d7 c93d 00fa 6d3e
00000300: a339 9cbb a641 f0bf 188a 123e a49a 23be
00000310: 4583 913d f307 f2bd 0027 9c3e e82f e3bd
00000320: c592 de3e 48e9 e4bb cf6d 693e 60fd 5dbe
00000330: 1936 0b3e 621e 633c 564b c9bd b2a8 fb3b
00000340: 5a2f b73d 1ce6 58be cacd 7bbe cf94 693e
00000350: 2947 fe3b 36d9 7d3d 4fbb cf3d 171f ac3e
00000360: 7063 90be c91c 40be 2fea ce3d 541d 5abe
00000370: 044a 10be 115d a2be d541 98bd 14a7 0f3d
00000380: ce99 04bc 3cc4 b2be f66d 3cbc 74c3 3abe
00000390: 13d1 6f3c f23f 3ebe 2917 df3d f9d6 3a3e
000003a0: 53aa 233c 4963 18be a3af af3d e982 68bf
000003b0: 6c29 f13d 2ea6 163f d218 0a3e 4b98 66bd
000003c0: d607 27be 7c2b 513d 14d9 793b 044a 32be
000003d0: 0530 283d bf6a 1abe 21f2 5abe f2f7 ccbd
000003e0: af39 e63d f0ab e13d 28d9 62bd a46d 77be
000003f0: 5aa9 703e d8e1 f63d b76c 70bc f0d4 083e
-0.047799516 3.7337325 -0.15693541 0.20009981 0.226784 0.276411 -0.07267956 -0.051461615
-0.091527805 -0.18407191 -0.011050801 0.11359787 0.10175199 -0.024715051 -0.04643091 -0.08097248
0.2152696 -0.00012919324 0.120161355 -0.022217538 0.09895204 -0.10413687 -0.08081836 -0.12874314
0.12261169 0.0047586407 0.010601515 0.10658626 0.09285826 0.078232214 -0.1580857 -0.0043675727
-0.0787215 -0.13028462 0.16528654 -0.24048367 -0.09777872 0.30177927 -0.086095765 0.16019316
-2.071466 -0.007837801 -0.09923498 -1.2781935 -0.028438287 0.25134605 -0.054588884 0.04877313
-0.21637166 0.13645013 -0.14512211 0.7698467 -0.25720578 -0.01308987 -0.13082516 0.17531922
0.09165748 0.10478249 -0.17864794 -0.09157542 0.07304498 0.09364604 -0.050819583 0.12929834
-0.17792115 0.35001677 -1.143686e-05 -0.15014715 -0.045658298 -0.14231412 0.09936023 -0.1808781
0.19379793 -0.06794439 -0.1669141 -0.023153149 -0.050183143 0.25783482 0.23836978 -0.38127363
0.08801281 -0.103979096 -0.036318768 -0.010207 0.15441024 -0.0145353945 0.04537596 -0.055879265
0.101131454 0.09813933 -0.34042275 0.077721424 -0.16599408 -0.11795824 -0.2917386 -0.06248544
0.3508174 -1.9662203 0.21405193 -0.06652573 -0.035960183 -0.0007569923 -0.12788297 -0.026979798
-0.28723583 -0.08161567 -0.15969612 -0.06668123 0.2017795 0.040907823 0.33517936 -0.10870103
-0.0043615685 0.20631577 -0.12575234 -0.07250197 -0.18834572 -0.0146468915 0.13122554 -0.13984178
0.022687268 0.21059799 -0.26643002 0.23807555 0.12559126 -0.002478022 -0.23894092 -0.13967821
-0.07146821 -1.4303179 0.013124638 -0.029448204 -0.058621846 0.054142118 -0.10561062 -0.37136105
-0.7665477 0.09210332 0.03036332 0.26060444 0.13059941 0.05133947 0.18685028 0.10918521
0.025597276 0.19484553 0.2891759 0.15409212 0.002615874 -0.13558586 -0.049467877 0.045076806
-0.17139815 0.0302297 -0.05572732 -0.02697035 -0.13758735 0.09082231 -0.16256654 0.034463327
0.294964 0.24353707 0.18836275 -0.00891337 0.1372516 0.21900336 0.0649643 0.36614895
-0.14787307 -0.09820496 0.085326895 0.17446728 0.092584684 -0.12301172 -0.1099937 -0.04393827
-0.019465258 -0.015482832 -0.14624375 -0.20090532 -0.056986157 -0.21022093 0.035700664 0.37197798
0.01867574 -0.08118371 -0.11808538 -0.0010401901 0.44695285 0.15289576 0.098555475 0.23239899
-0.004767613 -1.8770034 0.14310491 -0.1597696 0.07105116 -0.118179224 0.30498505 -0.11093122
0.4347135 -0.006985817 0.22795795 -0.21678686 0.13594855 0.013862224 -0.09828822 0.007680022
0.089445785 -0.2118153 -0.24590221 0.22810672 0.007759948 0.061974727 0.10143148 0.3361747
-0.28200865 -0.1876098 0.10103261 -0.2130025 -0.14090735 -0.3171163 -0.074344315 0.035071447
-0.0080933105 -0.3491534 -0.011500826 -0.18238622 0.0146372495 -0.1857908 0.10893089 0.18246068
0.009989339 -0.14881624 0.08578422 -0.90824753 0.11775479 0.5884732 0.1348603 -0.05629758
-0.16311583 0.05106686 0.0038123773 -0.17411047 0.04106142 -0.15079783 -0.21381427 -0.10008229
0.11241471 0.110191226 -0.055382878 -0.24162918 0.23502102 0.12054795 -0.014674357 0.13362479

dense_layers.0.1.bias f4 [32]
00000000: 77eb dd3d f0cd 203e e959 abbc 50bc 423e
00000010: 73aa 1b3d bb58 c1bd 2127 04be 97ca 003e
00000020: e2fb 8ebd 4353 ed3d 55b6 26be 1e47 1b3d
00000030: fb4c f5bd 4fc7 783d 1c90 113e 11ba a73d
00000040: 33e3 bcbd d3e4 2bbe 5c6d b8bd e4c1 d4bd
00000050: b921 2a3e bd78 c3bd 200c 9a3d 158e 1f3e
00000060: 371d f23d 7e32 15be 2326 923c fe0c 67bd
00000070: 61e6 263e 936f 84bb f2f2 413c 55ca 2c3c
0.10835927 0.15703559 -0.020916896 0.19017148 0.03800435 -0.09440752 -0.12905551 0.12577282
-0.069816366 0.115881465 -0.16280492 0.03790962 -0.119775735 0.06073695 0.1421513 0.08189786
-0.09223022 -0.16786508 -0.09005234 -0.10388544 0.16614427 -0.095445134 0.07521844 0.15581544
0.118219785 -0.14570042 0.01784045 -0.056408875 0.1629882 -0.004041621 0.011837708 0.010546287

dense_layers.0.2.weight f4 [32]
00000000: 1e06 783f a928 513f 05b2 933e b9e2 4d3f
00000010: 480d 863f 26d6 893e 3d6f 7f3f 034e 813c
00000020: a169 323e a016 203e 7946 e03d f4c1 b53f
00000030: 3f8e 9d3e af1d 343f b5bb 733e 791a 5a3f
00000040: 179d a73f 3f07 1d3f 2b00 253d 2f6d 1cbd
00000050: 4e9a d53e bcba 7f3e 09fd 923d e166 693f
00000060: 1a23 a83f e350 e93f e6c6 483f b0e5 c13f
00000070: 6f60 863e ff01 513f e9a7 303f 2cfe ca3f
0.96884334 0.8170267 0.28846756 0.80424076 1.0472803 0.26921195 0.9977911 0.01578427
0.17423107 0.15633631 0.109509416 1.4199815 0.30772588 0.70357794 0.23802073 0.85196644
1.3094815 0.6133918 0.040283363 -0.038190063 0.41719288 0.24973577 0.07177169 0.91172606
1.3135712 1.822781 0.78428495 1.514822 0.26245448 0.8164367 0.6900621 1.5858817

dense_layers.0.2.bias f4 [32]
00000000: 3307 783e 9cda a53e 07df bfbe f0a1 0bbf
00000010: 99b5 17bf dad8 ecbe 8aa5 cbbf 0d17 5cbd
00000020: ad0c bcbe 6bfd 52be 5c9c f5be 700d 46be
00000030: 7443 e3be 6b0d 333e 55b0 98be 5174 0cbf
00000040: 96f3 73be 356b f93d 52bf 68bd 349a 3bbd
00000050: e5e7 13bf 6108 a8be 9130 d8bd aa13 853e
00000060: 873d 61bf 1da6 43bf 8c78 04bf 7b0a 55be
00000070: a52a 22be 5693 56be cf8a fc3d f76b 2bbf
0.24221496 0.32393348 -0.37474844 -0.5454397 -0.5926147 -0.46259195 -1.5909894 -0.05373292
-0.3672842 -0.20604484 -0.47970855 -0.19341063 -0.443874 0.17485587 -0.2982203 -0.54864985
-0.2382339 0.12178651 -0.056823082 -0.045801356 -0.5777572 -0.32818893 -0.10556138 0.25991565
-0.8798451 -0.76425344 -0.5174644 -0.20804779 -0.1583658 -0.20954642 0.12331163 -0.66961616

dense_layers.0.2.running_mean f4 [32]
00000000: ef70 9141 fe45 05c0 657a de3f 56d6 17c1
00000010: fe7b e2c0 e19d 903f 1fb0 12c1 e654 08c0
00000020: 2433 bcbd f051 3dbe e746 6bc0 4571 5640
00000030: 80a2 0b40 8bf7 6a41 0c6a 4b3f ca88 6bc0
00000040: cc02 2240 6256 6141 a120 b040 1d92 03bf
00000050: 5e61 5840 4788 1e3f 0163 1c40 0390 1640
00000060: 8591 8bc0 be04 5241 58e0 3dc0 7a29 6640
00000070: 8fb1 1c40 56e1 2540 a318 3641 c47b 49bf
18.180143 -2.082397 1.7381102 -9.489828 -7.077636 1.1298181 -9.167998 -2.1301818
-0.09189442 -0.18488288 -3.6762025 3.3506634 2.1817932 14.685435 0.7945869 -3.680224
2.5314207 14.08359 5.503983 -0.51394826 3.3809428 0.6192669 2.4435427 2.3525398
-4.3615136 13.126158 -2.9668179 3.5962815 2.4483373 2.5918784 11.381015 -0.78704476

dense_layers.0.2.running_var f4 [32]
00000000: 5d53 c342 725a 1141 9d68 5f3f c9ee d941
00000010: 76ea 6a41 10c8 df3e 9ea4 c641 cd29 0540
00000020: aa04 273f 0cba c03f de22 6440 3d22 1041
00000030: 4629 f83f 7779 8042 0f63 a83e d4ef f040
00000040: 716a e840 fb58 7442 bb2d 1441 59d7 e63f
00000050: c901 9540 9106 d73e a12b 7a40 35df 9e41
00000060: 437c 0741 ad84 5842 1123 a140 f361 3e41
00000070: 3087 8440 9ad9 dc40 1cee 2042 5e4a 9640
97.66282 9.084581 0.87269 27.241594 14.682241 0.43707323 24.83038 2.0806763
0.6524149 1.5056777 3.5646281 9.008359 1.9387596 64.237236 0.32888076 7.529276
7.2629933 61.086895 9.261165 1.8034469 4.656468 0.41997197 3.908913 19.858988
8.467837 54.129566 5.0355306 11.898913 4.1415024 6.9015627 40.23253 4.696578

prediction_layer.weight f4 [13, 32]
00000000: 36c3 e8be b4b5 13bf 808e 1ebe a23d b0be
00000010: 8ad3 a6be 86d1 c0bd 86b0 f43e 896b 4ebe
00000020: 9fdb 21be 0a9a b8bc ee9b febc 58a6 01bf
00000030: d3d8 cb3c 18dd aabe 354e aebd 4186 78be
00000040: f667 9fbe cd12 75be b953 a8bd 160b a93b
00000050: 710f f43b 3ed2 31be a0b1 f0bc 9f6b 673e
00000060: 0f2b adbe b0db 463f 9ad8 bdbe 44be 8bbe
00000070: b9e8 2abe 6179 a2be a671 dcbd 8493 8a3e
00000080: 438b 2ebf 719f ecbe 8fad a3bd 93d7 04bf
00000090: 1f29 d9be d5e2 e53d 941d 0e3f aef3 1dbe
000000a0: 1d0e fdbd da7e 833d f0e2 f3bd a88a 25bf
000000b0: 64de b1bd 623b 05bf bdc4 ebbc 7d66 53be
000000c0: 3e7a d7be dd41 21bf 030f 8dbe 1ea8 9b3d
000000d0: 4826 23be 3fb9 47bd 300c 633d 66d4 853e
000000e0: 15a0 95be 5bdb 6e3f 2c02 77be 483a f2be
000000f0: 7931 41be 9a3d d1be 9085 c3be 49fa 873e
00000100: 69eb 19bf a3e8 dbbf 70f8 983d 5b55 e9be
00000110: f9c6 babe 147d 8ebd 498e 62bb 68d6 08bf
00000120: f32d 13be 7798 b0be 427a b9bd b528 473e
00000130: a0b5 523d 4555 0ebf a416 223c 3cc5 223f
00000140: 21fd 0f3e 26ce b3be 59d4 0cbe c7f3 cabe
00000150: 8fe4 bd3c 2697 d83c 7805 17bd c4ad 973e
00000160: a0aa 693f c935 b63b 19eb 843e 0a19 fa3e
00000170: 0a09 cfbd d62c 943e 37b0 e6be 308d eb3e
00000180: e5aa b7be f72e 46bf 446b 96bd 3a24 95be
00000190: 0c8e cfbe 28e7 cdbb 948c 503f 1eff 083d
000001a0: 8697 37bd 6601 323d 58be dc3d 2e8f 35bf
000001b0: 602b 01bc 4cb0 9ebe 5ae9 78bc 189e eabe
000001c0: 060e 2cbf 011b 8bbe d095 f2bc 00ca 97bd
000001d0: b3d9 393e f137 abbd fcfa 8f3d 3a64 e63e
000001e0: aa77 62bf fba6 9d3f d595 d7be 1d97 32bf
000001f0: ae68 e6bd 8626 07bf 1525 45be d3fb 0e3f
00000200: c85f 5fbf 0da5 173f 8e90 e0bd 7c71 09bf
00000210: 1dcf 87be ef13 d0bd 81a4 c23e e52f 8c3e
00000220: a349 cd3d c5c4 253e 2720 6bbe d760 9bbe
00000230: 9a01 12be f75e 22bf b879 b23d 7d38 5dbe
00000240: 2a3d dabe d5b7 32bf d908 a7be db43 2c3d
00000250: 63fc 87bd fe00 93bc d15e 34be 5135 0fbd
00000260: 9db5 8bbe 1459 623f ae94 2cbc 610f edbe
00000270: 58d9 35be 8443 e0be 3026 9cbe 5e48 c13d
00000280: 1638 5abf 58c2 073d 7a5a 913d cd64 5abf
00000290: f53e 9cbf 8839 a03d 3213 0840 ea05 0b3e
000002a0: a9ca 583e 1b8d 04be 645e a53d 4438 5fbf
000002b0: c452 693c 62cd 3cbf 13f7 143e 8cdd 07bf
000002c0: 8190 72bf a877 14bf c44d 02bd db42 3d3e
000002d0: 4cc5 8d3e ce18 4e3d 9622 14bc 7cd8 fd3f
000002e0: a208 96bf 2b3f 2a40 62a1 66be d19e 94bf
000002f0: 555d b13d 117d e5be c737 4abf 28d5 0b40
00000300: d947 23bf cf88 50bf 8bd3 f2bc 03eb c9be
00000310: 47fe cbbe a470 a63c 68a0 cf3e 6863 49be
00000320: 25c7 92bd af8c 37be 99f4 833c d366 edbe
00000330: 38c3 00be a1f7 0abf 545d 183d 1dc6 41be
00000340: fb92 90be 2c78 e0be 0afc 0fbe 2280 bb3d
00000350: 2a79 653c 9a31 12be fb96 f43c a18f 853e
00000360: 9ac3 9dbe 5de0 823f bdbb 84be 031b 6ebe
00000370: e877 b13c e3c9 4abe 6bf8 98be 92ad b23e
00000380: baac 84be 22f8 12bf 28ee edbd 16b1 7ebe
00000390: 0e6e 02bd e27a 83bd 5fd3 b63c 3e1c 5cbe
000003a0: 63e7 afbd acf1 ffbd 86c0 04bc fd29 d03e
000003b0: 3333 39bc 0a72 d0be 3b9c a8bb f418 333f
000003c0: 9427 c53e c28e e9bd c08b d6bd 0f17 e8bd
000003d0: 0ff4 313e 82a6 483e d834 a63d 6880 d43d
000003e0: 4cc5 3b3f bebb 39be f0ad d03e cc7f c13e
000003f0: 0b75 8a3e 2f03 233f f533 1bbe a2bb b53d
-0.45461434 -0.5769913 -0.15484047 -0.34422022 -0.32583266 -0.094149634 0.47790927 -0.20158209
-0.15806435 -0.022534389 -0.031080212 -0.50644445 0.024883663 -0.33371806 -0.085110106 -0.24269964
-0.31134003 -0.23932953 -0.08219094 0.0051587922 0.00744813 -0.17365357 -0.029381573 0.22599648
-0.33821914 0.77678967 -0.37079316 -0.272936 -0.16690339 -0.3173323 -0.10763864 0.2706567
-0.68181247 -0.46215394 -0.07992088 -0.5189144 -0.42414185 0.112249054 0.5551388 -0.15424988
-0.123562075 0.064206794 -0.11908519 -0.646647 -0.08684996 -0.52043736 -0.028780336 -0.20644565
-0.4208545 -0.62991124 -0.27550516 0.07600425 -0.15932572 -0.04876065 0.055431545 0.2613861
-0.29223695 0.9330346 -0.24121922 -0.4731009 -0.18866529 -0.4086731 -0.38187838 0.2655814
-0.6012483 -1.718037 0.07469261 -0.45572934 -0.3647993 -0.069574505 -0.0034569672 -0.5345216
-0.14372997 -0.3449132 -0.09056522 0.19449122 0.051442742 -0.5559886 0.009893093 0.63582206
0.14061405 -0.35118216 -0.13752879 -0.39639112 0.023180274 0.02643926 -0.03687045 0.2962476
0.9127598 0.005560611 0.25960615 0.48847228 -0.10109146 0.28940457 -0.45056316 0.46006155
-0.3587257 -0.7741541 -0.07344678 -0.291292 -0.4053806 -0.0062836595 0.81464505 0.033446424
-0.04482224 0.043458365 0.10778493 -0.709216 -0.007883877 -0.3099388 -0.015192354 -0.4582374
-0.672089 -0.2716904 -0.029612452 -0.07411575 0.18149452 -0.08360279 0.07030293 0.44998342
-0.8846384 1.2316583 -0.421065 -0.6976183 -0.11250435 -0.5279316 -0.19252427 0.55853003
-0.87255526 0.5923622 -0.109650716 -0.5368879 -0.26525202 -0.10160052 0.38016132 0.2738029
0.10023811 0.16188343 -0.22961484 -0.3034732 -0.14258423 -0.63426155 0.08714622 -0.2160358
-0.4262479 -0.69811755 -0.32623938 0.0420569 -0.06639936 -0.017944809 -0.17614295 -0.034962956
-0.27286997 0.8841717 -0.010533495 -0.46300796 -0.17758691 -0.4380151 -0.30497885 0.09437631
-0.8524183 0.033144325 0.07097335 -0.8531006 -1.2206713 0.07823473 2.1261716 0.13576475
0.21171059 -0.12944452 0.08074644 -0.8719523 0.014240924 -0.7375089 0.14547376 -0.5307243
-0.94751745 -0.5799508 -0.031812444 0.18482535 0.27689588 0.050316624 -0.009041449 1.9831691
-1.1721385 2.6601055 -0.225225 -1.1610967 0.0866038 -0.4482198 -0.7899136 2.184885
-0.63781506 -0.81458753 -0.029641887 -0.39437112 -0.39842436 0.020317383 0.40552068 -0.19666827
-0.0716689 -0.1792476 0.016107844 -0.4636751 -0.1257447 -0.542841 0.03719838 -0.1892323
-0.28237137 -0.43841684 -0.14060989 0.09155299 0.014005939 -0.14276734 0.02985715 0.26086143
-0.30813295 1.022472 -0.25924483 -0.23252492 0.021663621 -0.19803576 -0.29877028 0.3489805
-0.2591303 -0.5740987 -0.1161769 -0.2487224 -0.031843238 -0.064199224 0.022317586 -0.21495149
-0.085890554 -0.12497267 -0.008102542 0.40657035 -0.011303711 -0.40712005 -0.0051455772 0.6995995
0.38506758 -0.11404182 -0.10475874 -0.11332523 0.17378257 0.19594768 0.08115548 0.10376054
0.73347926 -0.18138024 0.40757704 0.37792814 0.27042422 0.6367673 -0.15156539 0.08873679

prediction_layer.bias f4 [13]
00000000: 9972 0bbf 4d58 0abf 2ed8 1cbf 7c0e cc3d
00000010: 5217 573e 3c34 c93f c16b c9be efa4 2dbe
00000020: fdc7 71bf 146c 65be 1148 34bd a71d 4a3f
00000030: 8648 b03e
-0.5447174 -0.54040986 -0.61267364 0.099637 0.2100499 1.5719066 -0.39340022 -0.16957448
-0.9444578 -0.2240451 -0.04401404 0.78951496 0.3443033
